models/mnist_fc_5.pt (torch, 401621 bytes, 8 tensors)

1.weight f4 [100, 784]
00000000: 80fa 01b8 5810 81b8 02ef 63b7 ee9c cfb7
00000010: 7c68 a2b7 5dec 1eb8 0c7f 41b8 a6da a6b8
00000020: b065 a2b8 48b5 9bb7 3cb7 adb8 178d 9cb8
00000030: 2b7e c5b8 d88a 1cb7 8baf 36b8 4adf b3b8
00000040: 7089 7937 35a2 41b8 aa24 83b8 6f46 24b8
00000050: 912f 84b8 5015 0db8 830a 0db8 2c6d 6cb8
00000060: bd27 24b8 816c 86b8 834f 3fb7 0e8d 09b9
00000070: 3d69 8b36 9c62 06b8 ab60 76b8 61d0 d0b8
00000080: 79d9 9cb8 2d4a 64b8 505d 43b8 c4bb 9eb7
00000090: d823 c0b8 44dd 9eb8 8fbd a0b7 b634 90b8
000000a0: b99c 8eb8 e7f5 01b8 6e06 41b8 afc8 24b8
000000b0: 5a9d c1b7 1b0b 3db8 e1ad 2cb8 97da 2db8
000000c0: 3cde 93b7 646a 60b8 dff2 a7b7 24e1 a0b8
000000d0: ddc5 79b8 b60c c2b8 ab17 92b8 f9ae 95b8
000000e0: 4f5a 93b7 6827 71b8 4f84 82b8 fb71 ddb8
000000f0: ece9 d0b8 a3f3 60b8 1a8d 54b8 6d4d 3bb8
00000100: fe04 8fb8 579d a1b8 4df8 ccb8 f786 abb7
00000110: fce1 e0b8 f86e 54b8 c653 d1b8 ed03 3ab8
00000120: 36c9 3cb8 dec0 b6b8 d21e bcb8 17a1 80b8
00000130: 9e24 b6b8 d983 61b8 57eb 0637 36be 6eb8
00000140: b43d b2b8 87e7 f4b8 d715 d3b8 d70d c1b8
00000150: c132 4fb8 85f9 53b7 bb5b 92b8 31d3 38b8
00000160: 45b6 87b8 693e 88b8 ed76 66b8 e97a 0fb8
00000170: 3796 8ab8 a693 bdb8 8428 88b8 a9af 84b7
00000180: fbcc a1b7 acf6 ccb8 2ae5 b337 7f61 cb38
00000190: 3d9b 0539 2f53 9138 e104 0db7 0225 c837
000001a0: c9cf abb6 77aa ffb7 0812 23b8 aa04 a137
000001b0: 4195 9bb8 6cf7 83b8 fcf5 33b8 b9fe 5fb8
000001c0: 42b5 53b8 b97c adb8 ddb2 86b8 b2d1 f1b7
000001d0: 379a 70b8 8251 60b8 35e9 98b8 34a1 e0b8
000001e0: 0e91 b2b8 cab7 f9b8 107a 9fb8 e0b0 0ebb
000001f0: d51e 5bbb f853 25b9 9843 1b3a ea5a c139
00000200: 6ff6 1c39 c09c 6339 332a f239 061b ab39
00000210: 04c1 9839 2b7e ea38 c975 ccb6 5fdb 9ab8
00000220: b326 a3b8 1fe7 30b8 f99d 68b8 ebfa 88b8
00000230: 94bd 60b8 08aa b6b8 962d 2ab8 9845 45b8
00000240: 0078 ceb5 6bbe eeb8 1cf7 c0b8 c267 ffb8
00000250: e4ba 6eb9 3b52 ebb9 5edf dabb 25af 0abc
00000260: b0d9 0739 27e3 923b 4438 163b b455 88b9
00000270: 613f bfbb 49a7 c13b ebc4 f63c 1036 363c
00000280: 2f8e 3b3b d634 a039 4713 2db8 fa25 8eb8
00000290: 4446 98b8 24e9 3eb8 f5dd a4b8 cd45 8bb8
000002a0: c3d4 b2b8 9c63 0fb8 476c c8b8 2842 c6b8
000002b0: cf9a 55b8 b10b 1ab8 f8dc e7b7 944a 5bb9
000002c0: 06f9 32b9 4b1a 7bbc 105a febb e3e3 0d3a
000002d0: dc55 ce39 c2ab 6cb9 e952 99bb cab4 933b
000002e0: 5aac 363c 0133 e3b9 517c fa3c e6c6 5e3e
000002f0: 7b2c 4f3e ceaf ecb8 59ab 07ba e5ab 97b9
00000300: 0b05 2ab9 b502 d7b8 f5a4 ceb8 631a 1eb8
00000310: 97f1 8eb8 84f7 c2b8 c8da a1b8 61e2 c2b8
00000320: f6d1 f8b7 ba58 66b8 90e6 19b9 d0dc 61b9
00000330: cdc5 82ba d0b8 0939 6a98 483a 5857 db39
00000340: 07e2 bf38 e7bf 03bd 0bfc 29bc 9ab5 013d
00000350: 25f5 0dbd 51aa 47be 8d8c 33bd 12e5 973e
00000360: 1a34 093e 9d8e fbbc a54f 0fbe 1d0a 07bb
00000370: 0a77 b8b8 d5ed 12b9 cda2 4fb8 7689 a8b7
00000380: 7f77 b9b8 5916 20b8 ccd4 aeb7 04ec d034
00000390: 8448 86b8 1310 8db8 7b7d 01b9 cdb6 41b8
000003a0: 2f65 2fb8 a789 9238 292e ca39 4969 483a
000003b0: 0dc2 06ba 89d8 25bc 4e1d 54ba 03a3 433c
000003c0: dd0a abbd cbb5 3ebe 854d 53bd a0af 163f
000003d0: 005f c03e ccb7 c9bc 21ad 4dbe 69b8 4dbb
000003e0: 18dd 1cb9 6c6f cbb8 1744 e3b8 f0eb 82b8
000003f0: 461c 26b8 7003 8eb8 729a 83b8 cb2e 98b8
-3.0989293e-05 -6.1542436e-05 -1.3585903e-05 -2.4749399e-05 -1.936056e-05 -3.7890266e-05 -4.6133107e-05 -7.956223e-05
-7.743703e-05 -1.8561856e-05 -8.283413e-05 -7.46494e-05 -9.4171926e-05 -9.330652e-06 -4.355567e-05 -8.576976e-05
1.4873556e-05 -4.6165853e-05 -6.253396e-05 -3.9166243e-05 -6.3031104e-05 -3.363687e-05 -3.362681e-05 -5.636846e-05
-3.9137656e-05 -6.409828e-05 -1.1403e-05 -0.00013117885 4.154774e-06 -3.2039927e-05 -5.8741e-05 -9.9570265e-05
-7.479167e-05 -5.4428518e-05 -4.6578527e-05 -1.8922503e-05 -9.16195e-05 -7.575241e-05 -1.9161756e-05 -6.876273e-05
-6.8002795e-05 -3.098501e-05 -4.6020774e-05 -3.9287548e-05 -2.3080665e-05 -4.5071454e-05 -4.1169933e-05 -4.1449992e-05
-1.7627252e-05 -5.3504846e-05 -2.0021047e-05 -7.67133e-05 -5.95505e-05 -9.2530085e-05 -6.966231e-05 -7.137465e-05
-1.7565819e-05 -5.7495577e-05 -6.2235275e-05 -0.00010559332 -9.961784e-05 -5.3632666e-05 -5.067615e-05 -4.4656383e-05
-6.819701e-05 -7.706385e-05 -9.773728e-05 -2.0447636e-05 -0.00010723245 -5.0648086e-05 -9.9815006e-05 -4.4349512e-05
-4.5010085e-05 -8.7143606e-05 -8.970279e-05 -6.133521e-05 -8.685257e-05 -5.3766973e-05 8.041817e-06 -5.692077e-05
-8.4991945e-05 -0.00011677952 -0.00010065332 -9.205535e-05 -4.9399914e-05 -1.2634676e-05 -6.978909e-05 -4.4065706e-05
-6.471252e-05 -6.49661e-05 -5.494703e-05 -3.4208326e-05 -6.6083325e-05 -9.039724e-05 -6.492532e-05 -1.5817424e-05
-1.9288147e-05 -9.773424e-05 2.1445176e-05 9.6979544e-05 0.00012741699 6.929633e-05 -8.405391e-06 2.3859091e-05
-5.1203865e-06 -3.0477748e-05 -3.887902e-05 1.9194867e-05 -7.418777e-05 -6.292653e-05 -4.2906016e-05 -5.3404572e-05
-5.047513e-05 -8.272514e-05 -6.422934e-05 -2.8827086e-05 -5.7364083e-05 -5.348167e-05 -7.291363e-05 -0.00010711179
-8.51472e-05 -0.000119074786 -7.604447e-05 -0.0021772906 -0.0033435125 -0.00015766907 0.0005922853 0.00036879565
0.00014969123 0.00021706801 0.00046189278 0.00032635796 0.00029135507 0.0001118149 -6.0933858e-06 -7.384153e-05
-7.779654e-05 -4.217692e-05 -5.5460234e-05 -6.5317225e-05 -5.358232e-05 -8.710107e-05 -4.0573614e-05 -4.7033274e-05
-1.5383121e-06 -0.000113841925 -9.201301e-05 -0.00012178674 -0.00022767071 -0.0004488396 -0.0066794595 -0.008464609
0.00012955698 0.004482645 0.002292172 -0.00026003795 -0.005836413 0.0059098345 0.030123195 0.011121288
0.0028618684 0.00030556944 -4.1264368e-05 -6.778161e-05 -7.261013e-05 -4.551666e-05 -7.861472e-05 -6.641038e-05
-8.5273314e-05 -3.4186625e-05 -9.5569114e-05 -9.453698e-05 -5.0927334e-05 -3.672735e-05 -2.7640242e-05 -0.0002091325
-0.00017068171 -0.015326093 -0.007762201 0.0005412681 0.00039355352 -0.00022570699 -0.004679073 0.0045076357
0.01114949 -0.00043334815 0.030576857 0.21755561 0.20231812 -0.00011286103 -0.0005175374 -0.00028929036
-0.00016214342 -0.00010252503 -9.853571e-05 -3.769471e-05 -6.816087e-05 -9.296744e-05 -7.7178294e-05 -9.292807e-05
-2.9661674e-05 -5.4918906e-05 -0.00014677108 -0.00021539931 -0.0009977162 0.00013134186 0.0007652106 0.0004183601
9.1496906e-05 -0.032165434 -0.010375033 0.03166733 -0.034657616 -0.19498564 -0.04383521 0.29666954
0.13398781 -0.030707652 -0.13995226 -0.0020605393 -8.7959765e-05 -0.00014012244 -4.9504266e-05 -2.009117e-05
-8.843745e-05 -3.8167786e-05 -2.0841508e-05 3.8914743e-07 -6.403125e-05 -6.726398e-05 -0.00012349144 -4.6185032e-05
-4.1817486e-05 6.987462e-05 0.00038562834 0.0007645083 -0.000514061 -0.010122427 -0.0008091525 0.0119407205
-0.083516814 -0.18624036 -0.0515876 0.5886173 0.3757248 -0.024623774 -0.20085575 -0.0031390435
-0.00014959683 -9.700548e-05 -0.00010836886 -6.24283e-05 -3.9603816e-05 -6.771728e-05 -6.2753345e-05 -7.256641e-05

1.bias f4 [100]
00000000: 4af5 193d cc5d a73e 79b1 0d3f a003 b5be
00000010: 42bf b53c 9f60 23be 430e e0be 0a57 e5bd
00000020: 739e c5bd e700 443e 8315 b43e 469b 9e3d
00000030: 56a4 9ebe d9bc 34be aab7 91bd 0e94 b0be
00000040: a9a5 b0bc bc4d ffbd f443 8b3e cd1e 7a3d
00000050: fc24 653d 1486 0abe 216e da3d 873d 943d
00000060: e5df 73bd 69b3 813e 7c15 c3be 81cd 4fbe
00000070: 50f4 d9be 3166 febc f6a5 3ebe 9ded 6dbe
00000080: ea18 4c3e f3d6 243c a267 64be 3336 8b3e
00000090: 955f a03e 4e3b 723d 2411 073d 3d66 d43c
000000a0: 52db f73d 002c 49be 6c3e 193e d35c 803e
000000b0: 3fcf 143f b75e cabd 1b01 a1bc c9a1 8dbd
000000c0: 9f91 03be 064f a8be 727a 113d 7776 843e
000000d0: dd5c 35be aa29 cc3b aa2c 4bbe d391 983e
000000e0: 5d30 0c3c 9c63 17be 28f1 bdbc b501 19be
000000f0: a5a3 8cbe a38d 93be 43ea 5c3b 2d7b 0cbe
00000100: ad2e c03e 0a86 22be e134 9bbd 880a 023f
00000110: 232c 01be f888 733e 2060 a0bd 4f1e d3bb
00000120: 2c32 8cbe 373a f5bd b0bf f73c fe52 e8bd
00000130: 224b 99bd 7b6a b3bd 1331 b2bc 2bb3 c9be
00000140: eb60 56bd f7a9 e5bd 34cf b4be bac5 093f
00000150: 7bc7 66be 7d31 0d3f 64e2 b43d 2157 c2bd
00000160: c1b2 5fbe 7a6d 08be ac69 b6be f2a1 ed3e
00000170: b34b 1b3b 1da3 d83d 7638 61be d814 2ebe
00000180: eb18 90be d9fd cfbe 9b6e da3e 84b4 2a3e
0.03758744 0.3268875 0.55348927 -0.35354328 0.022185925 -0.15954827 -0.4376088 -0.11198242
-0.096493624 0.19140969 0.35172662 0.0774446 -0.30984753 -0.17650165 -0.07115109 -0.34487957
-0.021563368 -0.124659985 0.27200282 0.06106453 0.055943474 -0.13527709 0.10665537 0.07238298
-0.059539694 0.25332192 -0.3810233 -0.20293237 -0.42569208 -0.031054588 -0.18617997 -0.23235174
0.19931379 0.0100610135 -0.22305158 0.27189788 0.31322923 0.05913859 0.03297533 0.025927657
0.12102379 -0.19645691 0.14965218 0.2507082 0.5812873 -0.09881347 -0.019653847 -0.06915624
-0.12848519 -0.3287279 0.035517164 0.25871632 -0.17711206 0.0062305527 -0.19841257 0.29798755
0.008556453 -0.14784092 -0.023186281 -0.14942057 -0.274686 -0.28818998 0.0033708967 -0.13718863
0.3753561 -0.15871444 -0.07578445 0.5079732 -0.12614493 0.23782718 -0.078308344 -0.006442822
-0.27382028 -0.11973994 0.03024277 -0.113439545 -0.074850336 -0.08760544 -0.021751916 -0.39394507
-0.052338522 -0.11214059 -0.35314333 0.5381733 -0.22537033 0.5515364 0.08832243 -0.09489275
-0.21845533 -0.13323012 -0.35627496 0.46412617 0.0023696243 0.105779864 -0.21994194 -0.17000139
-0.2814401 -0.40623358 0.4266251 0.16670424

3.weight f4 [100, 100]
00000000: c559 913c 6819 2bba 2efe b6b9 005c 693a
00000010: 2c6a 173a 5b45 eb3b 8297 6839 6d7e ecbd
00000020: fa9d 343c e49a 78be 325c f23a 10b2 5b3d
00000030: 539c fcb8 a403 943d 055c da3b c893 bdbd
00000040: 6107 263d af06 a7bb 5ad0 7ebd 7d65 293d
00000050: 1bb5 35bd 3266 603c 6b86 393e d17a 68bc
00000060: 75f7 813d 2c9e 0c3d a311 063e ee02 ffbb
00000070: 558c 4b3a 8e67 cfbd 1f4d 0fbb 1097 163d
00000080: 69f9 18be 599b 183d aba2 4f3d b9be 943d
00000090: ac54 023d 6d7c d339 97cf 3a3c 519b 3dbd
000000a0: 7da7 e33d 765c 183e 84ad c73c 8cca a538
000000b0: c42d 85b9 9488 dcbc eb95 bfbc 5dcc 153b
000000c0: 3837 a53d 7cb8 9b39 259c aabb 9359 243b
000000d0: 1154 9cbe 0a27 88bc 13e8 a2ba 463e 113e
000000e0: 0eea 253c 48d0 f8bb feaf f93b c651 3fb9
000000f0: b8e5 cb3c 236e 4dbb c317 a23b 6f2e aa3b
00000100: 485b c53d 166e 83be 9e54 7939 6d16 da3e
00000110: d4e0 77bc 009a aebc 98e8 6c3d 9846 7bbc
00000120: d79b 3dbc 6fe9 adbd 5635 b5be f449 073c
00000130: c3bb 283c 87d1 343c 1673 81bc c5e0 5dbd
00000140: 6c83 f0bd cbf0 853d 5871 b83a bdeb 0339
00000150: 06ba 043e 2084 48be 3cd2 d63c 79f0 723a
00000160: e17e 143c 82ee 7fbd de72 1ebd 942c d23d
00000170: 6d66 5abe 7bd2 2c3b da23 343d bce3 683d
00000180: a574 6ebc 4e80 493c ebcb 1e3e 1f7c 4f38
00000190: 44c8 2ebc f2cb 8bbd 138b 57bd 91fb 78bd
000001a0: f402 b8be 88cd c7bc c29e 89bc 1ef5 3dbd
000001b0: 7194 0dbc f3fe 3139 4a31 9abd d9e7 3ebd
000001c0: 8491 843d f0ee 58bd be3a 0ebd 219c 01bc
000001d0: d256 833c 11f3 8f3e ac13 043a 0dbf 33be
000001e0: e3b2 4dbb 7e38 aabc 63ce 98bc 1e1b 483c
000001f0: d4da 3c3c 9047 153f e299 0cbe 3bce 8e3c
00000200: 2627 68bb de59 003c b0e3 4bbc 3cbb 4d3e
00000210: 9657 2f3d ba30 5f38 ea01 0a3e bcec 3dbd
00000220: d2e5 1dbd 0348 41bd b833 b0bd 31c7 afba
00000230: 1c96 643e f32e 493e 99ad 19be f42c a43d
00000240: e5ac 21be f2d3 073d 30c6 753c 24fc d1bc
00000250: a6df d0be 0f8a 9fbb 16d1 a9bc e9a9 1f3e
00000260: 7c47 6839 6308 0c3e 607b 07bc 292f 193d
00000270: e367 a63d e990 63b9 cd26 b7bd 3e60 8cbd
00000280: 6d6f 1ebc 5a32 813b c606 ff3a 4211 23bd
00000290: f9fc ef3d a218 233d 5988 0dbe 4c61 e03d
000002a0: 619b a0bb 939b 903d a640 81bc d9ea 733c
000002b0: 1144 3339 34fc d3bd 3edd d43d b53e c93c
000002c0: fdad cebd f69e 15bd 49ec d3bc cd5a 4d3c
000002d0: 64c4 213c c345 5bbd e69b 013e 05ec 87bd
000002e0: c892 6fba f6e4 9e3d ab80 aab8 4d8e ce39
000002f0: fb05 c83c 0781 6bbc b5c1 26bc 7a79 b439
00000300: 35ca 18bc bcd6 90bd 7a05 b83d c623 2b3b
00000310: ccf2 1bbd 0821 be3a 2111 47bc 4a33 393d
00000320: b71a 0abd 5edf b63d 0367 fd3c 3b79 dbbd
00000330: f7ed 733e 49d0 ba3c 6b83 6e3c ba41 863c
00000340: 0214 243e 19d3 253d 9090 683d 573f 673e
00000350: 4077 113d 0baa c2ba 5a8b 05be 1ee8 773d
00000360: 826b 00ba 0437 3e3e 13af de3c e956 fbb9
00000370: 96b4 0cbe 0d91 6d3d fdf9 18bd b3b8 963b
00000380: c475 2a3c c9c0 e23c 987f 24bd 2857 a0bb
00000390: b1af 033d 5013 ca39 29ad f6bc 7ac4 7a3e
000003a0: 8de2 a1bc 6a15 08bd 4163 6f3e 7355 8a38
000003b0: 6d75 88bd afe2 aebe 97e8 833e 5007 b63c
000003c0: d95f 9aba 02a8 29be 4c56 5d3d 9be7 073d
000003d0: 6421 ba39 f5bc f43b 984f a13e 09f5 f63b
000003e0: b3ba 22ba e494 0eba 5d9f cfbe 63c1 8a3d
000003f0: 12cc 813c fdd9 51be 6849 8bbd bf4e b93d
0.017743 -0.0006526918 -0.00034903124 0.00089019537 0.0005776014 0.0071798987 0.00022181685 -0.11547551
0.011023993 -0.24277836 0.0018490611 0.05363661 -0.00012045414 0.07227257 0.0066638016 -0.09256703
0.04053438 -0.0050972323 -0.06221042 0.041356552 -0.04436217 0.01369624 0.18117683 -0.014189438
0.06346027 0.034330532 0.13092665 -0.0077823317 0.00077647466 -0.10127173 -0.0021866036 0.03676516
-0.14938892 0.037257526 0.05069224 0.0726294 0.03181903 0.0004033776 0.011402032 -0.0462907
0.1111593 0.14879021 0.02437473 7.9055404e-05 -0.00025401835 -0.026920594 -0.023386916 0.0022857406
0.08067173 0.00029701355 -0.005206602 0.0025077804 -0.30532888 -0.016620178 -0.0012428783 0.14183912
0.010126604 -0.0075931884 0.007619857 -0.00018245642 0.024889812 -0.0031346164 0.0049466803 0.0051935236
0.09636551 -0.25669926 0.00023778013 0.42595235 -0.015129287 -0.021313667 0.057839006 -0.015336655
-0.0115728 -0.084917895 -0.35392255 0.008257378 0.010298672 0.011036283 -0.015801948 -0.054169435
-0.11743817 0.06540068 0.0014071865 0.00012580953 0.12961587 -0.19581652 0.026223294 0.00092674006
0.009063453 -0.06248332 -0.038683765 0.10262409 -0.21328135 0.0026370573 0.043979503 0.05685781
-0.014554177 0.012298657 0.15507476 4.9468243e-05 -0.010667864 -0.06826009 -0.052622866 -0.060786787
-0.35939753 -0.024389997 -0.016799334 -0.04637634 -0.008641348 0.00016975011 -0.075289324 -0.046607826
0.064730674 -0.052962244 -0.03472399 -0.007910759 0.01603261 0.28115132 0.0005038332 -0.17553349
-0.0031387142 -0.02077889 -0.0186531 0.0122134965 0.011526782 0.5831232 -0.13730577 0.017432323
-0.0035423725 0.007833926 -0.012444422 0.20090955 0.042808138 5.3212723e-05 0.13477293 -0.046368346
-0.03854925 -0.047187816 -0.086036146 -0.0013410804 0.22322887 0.19646816 -0.15007629 0.08016387
-0.1578861 0.03316111 0.015000865 -0.025632925 -0.4079563 -0.004868753 -0.020729583 0.1559216
0.00022151874 0.13675074 -0.008269161 0.03739849 0.081252836 -0.0002170239 -0.089429475 -0.06854294
-0.009670121 0.00394277 0.0019456975 -0.03981138 0.117181726 0.039818414 -0.13821544 0.10956058
-0.004901335 0.070609234 -0.015777897 0.014887535 0.00017096127 -0.10350838 0.10393761 0.024566034
-0.100917794 -0.03652855 -0.025869505 0.012533856 0.009873483 -0.053533327 0.12657127 -0.06636814
-0.00091389986 0.077585146 -8.130198e-05 0.00039397404 0.024416914 -0.014374024 -0.010178019 0.00034422782
-0.009325554 -0.07072207 0.089854196 0.0026113852 -0.038073346 0.0014505694 -0.01215008 0.04521493
-0.033716884 0.08929323 0.030932909 -0.10716482 0.23821245 0.022804396 0.0145577 0.016388763
0.16023257 0.04048452 0.05677849 0.22582756 0.035514116 -0.0014851702 -0.1304144 0.0605241
-0.00048988324 0.18575674 0.027183091 -0.00047939204 -0.13740763 0.05799966 -0.037347782 0.0045996546
0.010404054 0.027679818 -0.040160745 -0.0048932023 0.032149974 0.0003854283 -0.030111866 0.24489012
-0.019761348 -0.033223547 0.23377706 6.596269e-05 -0.06663022 -0.3415732 0.2576339 0.022220284
-0.0011777832 -0.16567996 0.054037377 0.03317986 0.00035501563 0.0074688145 0.31506038 0.0075365347
-0.000620763 -0.00054390565 -0.40551272 0.06775167 0.015844379 -0.20493312 -0.068011105 0.09048223

3.bias f4 [100]
00000000: 6d0f fe3d 23c4 e53d 6449 2ebd 0ea7 c83c
00000010: 5876 efbd 9897 0fbe 7dce 59bd 36cf 253e
00000020: eedd 683e 6a88 8ebe e44a ae3d 1556 b3be
00000030: 7976 4dbe da36 1fbe 33df b7bc 6c29 073e
00000040: aa8a 133e 0d2c 3e3d c935 a9bc c0fe 87bd
00000050: 7a94 f83d 6648 a93d 8fda 903e 787f debd
00000060: f603 573d 301d 593d 6cfc 11be 8a4a fc3c
00000070: f9fc d5bd d4b4 123e efc0 a4bd ba12 423d
00000080: 4c60 86bd a2fe f63e a211 023e 7dc1 75be
00000090: da62 c7be 8b2e c3be 12a6 28be 1dad 02be
000000a0: be60 603e fb90 26bd 3ae4 61be 597f 3abe
000000b0: f66a cbbd 3bb2 49be 36ce df3d 363d 5cbe
000000c0: 488e 113d aff2 44be ea02 2fbe e9e9 15be
000000d0: 4782 bebd 2267 8fbd 07a0 cabc f8d2 6abe
000000e0: 9ca0 a2be 0097 9f3e 8ecd 76bc d605 e9bd
000000f0: 1bad 243e bcbe c1be 0a1c 49bd aaf6 b5bd
00000100: 0ae0 923c 4054 12be 0710 e1bd b32f 0ebe
00000110: 841a 00be 20fe 3c3d 2b36 dc3e 5c13 5dbd
00000120: b4f5 07be 1f05 cabd 3254 223d 7c25 75bd
00000130: 75a9 b4bc e113 82be 1855 09bf 538e 3d3d
00000140: d598 56be a72e 7bbe 80bf 5ebd 48fb f73d
00000150: deef 3cbe d09c b8bd 6e02 ddbd 09f4 a1bd
00000160: 3c49 cb3d 53f2 86be dd9f 7dbd 002d 9e3b
00000170: b4f7 5fbe 06b2 fbbd f5d4 213e ab35 9bbe
00000180: 6cf8 14bb 9840 afbc 2e77 d4bd f86b 87be
0.12405286 0.11219051 -0.04255046 0.02449372 -0.11692494 -0.14022672 -0.05317544 0.16192326
0.2274091 -0.2783845 0.08510378 -0.35026613 -0.20064725 -0.15548268 -0.022445297 0.13199395
0.14408365 0.04642873 -0.02065553 -0.066403866 0.12137695 0.08265762 0.28291747 -0.108641565
0.05249401 0.05300635 -0.14256448 0.030797262 -0.10448641 0.14326793 -0.08044612 0.04738114
-0.06561336 0.48241144 0.12702039 -0.23999591 -0.38942605 -0.38121447 -0.16469601 -0.1276135
0.21911904 -0.040665608 -0.22059718 -0.18212642 -0.099325106 -0.19696896 0.109280035 -0.21507725
0.03553608 -0.19233201 -0.17090955 -0.14640011 -0.09302192 -0.07002093 -0.02473451 -0.2293204
-0.3176316 0.3116989 -0.0150636565 -0.11378066 0.1608166 -0.3784083 -0.049099006 -0.08884938
0.017929096 -0.14289951 -0.10989385 -0.13885383 -0.12510115 0.04614079 0.43010077 -0.05397354
-0.13277322 -0.09864258 0.039631076 -0.0598502 -0.02205346 -0.2540579 -0.5364547 0.04627831
-0.20956738 -0.24529515 -0.054381847 0.12108475 -0.18450877 -0.090142846 -0.10791479 -0.07907874
0.09926078 -0.26356754 -0.061920036 0.0048271418 -0.21871835 -0.12289815 0.15803893 -0.30314383
-0.0022731079 -0.021393105 -0.10374294 -0.2644956

5.weight f4 [100, 100]
00000000: c4ae 43bc 5c09 0fb9 266e 9ebd 3512 fe3c
00000010: 238c 1ebd 085b f9bd 4e2a 433d 5cf3 9639
00000020: 9b0c 453d 078e 55ba 6a94 80bd f8f1 0b3d
00000030: 6d7e 38b9 a591 d8bd cdab 033a 63a8 b2be
00000040: 79cb 2b3a d1dc 86bd 3874 a1bd 0e51 c2bd
00000050: 8733 263e 4740 9a39 750f ed3c f37b b1bd
00000060: fbed 21bb 2c9b 123e b166 5e3e 2bcb 1a3e
00000070: 0787 9cbc d51c cdbc 8a8e 213d 91e9 1bbc
00000080: 2e1c e0b9 96de f739 6401 583b 1333 07ba
00000090: 3b5f 7f3e 1416 cc3d a75e 51be 940a cbbd
000000a0: 016f d5bc e650 713c 4331 27ba a65a 9b3d
000000b0: b8b7 bdbd 4199 ff3c 5e37 4dbc b8a4 033d
000000c0: 2439 0abc 92f4 24bd d943 1c3d b9ae b53b
000000d0: c37e cc3c dc60 d93d 91d5 373d 0a92 abbc
000000e0: ab5c 373d 49cb 42bc d315 ec3d 59dc 593d
000000f0: 9910 0cba 5af2 2c3e e2ff 5db8 7f6a f6bd
00000100: a471 133d ebcb 86ba b09b 7e3d 1fe7 c63d
00000110: 40a5 c33d 7327 873c 3d31 e1bc 5605 70be
00000120: 3026 043d 9b22 5e3d aa9e 52bc 7aed 79be
00000130: ca8a 923d 6ee5 653c 48ff a6b8 d8d5 28ba
00000140: 15a1 12b9 8fbb 373e deb6 59be 4c67 acbd
00000150: 81db f439 29af a63a 03a9 ac3d b488 8e38
00000160: f752 10be 647f c53d 447b 243e f9ce 043e
00000170: 4c55 7a3a cf07 c338 5d1c 423c 8183 8f3e
00000180: 9193 2f3c 21e0 9abc 793a 9f3d 4b7f a73c
00000190: 6b1f 54bb b995 53b9 fbe2 91bd e40c b4bd
000001a0: d58f 5b3e a115 1eb9 3db6 48bc 8bfe b139
000001b0: f9c2 97b9 890a 6bb9 65c6 2bbe 37fb 3636
000001c0: 0b6c 3ebd 163c 02ba 13ad 7038 56ff 083d
000001d0: e492 06ba 830f 9ebd 2c9f bf37 18f6 22b8
000001e0: 6d4b 333c dd8b 093a d41e 9639 e7e6 48bc
000001f0: 682c 52bb 6ed2 bcb9 668d 23b8 2e05 8ebe
00000200: 0dfb efbc d707 f7bc 168a 3bbe 0061 3dba
00000210: ddd7 8038 27d9 31b9 64ff cfb9 98ad 55be
00000220: 6a5e acbd 012f b9bc f3f1 433c 2b94 f9bc
00000230: 5221 4039 aa77 8abd 45a5 dc3a 94bf 25bd
00000240: 0bc4 9339 4040 5839 cf80 4639 753c a13c
00000250: 60ef 7d3d 3507 0439 0e88 44b9 6f6b f5b7
00000260: 1193 edb9 46fd 2d3a 3632 c4b9 eb76 9839
00000270: b39f 17be 392b 5e3c d81e 2abe 4a8b e13b
00000280: fc2d 73b9 a8be 4fb9 5f52 ebbb 9410 9abc
00000290: a5c8 623d ca34 69bc 7000 cab8 fe59 bbbd
000002a0: 9e92 b5bc 1f66 9a39 0f3a de38 dc01 bcb9
000002b0: a5a5 a7bd f667 1c3a 6b57 ed3d ae24 ffbd
000002c0: 4a16 92b8 edbd 1339 52ef bcb8 ee07 9439
000002d0: ca64 2a3e f172 1839 b715 583c 4416 373b
000002e0: af16 97b8 ecdd 8a39 0daf 71b9 a683 36bc
000002f0: a77c d03a 31d4 89bc 6fd9 2dba 07d0 92b9
00000300: dc78 1bba 34ff d1bc 64fb 2f3a e6bd 843b
00000310: cc33 4638 ff6a 93bd 3641 05ba bafb e43d
00000320: 42d6 7c39 e1ce 61bd dc2a ffb8 91b5 88bb
00000330: 3f0e 9a3c 76d2 87bd 649e 213d d63d bc3b
00000340: 21cf 883b 6c25 9abc 8b2c b0bd 253f ddbc
00000350: 5a54 9bbd f49b 083d 9c11 3abe 5a77 863d
00000360: 469b 91bc 58e2 823c 83b6 18be ad67 1cbb
00000370: 0645 853e 0486 89b8 d600 b1bd 7156 d0be
00000380: 5e5c 84bd 5aa1 383e 62b8 4b3d f8bf 0bbd
00000390: 554b 23ba 046f e83c 6d20 3bbd eeba 5bb8
000003a0: 38bd 1bbd 63ea 25b8 bd89 b039 c830 813b
000003b0: 8a61 2b3c 5ba2 833b a896 ebbe 8478 6b3c
000003c0: 2601 e03c f3dd ebbd 8c15 e938 ba4b 0cb9
000003d0: d6fe 7dbd 19e5 cebc dee5 c43d 6a07 ff3d
000003e0: 8b24 4f3a 63d7 4f3d bcc0 2139 0a13 ccbc
000003f0: 2962 af3c 14e8 78b9 f5f3 183e c464 81bb
-0.011943523 -0.0001364103 -0.07735853 0.031014541 -0.038707864 -0.12175566 0.047647767 0.00028791546
0.048107725 -0.0008146469 -0.06278308 0.034166306 -0.00017594705 -0.105746545 0.0005022854 -0.34894094
0.0006553452 -0.06585086 -0.07883495 -0.09488116 0.16230594 0.0002942106 0.028938035 -0.086662196
-0.0024708498 0.14317006 0.21718861 0.15116565 -0.019107355 -0.025038162 0.039442576 -0.009516136
-0.00042745605 0.0004727735 0.0032959813 -0.0005157452 0.24938671 0.099651486 -0.20446263 -0.09914127
-0.026053907 0.01472876 -0.0006377885 0.07585649 -0.09263557 0.031201007 -0.012525408 0.03213951
-0.008436475 -0.040272303 0.038150642 0.00554451 0.024962788 0.106141776 0.044881407 -0.02094366
0.04476611 -0.011889287 0.115276 0.053188656 -0.00053430494 0.16889325 -5.2928815e-05 -0.12032031
0.035997048 -0.0010284161 0.062160194 0.097120516 0.09553003 0.016498303 -0.027489299 -0.23439535
0.03226298 0.05423222 -0.012855211 -0.24406996 0.07155378 0.014031751 -7.963047e-05 -0.00064405566
-0.00013983653 0.17942642 -0.21261165 -0.0841814 0.0004670285 0.0012716997 0.08430674 6.7965506e-05
-0.14094149 0.096434385 0.16062647 0.12969579 0.00095494534 9.299779e-05 0.011847583 0.28030017
0.010716335 -0.018905701 0.07774825 0.02044644 -0.003236736 -0.00020178304 -0.07123371 -0.08791521
0.21441586 -0.00015076112 -0.01225048 0.0003394972 -0.0002894623 -0.00022415271 -0.167749 2.726634e-06
-0.046489757 -0.000496806 5.7381647e-05 0.033446632 -0.0005133583 -0.077178024 2.2843094e-05 -3.8853002e-05
0.010943276 0.00052469765 0.00028633198 -0.012262083 -0.0032069925 -0.00036014937 -3.8993916e-05 -0.27738327
-0.029294515 -0.030155106 -0.18314394 -0.0007224232 6.143723e-05 -0.00016960931 -0.00039672398 -0.20867002
-0.084164456 -0.022605421 0.011959541 -0.03046616 0.0001832296 -0.06761105 0.0016833922 -0.040465906
0.00028184088 0.000206233 0.00018930736 0.019682148 0.061995864 0.00012591186 -0.00018742701 -2.9256304e-05
-0.00045313736 0.0006637167 -0.00037421443 0.000290803 -0.14807014 0.01356011 -0.16613328 0.0068830596
-0.00023191416 -0.00019812083 -0.0071814503 -0.018806733 0.05536713 -0.014233777 -9.632192e-05 -0.09148024
-0.02216464 0.00029449255 0.00010596599 -0.0003585954 -0.08185891 0.0005966419 0.11588939 -0.12458168
-6.965974e-05 0.00014089765 -9.0091155e-05 0.00028234668 0.1664001 0.00014538669 0.013188771 0.0027936855
-7.204466e-05 0.00026486756 -0.00023048763 -0.011139786 0.001590629 -0.016824814 -0.00066318264 -0.00028002282
-0.000593079 -0.025634386 0.00067131803 0.004050958 4.725512e-05 -0.07198142 -0.00050832646 0.111808255
0.0002411241 -0.055128936 -0.00012167331 -0.004172035 0.018805621 -0.06631939 0.039457694 0.005744676
0.0041750823 -0.018816672 -0.08602246 -0.027007649 -0.07584448 0.033351853 -0.1817078 0.06565733
-0.017774235 0.01597707 -0.14913373 -0.0023865507 0.26029223 -6.5576314e-05 -0.086427376 -0.4069095
-0.0646293 0.180303 0.049736388 -0.034118623 -0.0006229182 0.028373249 -0.04568522 -5.238776e-05
-0.03802225 -3.9557355e-05 0.0003367196 0.0039425828 0.010460267 0.004017157 -0.4601338 0.014371995
0.027344298 -0.11516943 0.00011114319 -0.00013379651 -0.06201061 -0.025255727 0.09614156 0.12452586
0.00079018687 0.05074252 0.00015425956 -0.024911422 0.021409111 -0.00023737579 0.14936812 -0.00394878

5.bias f4 [100]
00000000: 32e1 5cbe caa1 393c 7a5b a93c 6bf6 82bd
00000010: e5da e4bd 6ef2 8c3e 6d21 8bbd e214 b2bd
00000020: 9000 503e 5122 db3d d905 fa3d 2477 8a3d
00000030: 772e 1b3e 4ece 573d b9bf 71bd 354f 673e
00000040: 00e8 b03d e6fc 07bc e1fb 343e d650 3e3e
00000050: 8909 5fbc 05c1 85bb 8010 e13d 6088 bd3d
00000060: ef55 3abd fbaa 943e 91ca d33d d03c 5f3e
00000070: b14c 2fbd 5cab 9e3e 9e3a 9a3e 3c03 c03d
00000080: bac6 473e c7b3 233e b307 97ba c570 b53e
00000090: d17e ae3d 4ac9 26bd eb3f 663d 462a 2ebe
000000a0: 6f22 673e dbc7 b43d e4fd 70bd 1e13 cdbd
000000b0: 5d6e a03d edb0 353e 2717 933b 0371 bb3e
000000c0: e6bb 193e 08ab 1b3e 6043 d03d 3155 283e
000000d0: 0b85 eabd 3e40 df3d a28d 273d 35fd 99bd
000000e0: c93b 4b3e 19b9 e83d 0abc 0c3e 12d4 ae3d
000000f0: 2beb 203e 8427 113e 5638 633e cf08 fa3d
00000100: 3d46 063e 03db d5bd 5eea 60bd edc1 8a3d
00000110: ec5e d7bc 25e4 1f3e 9e8d 583d bb59 273d
00000120: ed35 3cbd d034 723d 3af1 c03c 4726 063e
00000130: c646 54bc ad43 6c3e 7cd4 053e ea81 223e
00000140: e618 de3d a0b0 c43d f164 fd3d f382 033e
00000150: 5983 7dbd 3c12 963e 4742 b03b ecff c13d
00000160: d7c1 d2bd ad16 2c3e ee8a c53e 50d0 dd3d
00000170: 8ee9 453e 9406 6ebd 6069 863d c79d 8c3e
00000180: 00d2 1ebe 213f 47be 3a1d cb3d 9dee 423e
-0.2157028 0.011330077 0.020673502 -0.06394657 -0.11174563 0.2752871 -0.06793485 -0.08695389
0.20312715 0.10699905 0.122081466 0.067610055 0.15154444 0.05268698 -0.05902073 0.22588809
0.086380005 -0.008300042 0.17674209 0.18585524 -0.013613113 -0.0040818476 0.10989475 0.09254527
-0.04549211 0.29036698 0.10341371 0.21800542 -0.042797748 0.30990112 0.30122846 0.09375617
0.19509402 0.15986548 -0.001152268 0.354376 0.08520282 -0.040719308 0.0562133 -0.17008314
0.22571729 0.08827182 -0.05883588 -0.10013412 0.0783355 0.17743273 0.004488844 0.3660966
0.15013084 0.15201962 0.10169101 0.16438748 -0.11451157 0.10900925 0.040906556 -0.075189985
0.19847025 0.113634296 0.13743606 0.08536543 0.1571471 0.1417523 0.22189459 0.12208711
0.13112731 -0.10442164 -0.05491101 0.0677527 -0.02629038 0.15614374 0.05286943 0.040857058
-0.045949865 0.059132397 0.023552526 0.13100539 -0.012956327 0.23072691 0.13069338 0.15869871
0.10844593 0.09604001 0.12372769 0.12842922 -0.06189284 0.29310787 0.0053789946 0.09472641
-0.10290878 0.16805525 0.38582557 0.10830748 0.19327375 -0.058111742 0.065630674 0.27464125
-0.15509796 -0.19457676 0.09917684 0.19036336

7.weight f4 [10, 100]
00000000: a434 37be 830d 423d 0bdb af3d b318 36bd
00000010: eb59 84bd b8a2 e53a 565e 0d3a 284a 6a3c
00000020: 94d0 fc3d df9e 863e c1a2 40be 552a 3f3e
00000030: 23ad 1cbe 751c 343d 86b7 8cbe 5dcd 063e
00000040: 7a20 303d b422 a23a acfd 8d3e 7aac d2bd
00000050: 135c e7be faab 6cbd d597 193e 447a c83d
00000060: 5008 1e3d 5433 f53d 33c6 d7be b1d0 1b3e
00000070: ad72 07bd bcd1 b4be a4ba 9d3d 897c aaba
00000080: 98f6 13be 8d94 39be fa89 7bbe ecc7 e43e
00000090: 30dd 6bbe 3d20 163e 8822 79bd 2cce acbd
000000a0: d1a8 a0bd 6be0 c8be b5b4 adbe 41d9 373e
000000b0: 6b1b 45bd 38d8 b8b9 6bd8 553d 953e d1bd
000000c0: bd12 c3be fedf db3d 079a 473c d641 a43c
000000d0: 38d1 bcbe 4c59 e3bc c34f 2abf b2d3 3b3d
000000e0: 20bc dcbe 7a18 143e 9de7 9dbd 1ed6 00bf
000000f0: fc78 11bc 9c0b a73e ce63 993d 5fc2 81be
00000100: 972b 02bd a98a 3ebe d472 173e 9b09 373e
00000110: ecb4 89be 916a b6bd fb22 9239 6292 b7bd
00000120: f477 173e f36d 0abf dbef 0d3d da16 3a3e
00000130: 5457 0abf 7335 d5be 1103 afbd 1d4a 333e
00000140: c4ab e43c 8910 93be 497b 113e af04 163d
00000150: 3c3a e7be fb29 b63d bb7f 59bc 053f 0c3e
00000160: ca94 25be 19db 8bbd c7a1 22bd 0cf8 3dbe
00000170: b4fa 1dbc 671e 04bd 35a7 143d 0072 193e
00000180: bbad ecbd 07d1 84bd b8ce 833e 424f 363d
00000190: f702 b93c d5b6 98be 698c c1bd c317 eebd
000001a0: 789e 403e c3ae 8ebe cbd0 6f3e 9328 633e
000001b0: ecfe 4ebd d4f4 d73e 5b35 b6be 3e18 ff39
000001c0: eba5 bdbe 0708 84bd e2e5 32bb 8f0d a8be
000001d0: 7be2 7b3d 6201 5ebd 1aa7 6dbe 5483 093e
000001e0: e46b dd3d bcd7 ec3c 1916 cb3e 10de a0be
000001f0: 6e85 5ebe 5d45 a1bc ba3a 58be 5677 5dbc
00000200: 29f3 61be 79a9 073d 5318 f1be a8bd 5e39
00000210: a536 1c3e 83b0 6fbe 96df a837 1df4 433c
00000220: 9e35 ec3d 4d19 43be 6cc8 203f bd17 babc
00000230: 26af 033e ad49 d3be 5b4b d1bc 3122 6dbd
00000240: a5f2 2a3e b03e b3be 8795 e8bd 7283 903e
00000250: 4804 093e f95f 82bc 04c7 3cbe ae97 6f3e
00000260: e268 4ebe b1ad 5fbd a872 c73c 63a2 863e
00000270: d137 f43e c7cb 0fbf b9d3 473e dca4 3c3b
00000280: 467b d0be 074d 153e 9959 fa3e 9fb2 b93e
00000290: 636b cebb 364b 8b3e fb88 0cbe 73e3 523d
000002a0: 1d5e c0be ac31 45be 702d 983b 27c1 123e
000002b0: c2d7 e4bd 61e1 6cbb 30f1 323e af82 8b3d
000002c0: 79b9 063d 067f 923d ce62 63bd b557 bf3d
000002d0: dd2a 003e 12ca 8f3b 35aa 13b9 6d72 163e
000002e0: 284a 58bc 6b72 d73d 0e5b c7be 57d7 d1be
000002f0: a5ce e93d c02a 09bf f34f fc3c 7552 873e
00000300: d135 7dbd cc24 80be 9f9b f83e 60e6 c83e
00000310: 7c13 073d 450d 4fbe 5e16 233d 76cd 4f3e
00000320: 4588 abba c9ed ebbc 245b 6a3e a56b 77b9
00000330: ffaf fe3e fff3 c03b 22c1 c7bc 9285 a5bd
00000340: 9e38 133e d701 22be c243 f33d 331d 84bd
00000350: 5b64 2bbe e79b 7dbe 69fe 113e 56b0 b33e
00000360: 470c be3d 358c 91be 1ab8 be3a 8e40 73be
00000370: 5602 85be 8288 eb3c 37a6 05be afe7 bcbc
00000380: c54f ec3d f634 b93e bc44 e0bc e549 043e
00000390: 4ae1 d23d 4518 7bbe f1e3 4b39 b462 513e
000003a0: 4d34 54be 1df3 ac3e 1d8d be3e b78e 073e
000003b0: a921 b13c d0ee fbbc 6006 143d 35c0 693e
000003c0: 1b96 debe ebbc 413d 53ba 8d3d a956 8c3e
000003d0: 75a7 003a 39ba 453e b866 d9b9 7d73 99bd
000003e0: 6805 ad3d c70d 03be d43e 59bd 8822 10be
000003f0: 43f5 943e f99f 4c39 9aea 323d 58ff 003f
-0.17891175 0.047376167 0.08586701 -0.04445715 -0.06462463 0.0017519807 0.00053927803 0.014299907
0.123444706 0.26293084 -0.18812086 0.18668492 -0.15300421 0.04397245 -0.27483767 0.13164277
0.042999722 0.0012369961 0.277326 -0.102868035 -0.45187435 -0.057781197 0.14999326 0.09788945
0.038582146 0.11972681 -0.42143402 0.15216328 -0.033068348 -0.35316265 0.077016145 -0.0013007085
-0.14449537 -0.18123074 -0.24564353 0.44683778 -0.23033595 0.14660735 -0.060823947 -0.08437762
-0.07844699 -0.39233717 -0.3392693 0.1795397 -0.04812185 -0.0003525631 0.052208345 -0.10217015
-0.38100234 0.107360825 0.012182719 0.020050924 -0.3687837 -0.027752541 -0.66527957 0.045856185
-0.43112278 0.14462462 -0.07710192 -0.50326717 -0.008878943 0.32626045 0.07489739 -0.25343606
-0.03177985 -0.18607582 0.14789897 0.17874758 -0.26895845 -0.08907045 0.00027873353 -0.08963467
0.14791852 -0.5407402 0.034652572 0.1817278 -0.540395 -0.4164234 -0.08545507 0.1750874
0.027913935 -0.28723553 0.14207186 0.03662556 -0.45161617 0.08894726 -0.013275082 0.13695915
-0.1617004 -0.06828899 -0.039705064 -0.18551654 -0.009642292 -0.032255556 0.036292274 0.14984894
-0.11556574 -0.06485181 0.2574365 0.04450918 0.022584422 -0.2982699 -0.09450609 -0.11625626
0.18810451 -0.27867708 0.23419492 0.22183447 -0.05053608 0.42178977 -0.35587582 0.00048655452
-0.37040648 -0.064468436 -0.0027297665 -0.32822844 0.061495285 -0.054200538 -0.23208275 0.13429004
0.10811594 0.028911464 0.39665297 -0.3141942 -0.21730587 -0.019686395 -0.21116152 -0.013517221
-0.22065414 0.033120606 -0.4708887 0.00021242222 0.1525522 -0.23407178 2.0131276e-05 0.011960057
0.11533664 -0.1905262 0.6280582 -0.022716397 0.12859783 -0.41267148 -0.025548628 -0.057893936
0.16694124 -0.35008764 -0.11356645 0.28225285 0.1338054 -0.015914904 -0.18435293 0.23397705
-0.20157197 -0.054609004 0.024346665 0.26295766 0.47698835 -0.56170315 0.1951436 0.0028784787
-0.4071905 0.14580165 0.48896483 0.3626909 -0.0062994226 0.2720582 -0.13724129 0.051486444
-0.37571803 -0.1925723 0.0046440884 0.14331494 -0.11173965 -0.0036145078 0.17474818 0.06812035
0.032891724 0.07153134 -0.05551415 0.09342901 0.12516351 0.0043881023 -0.0001408242 0.14692087
-0.013201274 0.1051987 -0.38936657 -0.40984604 0.114163674 -0.53580856 0.030799842 0.26430097
-0.0618189 -0.25028074 0.4855623 0.39238262 0.032977566 -0.20219906 0.039816253 0.20293221
-0.0013086876 -0.028799908 0.2288633 -0.00023595856 0.4974365 0.0058884616 -0.024384085 -0.08082117
0.14377066 -0.15821014 0.11878158 -0.06450882 -0.16737501 -0.24766503 0.14257206 0.3509547
0.092796855 -0.28427282 0.0014550716 -0.23755094 -0.25978345 0.028751615 -0.13051687 -0.023059694
0.11538652 0.36173218 -0.027376525 0.12918814 0.10296877 -0.24520977 0.00019444503 0.20447809
-0.20723076 0.3377923 0.37217036 0.13238035 0.021622496 -0.030753523 0.036138892 0.22827227
-0.43473896 0.047299307 0.06920304 0.27409866 0.00049077655 0.1930932 -0.00041465997 -0.07492731
0.08448297 -0.12798224 -0.053038433 -0.14075673 0.2909337 0.0001951455 0.043680765 0.50389624

7.bias f4 [10]
00000000: 4ee2 903d ddb5 31be 819a 13be 734c 403d
00000010: a772 783d 1002 123d 8a2f 2d3c c650 83bd
00000020: 68bd fdbd b653 bf3b
0.07074414 -0.17354532 -0.14414407 0.046947908 0.060656216 0.0356465 0.010570416 -0.06411891
-0.12389642 0.0058388365
