models/mnist_fc_4.pt (torch, 360655 bytes, 6 tensors)

1.weight f4 [100, 784]
000000 f1 e3 84 b8 2f 60 9f b8 c5 e1 d1 b8 96 9d 96 b8
       -6.336708e-05 -7.5996264e-05 -0.000100079495 -7.18191e-05
000010 32 07 ce b8 43 da d4 b8 79 20 69 b8 d9 d3 53 b7
       -9.824186e-05 -0.00010149602 -5.558177e-05 -1.2625905e-05
000020 73 39 36 37 99 21 da b8 d2 0e 1a b7 67 df ae b8
       1.0861421e-05 -0.00010401308 -9.182566e-06 -8.3385785e-05
000030 1c ec bc b8 1b 60 c1 b8 e3 4e ee b8 49 95 56 b8
       -9.0085174e-05 -9.220858e-05 -0.00011363418 -5.116061e-05
000040 53 61 fa b8 17 f4 1a b6 0f 96 b5 b8 e4 01 9d 33
       -0.00011939057 -2.3089867e-06 -8.658703e-05 7.311226e-08
000050 6a ad 60 b8 4a e5 bd b8 ee 54 a7 b8 21 50 14 b9
       -5.3567266e-05 -9.054931e-05 -7.979e-05 -0.0001414423
000060 58 6e b4 b7 92 f2 6f b8 f7 71 6f b8 58 7f d4 b8
       -2.1509055e-05 -5.720795e-05 -5.708818e-05 -0.000101326674
000070 5d 73 36 b8 7a 16 e9 b8 f9 47 24 b8 5d a9 c0 b8
       -4.3499622e-05 -0.000111144924 -3.9167677e-05 -9.18682e-05
000080 68 c1 ac b8 14 66 9c b7 75 a1 46 b7 83 ce b5 b8
       -8.237624e-05 -1.8644183e-05 -1.1839312e-05 -8.6692184e-05
000090 89 f6 26 38 5a f0 03 b8 3e 16 ca b8 18 76 35 b8
       3.9807088e-05 -3.145668e-05 -9.6362535e-05 -4.3263746e-05
0000a0 60 60 4b b8 8b 7e 14 b9 6d b0 89 b8 9f ff 15 b8
       -4.8488728e-05 -0.00014161521 -6.565531e-05 -3.5762434e-05
0000b0 1f dc a4 b8 bb 50 3b b8 51 7f 2b b9 af 7e 2e b7
       -7.86113e-05 -4.465946e-05 -0.0001635526 -1.0400704e-05
0000c0 0d d7 4b b8 c8 5c eb b8 dc 2f 5d b8 a7 ba 9f b8
       -4.8599253e-05 -0.00011222955 -5.273508e-05 -7.6164775e-05
0000d0 0b 8d cb b8 2e 94 c6 b8 d5 16 bb b7 a5 0d cf b8
       -9.7060656e-05 -9.468976e-05 -2.230277e-05 -9.873071e-05
0000e0 8e 6e 0d b8 0b a8 90 b8 2e 27 e2 36 13 49 08 b9
       -3.371998e-05 -6.8977555e-05 6.739886e-06 -0.00012997193
0000f0 ad 7e a5 b8 c5 51 65 b7 6c fe a9 b8 54 60 c7 b8
       -7.891408e-05 -1.3668502e-05 -8.105938e-05 -9.507002e-05
000100 46 f8 65 39 e2 a0 70 38 f4 0a e6 b8 92 12 d5 b8
       0.00021931631 5.7370293e-05 -0.00010969295 -0.000101600905
000110 a6 57 84 b7 c0 72 1b b8 93 0f 8d b8 5f 53 0e b9
       -1.577644e-05 -3.706175e-05 -6.726305e-05 -0.00013573233
000120 27 33 c2 b9 89 c3 09 ba 38 00 6a b9 9e 8d 06 b9
       -0.00037040675 -0.0005255272 -0.0002231606 -0.00012831992
000130 b8 ab 3f b9 0c 0b 4f b9 27 a2 4e b8 f0 21 c3 b7
       -0.0001827915 -0.00019745174 -4.9265243e-05 -2.3261615e-05
000140 30 cd b9 b8 75 d3 86 b8 d0 b4 72 b8 03 1e bb b8
       -8.8597066e-05 -6.429005e-05 -5.786569e-05 -8.922445e-05
000150 63 9f 48 b8 f1 99 f8 b8 46 81 e9 36 77 85 f3 b8
       -4.7832156e-05 -0.00011854235 6.9589905e-06 -0.00011612003
000160 ae c4 11 b9 41 a3 c5 b6 25 2d 45 b8 d1 33 6b b7
       -0.00013901546 -5.8900628e-06 -4.7010504e-05 -1.4019156e-05
000170 45 b5 8f 39 52 4d b9 39 d0 c8 81 39 74 44 12 39
       0.00027410142 0.00035343558 0.00024754414 0.00013949146
000180 94 1a f9 b9 fa be 94 bb d4 c5 08 bc 8d 26 c6 bb
       -0.00047512783 -0.0045393677 -0.008347947 -0.006047076
000190 45 58 58 bb 50 e2 a6 ba 3f 7a df ba 35 49 3e ba
       -0.0033011597 -0.0012732241 -0.0017049982 -0.00072588335
0001a0 3a 8f 10 b9 fb c8 2d b9 dc 8a 6e b8 06 d1 9b b7
       -0.00013786266 -0.00016573437 -5.6872945e-05 -1.8574774e-05
0001b0 5a 75 49 b8 c7 05 cb b8 8a 81 f3 b8 d0 ea f9 b8
       -4.8031427e-05 -9.6808704e-05 -0.000116112715 -0.000119169825
0001c0 a7 b7 89 b8 e8 71 99 37 13 ca a2 b8 e3 c6 a0 b8
       -6.566877e-05 1.8292063e-05 -7.762401e-05 -7.66644e-05
0001d0 0c 0e 01 b9 a8 24 33 b8 5d 4c c4 b8 87 31 ba b8
       -0.00012307632 -4.2711064e-05 -9.360232e-05 -8.878396e-05
0001e0 f5 c1 c0 b9 40 c7 c3 39 6f d7 ba bb bf 58 df bd
       -0.00036765603 0.0003734175 -0.005701951 -0.10905599
0001f0 0b 37 31 be be ff 13 be 14 31 c5 bd 61 23 6e bd
       -0.17306153 -0.14453027 -0.096285015 -0.05813921
000200 f1 72 03 bd b3 44 22 bb 92 72 ad 3b 16 d8 90 3a
       -0.03209204 -0.0024760186 0.005293199 0.0011050727
000210 21 95 bc 39 a5 ed d9 b8 c3 32 ad b8 f7 86 f5 37
       0.00035969264 -0.00010391631 -8.258738e-05 2.9269124e-05
000220 4a 3c 55 38 07 6c 03 b9 8f ae f0 36 14 d8 a2 b8
       5.0839306e-05 -0.00012533377 7.1728787e-06 -7.76501e-05
000230 39 e8 24 b8 b1 d7 b8 b8 49 e9 80 b8 6d 37 29 b9
       -3.931692e-05 -8.8139794e-05 -6.1469684e-05 -0.00016137744
000240 4f 6c 8b b8 ef 12 eb b8 24 1f 83 b9 30 73 81 ba
       -6.6482105e-05 -0.000112092 -0.0002500947 -0.0009876247
000250 fc 32 63 bc 72 33 a0 bd 3f 1f e9 bd 4f 53 23 be
       -0.013867136 -0.078223124 -0.11382913 -0.15949748
000260 24 43 31 be 1d ad 94 bd 60 b0 4f 3d 0a c8 52 3d
       -0.17310768 -0.07259581 0.050705314 0.051460303
000270 7f 45 e8 3c 66 cf d8 ba fd 01 ca 3c 38 bf 20 3d
       0.02835345 -0.0016541302 0.024659151 0.03924486
000280 40 dc 9c 3d 1c b2 3d 3c 90 24 e9 b8 94 fd 8d b9
       0.07659197 0.011578109 -0.00011117116 -0.00027082546
000290 55 93 17 b9 e4 8f de b8 ec 36 1d 38 c3 ff 9b b8
       -0.00014455368 -0.000106125866 3.7482867e-05 -7.438615e-05
0002a0 8a 8d 1a b8 ed ef 00 b9 0f cf 16 b9 7c 65 03 b9
       -3.684828e-05 -0.0001229641 -0.0001438225 -0.0001253094
0002b0 95 e6 8f 36 e0 65 bb b8 58 08 4a ba 14 29 dd bc
       4.2885754e-06 -8.9358306e-05 -0.0007706932 -0.026997127
0002c0 4d 09 a8 bd 38 6d b7 bd f0 f2 78 bd 38 18 68 bd
       -0.08204899 -0.08956379 -0.06077856 -0.05666372
0002d0 5b 9e e6 bc d8 5d 33 3b ae 17 eb 3d fc 68 22 3e
       -0.028151682 0.0027369168 0.11479126 0.15860361
0002e0 e6 36 e6 3c fb cc d9 35 a2 a2 e2 bc f4 32 aa 3d
       0.02810235 1.6227417e-06 -0.02766544 0.083105
0002f0 bf 1c db 3d c1 59 1d 3d c1 9f ae 3c 3a 18 34 3a
       0.10698842 0.038415674 0.021316411 0.0006870065
000300 16 32 8b b9 72 f8 c6 b9 04 09 9c b8 bd 1d 21 b9
       -0.00026549463 -0.0003795061 -7.440339e-05 -0.00015365235
000310 5b e5 d5 b7 80 63 e3 b8 a4 af cb b8 72 6f c5 b7
       -2.549838e-05 -0.00010842737 -9.71251e-05 -2.3536126e-05
000320 e6 0b d5 38 f0 07 3f 38 41 7e 0a ba 24 29 bc b8
       0.00010158848 4.554534e-05 -0.00052830955 -8.9722016e-05
000330 6a 7b 45 bc a0 b6 03 ba f3 68 0d bc 4f fb bd 3b
       -0.01205335 -0.00050244667 -0.008630979 0.0057977806
000340 ff 0f 5f ba 9d 79 3e bd cc b8 0c 3d a3 a3 88 3d
       -0.00085091585 -0.0465027 0.034355924 0.06671836
000350 0f 72 2a 3d 84 00 d9 3b 95 95 94 3d 49 62 08 3e
       0.04161268 0.006622376 0.07255093 0.13318743
000360 8c d1 21 3e a4 d2 76 3d 03 ea d1 3d ae c0 00 3d
       0.15802592 0.060259476 0.10249712 0.031433754
000370 3d b5 09 b9 e5 7a 9b b9 6d cf 12 b9 7e c5 b5 b8
       -0.00013132855 -0.00029655467 -0.00014000917 -8.667538e-05
000380 2c ef 62 b8 c5 6b f5 b8 fc bc cd b8 7c f0 4d 38
       -5.4105345e-05 -0.00011702584 -9.810363e-05 4.9099777e-05
000390 85 99 ab 39 a3 33 29 3a 21 00 95 39 14 8b 05 3c
       0.00032730043 0.0006454533 0.0002841959 0.008150835
0003a0 15 68 91 3d e5 92 1c 3e 1c e4 e3 3d a9 12 ec 3c
       0.0709993 0.15290411 0.11127493 0.028817492
0003b0 28 86 97 bd 0f 29 c8 bd 66 0f 70 bc 98 fc a4 3b
       -0.07398635 -0.09773456 -0.014652109 0.0050349943
0003c0 99 a2 e3 b9 f2 0a 02 3d 83 15 d4 3d a8 52 c7 3d
       -0.0004341796 0.03174872 0.103556655 0.09732562
0003d0 bb 0c 1d 3e 94 1d ca 3d fe ca ac 3d ff 5b 89 3d
       0.15336888 0.09868923 0.08437155 0.06707
0003e0 06 ec e6 39 65 5b 2b b8 f0 e4 ea b8 9e 32 88 b8
       0.0004404487 -4.0854695e-05 -0.000112006324 -6.4944135e-05
0003f0 c3 73 19 b9 37 90 b0 b8 31 56 af b8 3e 13 c2 b7
       -0.00014634342 -8.419196e-05 -8.360705e-05 -2.3135563e-05

1.bias f4 [100]
000000 2e 65 0a bd 2b a1 a5 bd 9d 9e 44 be 9a ba 70 3d
       -0.0337879 -0.08087381 -0.19201131 0.058771707
000010 c6 e1 63 be e0 ce 6c bd ab 81 d2 bd 81 22 c6 bd
       -0.22254094 -0.05781448 -0.102786385 -0.0967455
000020 d0 b6 de bd b2 f3 54 3c 6e b8 80 be 5a d7 5a be
       -0.108747125 0.012997555 -0.2514071 -0.21371213
000030 08 61 de bd 23 96 90 be 8b bf 67 be 00 6f 4b bc
       -0.10858351 -0.28239545 -0.22631662 -0.012416601
000040 e7 20 81 3b 6e 88 05 be 6a 7b de bc c3 36 4c be
       0.00394069 -0.13040325 -0.027158458 -0.19942765
000050 4d 3e ca 3b 22 af 95 bd a9 b4 c3 be 6c 59 bc bc
       0.0061719776 -0.073087946 -0.3822377 -0.022991858
000060 c6 f8 0e 3e 12 73 8c be 37 e4 76 3d b6 88 1d be
       0.13962087 -0.27431542 0.060276236 -0.15384182
000070 8e 1e 52 be 59 ff c9 be 85 fc 89 be c7 c6 5a 3c
       -0.20519468 -0.39452627 -0.2695047 0.013353056
000080 0d cd 10 be ec bd 05 be d5 5d 2f be 87 15 a3 be
       -0.1414072 -0.1306073 -0.17125638 -0.31852362
000090 d1 05 16 3d b0 31 72 3d 5f 1c c8 3d e6 24 e0 bd
       0.03662664 0.059129417 0.09771036 -0.10944538
0000a0 40 2d 9a bb fa c4 43 be 14 67 47 3d 5a a8 a5 3d
       -0.0047051013 -0.1911811 0.048682287 0.08088751
0000b0 09 98 1d be e5 54 52 bd 78 cb 06 3e 04 37 7b 3c
       -0.15390028 -0.051350493 0.13163555 0.015332941
0000c0 42 ca 1e be 41 47 80 be 9b 4b 04 be 5b eb 12 bd
       -0.15506843 -0.25054362 -0.12919466 -0.035868984
0000d0 f8 1a 22 3e f9 2b 5c 3d db b5 7d 3e a0 4d 6e be
       0.158306 0.053752873 0.24776404 -0.23271799
0000e0 c7 fa 7e bc e7 e4 4b be 64 f8 ea bc fc 7d ce bd
       -0.01556272 -0.19911538 -0.028682895 -0.10082623
0000f0 50 dd c9 3d bd 0b a6 be e0 09 cd bd 7a e2 4f bd
       0.09856665 -0.3243083 -0.10011649 -0.050753094
000100 08 3d 52 bc b2 fd cb bd 06 f4 a3 be 49 22 06 3e
       -0.012831934 -0.09960498 -0.32022113 0.13099016
000110 c3 26 e3 bd 54 0c 0b 3d 8e df 31 bd 83 2a 1d be
       -0.110913776 0.033947304 -0.04342609 -0.15348248
000120 fb 68 25 be 49 9f d6 bd fd 72 28 3e 26 fd 42 bc
       -0.16153328 -0.104796 0.16450115 -0.011901176
000130 ad 50 91 bc 72 9a 24 3e 49 57 c7 3d d6 06 62 be
       -0.017738665 0.16074541 0.09733445 -0.2207292
000140 03 34 48 3d 3e 15 b2 be 50 60 0f 3e 0f da 95 be
       0.048877727 -0.34781832 0.14001584 -0.29267928
000150 e5 05 a3 3d 15 9e 83 be 4a 27 26 be aa 4c 2f 3e
       0.07960109 -0.25706545 -0.16225925 0.17119089
000160 bd a9 c2 bd 3f 6d 64 3d fc 2b 08 bd 8b 57 4d 3e
       -0.09505031 0.055768248 -0.03324507 0.20052926
000170 39 7f b8 bd b6 dd de bd f1 be c3 b8 9d e1 1b be
       -0.09008641 -0.10882132 -9.33389e-05 -0.15222783
000180 c1 f1 fc 3c a9 70 ac be b5 c9 8d 3e 8d c9 5a bd
       0.030876996 -0.33679703 0.27692953 -0.05341487

3.weight f4 [100, 100]
000000 0a 13 58 3b 63 74 ec bd e5 f0 ed 3c be c9 be bd
       0.0032970333 -0.115456365 0.029045532 -0.09315823
000010 75 0f 42 3e bf 08 a6 3d 1a b0 4b 3d 16 61 c1 bd
       0.18951209 0.08107137 0.04972849 -0.09442346
000020 3d 10 1e 3e 9f d7 bc bd 96 d9 12 3e 62 86 a5 bc
       0.15435882 -0.09220814 0.14340815 -0.02020568
000030 ad b6 0a be b4 7c 87 3c 8b 60 99 bd 36 54 22 be
       -0.13546248 0.016538955 -0.07489117 -0.15852436
000040 2f cd a7 3c 68 e1 e5 3d e1 9e b5 3b 5d 52 ae 3c
       0.020483581 0.112246335 0.0055426215 0.021279508
000050 9c f1 0a 3e 95 e8 e9 bc 86 18 56 3d f3 33 a7 3c
       0.13568729 -0.028553287 0.05226948 0.020410514
000060 25 4b 15 be 3b 73 c7 bd df db f1 3d 13 d1 7d 3e
       -0.14579447 -0.09738775 0.11809515 0.24786787
000070 83 07 70 3d 62 69 62 3d 9f 49 de 3c f4 7c 3f bd
       0.058600914 0.055276282 0.027134715 -0.046750024
000080 08 d4 b4 bd 89 c3 92 bb 8b f4 e4 3d ee 96 83 be
       -0.08829504 -0.004478876 0.11179455 -0.25701088
000090 ff 14 86 bc 73 88 0a 3d 88 66 b0 bc 26 64 c0 3d
       -0.016367434 0.033821534 -0.021533266 0.09394102
0000a0 8d bf b3 bd f9 d8 c4 bd 9d 23 d2 3d ad 99 64 3c
       -0.0877677 -0.09611697 0.10260699 0.013952655
0000b0 ee 67 2e 3d 0d ae 4d 3e fd 01 9f 3c c4 e0 8d 3d
       0.042579584 0.20085926 0.019410128 0.06927636
0000c0 be 24 4e bd f4 1f 2e bc 8c 51 f5 bd 68 e6 bf bc
       -0.05032801 -0.010627735 -0.119784445 -0.023425296
0000d0 f4 74 5d be 28 ba c4 3c 4b 1e cc bc 12 27 55 3d
       -0.21626645 0.024014547 -0.024916789 0.052039213
0000e0 21 59 b8 bd 97 7f 1d bd b3 99 51 bc f3 88 34 3c
       -0.09001375 -0.038451757 -0.012792992 0.011018979
0000f0 13 af 77 be 7b 7d 20 ba 00 31 34 3e a6 fa c7 bd
       -0.2418788 -0.00061222137 0.17596817 -0.09764604
000100 d7 f1 51 be c0 2b df 3d d1 27 42 be 81 89 c0 3d
       -0.20502411 0.108970165 -0.18960501 0.09401227
000110 af 41 fd ba 12 c7 51 be 4f ca 5f be 61 c4 16 3e
       -0.0019321943 -0.20486096 -0.21854518 0.1472335
000120 75 59 36 3d cc fe b3 3d c5 7c 7a bd 68 af a1 3c
       0.044518907 0.08788833 -0.061154146 0.01973696
000130 8c f7 ee 3c 26 de 99 bc ba 5f 12 be d6 ae 76 3c
       0.029170774 -0.018782686 -0.1429433 0.015056333
000140 ea d0 a5 3d e1 bb 67 be 6d 2e 3f 3e 65 0b 4d bd
       0.08096488 -0.22630264 0.18670054 -0.050059695
000150 92 bb f7 3d 66 d9 8c be 89 94 01 be 71 cc 84 bd
       0.12096323 -0.27509612 -0.12654318 -0.064843066
000160 af 81 da 3d ed 27 c3 38 c4 bc ee bc 0c cf 88 bd
       0.106692664 9.305761e-05 -0.029142745 -0.06680116
000170 1d 2e cd bc bc b6 19 bc b8 0a 08 3e 74 bb 4c bd
       -0.025046403 -0.009381946 0.13285339 -0.049983457
000180 a1 e9 6d bd 8f 8e 2b 3e af f8 93 bd b1 85 40 bd
       -0.058084134 0.167536 -0.07225167 -0.047002498
000190 d2 e8 65 be 6a 64 84 3d ef 3b b9 bd 32 be d2 bc
       -0.22452095 0.06464465 -0.090446346 -0.025725458
0001a0 5a 84 df 3d c7 51 90 bc 66 62 41 3e 94 8e 4a bd
       0.10913916 -0.01761712 0.18885192 -0.04945238
0001b0 f9 22 dd bb b5 e1 1f 3e 38 fd 59 3e 4f 47 4f 3c
       -0.006748554 0.15613444 0.21288002 0.012651279
0001c0 98 0c 98 3e 08 43 8d 3d d4 f3 f8 bb 0d 4f 64 bc
       0.29697108 0.06897551 -0.007597426 -0.013934863
0001d0 aa 98 94 3d 59 d0 eb bc 7e 55 10 3d 57 6d 14 be
       0.07255681 -0.028785871 0.03523778 -0.14494835
0001e0 95 1f 3c 3e 44 cb 84 bd 92 f6 c1 bc 0e 8e 11 3e
       0.18371423 -0.06484082 -0.023677144 0.14214346
0001f0 df 04 ee bd 9f e7 a9 3d 8b 23 03 be 06 3f e3 bd
       -0.11622023 0.08296131 -0.12806527 -0.11096005
000200 60 6b 07 3e 7f 1b a7 3c 52 9d 8f 3c c0 91 02 be
       0.13224554 0.020398853 0.01753107 -0.12750912
000210 75 6f 44 3e d7 b0 9c bb d9 ee 41 3d a5 56 d8 bd
       0.19183142 -0.004781823 0.047346924 -0.10563401
000220 d3 00 58 3e f8 55 4b be 8c 74 83 3c 61 97 42 bd
       0.21094064 -0.19857013 0.016046785 -0.047507647
000230 96 3f 9e bd 98 c8 06 3e 22 f8 5c 3e 40 40 84 3d
       -0.07726972 0.13162458 0.2157903 0.06457567
000240 ce ad e1 bd 7a 84 f6 3b e3 3a 28 3e 14 25 db 3d
       -0.11019479 0.0075231167 0.16428714 0.107004315
000250 28 da 8c bd bb 3f 13 3c 28 45 72 bd 1f 83 02 3e
       -0.068775475 0.0089873625 -0.059147984 0.12745331
000260 89 83 21 3c 9a 31 bb 3d 96 19 5b bc fa fd 81 be
       0.009858021 0.0914032 -0.013372799 -0.2538908
000270 bc c3 87 3d 51 6c 45 3e b2 15 26 3c 5c 08 7f bd
       0.0662913 0.192796 0.0101370085 -0.06226383
000280 ee 4e 89 3e ea 0d 25 bd b6 76 92 3c be 6b 5d 3c
       0.2681803 -0.040296473 0.017878871 0.013514457
000290 a0 e7 5a 3e 77 b6 00 3c 41 90 08 3e 4a 84 0c 3e
       0.2137742 0.007856003 0.13336278 0.1372234
0002a0 35 38 ca bc 7e e1 69 bd c0 4c 53 be 26 22 3c 3d
       -0.024685005 -0.05709981 -0.20634747 0.045931004
0002b0 73 24 60 3e 59 d0 19 bc 13 97 55 bd 33 e3 50 3d
       0.21888904 -0.009388053 -0.05214603 0.050997924
0002c0 32 91 52 3e c7 ac 0f be 2e 89 01 bd ff 44 1c 3e
       0.205632 -0.14030753 -0.031624965 0.15260695
0002d0 72 04 c0 3c 24 98 9a bd 42 3d c4 3e 67 8a f6 bd
       0.02343962 -0.0754855 0.38327986 -0.12038117
0002e0 5d a8 6e 3e 19 b6 20 3e 69 d8 be 3c 20 16 e2 bd
       0.23306413 0.15694465 0.023296552 -0.11039376
0002f0 51 97 19 bd 87 5e 36 bc f7 d2 d2 3d 90 8d 8b 3b
       -0.037497822 -0.0111309355 0.102941446 0.004258819
000300 93 a2 c5 bd 68 58 51 be a4 21 33 bc e4 c8 ed bd
       -0.09650149 -0.2044388 -0.0109333135 -0.116105825
000310 f1 f1 9b 3d 67 81 99 bd 1e 97 54 3e 6a 1e 3f 3d
       0.07614506 -0.07495385 0.20760772 0.046659864
000320 2a db 59 3e 97 00 89 3e 54 12 9d bb 94 1c 8f bb
       0.2127501 0.26758263 -0.0047934446 -0.0043674204
000330 fc 2d 23 3e 5c a2 11 3e 86 cc c3 bd 12 b5 8a bb
       0.1593551 0.14222091 -0.09560494 -0.004233011
000340 28 44 18 be a9 63 c9 3c a3 7d c8 3c fc 1e 87 bd
       -0.1486975 0.024583654 0.02447397 -0.06597707
000350 5c 3f c5 bd 73 2c 16 bd 9d 0d 45 3d 22 55 84 3e
       -0.096312255 -0.036663484 0.048108686 0.258462
000360 33 99 d9 3c 13 49 ab 3d 88 66 41 bd 41 4e 50 bc
       0.026562309 0.08363547 -0.047216922 -0.01271397
000370 a3 40 ee 3d 89 c3 7a be f7 e4 22 be 3e 51 51 bd
       0.11633422 -0.24488653 -0.15907656 -0.05110287
000380 33 3a f4 3c 8d fd 58 bd 64 b3 92 3c 43 61 c7 bd
       0.029812908 -0.05297618 0.017907806 -0.09735348
000390 8d 4b 81 bd 3c 7f 11 3e db d8 89 ba 86 c0 f2 3c
       -0.06313238 0.14208692 -0.0010516898 0.029632818
0003a0 93 c3 8a 3d fb 62 15 3d 11 6b c2 3d 47 d0 39 be
       0.06775584 0.03647135 0.094930775 -0.18145858
0003b0 bf 93 97 3d 0c 5d b8 bd ba 1c b2 be a4 66 13 be
       0.07401227 -0.09002122 -0.34787542 -0.14394623
0003c0 ab b1 a5 bd f5 44 94 3d c8 cd bb 3d 71 6d 82 3d
       -0.08090528 0.07239715 0.09170109 0.063685305
0003d0 35 54 e1 3c 03 54 2a bd 55 c2 bc 3d b3 96 15 3d
       0.027505973 -0.041584026 0.092167534 0.03652067
0003e0 01 7a 5a 3d 6b 9a 5c bd fb 07 04 bc 24 d7 b3 bc
       0.05333901 -0.053858202 -0.008058543 -0.021953173
0003f0 d3 8d fb 3c 12 a6 3c bc 8b c3 1d be b9 0f d0 3c
       0.030707275 -0.011514204 -0.15406625 0.025398122

3.bias f4 [100]
000000 be a9 1b 3d 3e 3a 25 3c de 3f cc bd d8 ca 69 3e
       0.038003676 0.010084687 -0.09973119 0.22831285
000010 64 62 5d 3d 1d 65 87 be 0a 38 20 bc 90 37 1f 3d
       0.05404891 -0.2644433 -0.009778986 0.038871348
000020 4d ec e3 3c 4d c5 58 bd 8a 31 58 bd a4 b6 e9 bc
       0.027822638 -0.052922536 -0.05278162 -0.028529473
000030 c1 90 7e bd bd 3a d7 bd 6b 52 cb bd d8 f2 ed 3d
       -0.062149767 -0.1050925 -0.09927829 0.116185844
000040 12 ff 08 bd 03 15 61 bd 4f f7 73 3b b7 fa c2 3d
       -0.03344638 -0.05495168 0.0037226265 0.09520476
000050 75 4e 85 bb 7e c3 70 3e a0 b2 df 3d ae 72 41 bd
       -0.0040681907 0.23512074 0.10922742 -0.047228508
000060 9d 99 8c 3b 17 71 11 3d 9d b2 d2 3c f7 3a aa 3c
       0.004290773 0.03550824 0.025719935 0.02078007
000070 16 77 be 3d 06 bb 9f 3e db ba ab bc e1 a2 76 3b
       0.093000576 0.31197375 -0.020963123 0.0037633704
000080 d0 76 2c bd 1e 9e e7 bc 59 e7 37 3e 59 be 56 3e
       -0.042105496 -0.028273638 0.17959346 0.2097105
000090 97 82 61 be 89 52 2b be 62 39 81 bd a8 b5 75 3d
       -0.22022472 -0.16730703 -0.06309773 0.059987694
0000a0 86 21 29 bd b7 33 a6 bd 68 0d 3d 3c ae 8c 9b 3d
       -0.041291736 -0.081153326 0.011538841 0.07595192
0000b0 d9 3a 83 be 4d 19 c3 bd 31 88 2d 3e db b4 d5 3d
       -0.25630835 -0.0952631 0.16946484 0.10434886
0000c0 3e db c7 bd 45 79 5b bd 99 4f 13 bd 5d 7b 9a bd
       -0.09758614 -0.05358245 -0.035964582 -0.07543061
0000d0 b1 d4 84 3d 06 3e 7e be fb b1 12 be af 6e 9f bc
       0.0648588 -0.24828348 -0.14325707 -0.019461958
0000e0 54 3e 86 3d 6b 36 80 bd ec cf 8a 3c 41 b3 99 bd
       0.06554857 -0.062603794 0.016944848 -0.07504893
0000f0 69 7b 19 be 72 f9 f3 bd 7a 66 4c be de 91 fa bd
       -0.14988483 -0.11912812 -0.19960967 -0.12234853
000100 8c 9e ba bd 63 8f 8c be 4c bf 0b bd 24 a1 ab 3a
       -0.09112272 -0.27453145 -0.03411798 0.0013094288
000110 99 b5 01 be cd e8 67 3c 84 86 54 bd cf 55 85 be
       -0.1266693 0.014154625 -0.051886097 -0.2604203
000120 32 75 e2 bd b4 83 85 bd f9 79 d7 bc 18 db 38 be
       -0.110575095 -0.06519261 -0.026303278 -0.18052328
000130 94 a6 a4 3d 80 c3 98 bc 41 a6 a7 bc 89 3d 9f bd
       0.08039585 -0.01864791 -0.020465018 -0.07775409
000140 4b 5e 3f 3a ea 2b d5 bb 82 22 b1 3e 4f 2d af 3e
       0.00073001225 -0.006505479 0.3459664 0.34214255
000150 17 1e 70 be c6 cf fb bd 3c 27 34 bc 4a 8d 02 3d
       -0.23448978 -0.12295489 -0.010995682 0.031873025
000160 84 92 0f be 97 55 2d bd 08 f7 7c bd 20 d6 1f be
       -0.14020735 -0.042317953 -0.061759025 -0.15609026
000170 49 55 2b be 60 8c 0b be 35 a0 45 3d 8b 21 31 be
       -0.16731752 -0.13627768 0.04824849 -0.17297952
000180 2c 10 db bd 81 74 e2 bd c5 fe 12 be fb 00 65 3d
       -0.10696444 -0.110573776 -0.14355 0.05590914

5.weight f4 [10, 100]
000000 78 5c 5e 3d 9d e3 f8 3d a1 e8 0a be 36 b2 5f be
       0.054287404 0.12152789 -0.13565303 -0.21845326
000010 8e e9 c8 bd 2b 56 4a bd ae 97 8b 3d e9 6a 9a 3d
       -0.09810172 -0.049398582 0.0681604 0.07539923
000020 b8 ea 06 bd 6c 0e 1d be 81 05 f0 bc 55 c4 53 be
       -0.03293869 -0.15337533 -0.0292995 -0.20680363
000030 5a 28 58 bb 9c 18 f8 bd 49 57 fd bd f7 43 91 3e
       -0.0032983036 -0.12114069 -0.12370164 0.28372166
000040 0e 67 19 3e 31 76 3b 3e 84 11 19 be 4e 26 a8 bd
       0.14980718 0.18306805 -0.14948088 -0.08210431
000050 92 ed 1b bd b0 49 53 bd ac 22 04 3d 9e 6f 95 3d
       -0.03806836 -0.051583946 0.03225963 0.0729668
000060 1b 01 4c 3e 0e e2 9c 3e dc 9a 3d 3d 5b a1 7f 3e
       0.19922297 0.30641216 0.046290264 0.24963896
000070 3a 12 7b 3d e7 bd ff bd ac 8f 2a 3e ca 30 d6 3c
       0.06129668 -0.12487393 0.16656369 0.026146311
000080 12 f4 98 bc c6 d0 0d 3d d5 b0 dd bd 53 c4 78 bc
       -0.01867107 0.03462293 -0.10824744 -0.015183526
000090 33 f0 be 3d c9 12 ee 3d 93 0a 07 3e c9 f0 b6 bd
       0.09323158 0.11624677 0.13187627 -0.08932645
0000a0 2f 45 00 be c4 f4 0b 3e b7 3d 6a bd af 91 5a 3b
       -0.12526391 0.1366759 -0.057187762 0.0033350994
0000b0 10 f5 94 3c 93 0c 57 3d d4 e3 f1 bd 23 85 73 bc
       0.018183261 0.052502226 -0.11811033 -0.014863285
0000c0 90 16 01 be 6f 78 3a bd 63 8c a7 3d 9f da 54 3d
       -0.12606263 -0.04552501 0.081810735 0.051966306
0000d0 73 37 0f bc 62 3f 8f 3e da 17 a4 3e 7e fe 9f 3d
       -0.0087412475 0.27978045 0.32049447 0.078122124
0000e0 68 44 1c bc 29 c8 cf 3d 2b 4a 60 3e 86 8c 11 3e
       -0.009537794 0.101455994 0.21903293 0.14213762
0000f0 8c 9f 58 bd b3 35 e4 3d 97 6a 59 bd 31 76 2e be
       -0.05288653 0.11143055 -0.053080168 -0.17037274
000100 32 38 75 bd 06 de 5b 3e eb 85 1b 3c 66 67 94 3c
       -0.059868045 0.21471414 0.009492378 0.01811571
000110 8a 1a dd 3b fe a2 85 3e 97 7d 08 3e 38 3a cb bd
       0.0067475485 0.26100916 0.13329159 -0.09923214
000120 ee ce 87 3e 03 7b 03 3e 66 86 06 bd d2 0c d0 3b
       0.26525062 0.12839894 -0.032843016 0.0063491846
000130 11 0a a0 be 90 b5 04 be e5 cd de 3d 02 47 c8 bd
       -0.3125768 -0.12959886 0.10879115 -0.09779169
000140 63 be ee 3d 97 1d 06 be 04 52 a3 be 37 d4 82 bd
       0.11657407 -0.13097225 -0.3189851 -0.06388133
000150 5c 05 9b bb 41 d3 e8 bd 43 f8 56 3d ec 5d 14 bc
       -0.0047308635 -0.113684185 0.052482855 -0.009055596
000160 37 f3 40 bc dc 58 ba bd a5 7a 7c 3c af e1 be 3d
       -0.011776737 -0.0909898 0.0154101 0.093203895
000170 54 35 01 3d bd f1 06 3c 08 f2 13 3e 10 3b 52 3e
       0.031545 0.008236346 0.14447796 0.20530343
000180 f2 df 8c bd b2 6e 56 bd 53 99 85 bd cb f0 bd bd
       -0.06878652 -0.05235166 -0.06523385 -0.09274443
000190 e6 84 0a 3e e5 51 cf 3d b5 19 47 3e 17 dc c0 bc
       0.13527259 0.10123042 0.194434 -0.023542447
0001a0 00 76 c6 3d 81 54 fe bc 80 1f cd 3d e4 fe 4d bd
       0.096904755 -0.031046154 0.10015774 -0.05029191
0001b0 d0 21 46 3d 0a 13 13 3e 4c 0c 92 bd 0f 68 13 be
       0.04837209 0.14362732 -0.07131252 -0.14395164
0001c0 6c 8f 11 3e c7 f9 32 3e 22 4d 8e 3e f7 7e 10 be
       0.14214867 0.17478095 0.27793223 -0.14110933
0001d0 73 91 9d bd 61 d1 1c be e2 77 a1 3d 76 8a 07 3d
       -0.07693758 -0.15314247 0.07884194 0.03309103
0001e0 91 ba 4c be 11 2d 05 bd ae 10 b9 3d 58 a8 b1 3d
       -0.19993044 -0.03251368 0.090363845 0.08674687
0001f0 d9 39 1a 3e 25 64 15 3e be ba 41 bb 46 f6 da 3b
       0.1506113 0.14588983 -0.002956077 0.00668219
000200 c9 19 60 3c 72 9b 2b bc ea 82 c9 bd 9e f8 33 3e
       0.013678023 -0.010474073 -0.09839423 0.17575309
000210 b7 38 4b be 68 e7 ea 3d 75 ff f5 bd c0 60 04 be
       -0.19845854 0.114699185 -0.12011615 -0.12927532
000220 4d 93 12 be 4f 04 45 bd c0 4b 89 be f2 3d a0 bd
       -0.14314003 -0.048099812 -0.26815605 -0.07824315
000230 3a 91 55 3c 78 2b c4 bc 89 20 8a 3d cb 21 92 3d
       0.013035113 -0.023946509 0.06744487 0.07135352
000240 33 26 a7 bd 50 d7 a0 bd df 0a e5 3d 74 e3 d0 bd
       -0.08161583 -0.078535676 0.11183714 -0.10199633
000250 c3 a7 b2 3d e8 18 1f 3e 95 a5 1b bd a7 31 2f 3e
       0.08723404 0.15536845 -0.03799971 0.17108785
000260 fc b5 d8 3d ca 07 d3 bd 8b bb 62 3e e0 ae 34 3d
       0.10581586 -0.1030422 0.22141854 0.044112086
000270 82 78 27 be a7 5c 82 3b b7 25 07 3b 77 23 82 3d
       -0.16354564 0.00397833 0.0020621845 0.06354421
000280 f5 d0 1f be 8e 3c be 3d 30 eb 06 bd e6 3e 8a 3d
       -0.15607055 0.09288894 -0.032939136 0.06750278
000290 c2 3f a0 be c9 df 81 be a4 6e c1 bd 67 59 80 bd
       -0.31298643 -0.25366047 -0.09444931 -0.06267052
0002a0 c1 f9 af bc 61 8a 53 3e 4f e1 d2 3d c0 2b a4 3a
       -0.021481397 0.20658256 0.102968805 0.0012525246
0002b0 9e 8d d3 bb a2 07 ca bd 02 02 0c 3d 5d f7 c1 bc
       -0.006456091 -0.09864737 0.034181602 -0.023677522
0002c0 f8 eb 10 3e 42 fd 01 be b2 a2 7b 3d 75 84 1f 3d
       0.14152515 -0.12694266 0.061434455 0.03894468
0002d0 31 29 79 3d 25 c5 e3 bc 84 39 51 3e 10 50 20 be
       0.0608303 -0.027803967 0.20432097 -0.15655541
0002e0 53 21 b9 bd 78 ff 1d 3e ba d6 84 be c0 85 42 bd
       -0.09039559 0.15429485 -0.25945073 -0.047490835
0002f0 a2 f5 8d be 85 61 83 3e 4c 47 44 be 4a e2 7f 3d
       -0.27726465 0.2566034 -0.19167823 0.062471665
000300 1d bc 31 3e 3a 99 a6 bb 47 17 bf bd d7 d9 93 bd
       0.17356916 -0.005084184 -0.09330612 -0.07219284
000310 38 75 80 3c a8 08 ac 3b bc bc 36 bb 5c b2 ae 3d
       0.015680894 0.0052500553 -0.002788349 0.08530113
000320 95 eb af bd b1 f4 8c bd 6a 12 f9 3c fd ef 4b bb
       -0.085898556 -0.06882609 0.030404288 -0.0031118386
000330 d2 67 d5 bd 0f c0 0c be a9 07 07 3d 17 58 05 bd
       -0.10420193 -0.1374514 0.03296629 -0.032554712
000340 3e ba 3a 3d 8c 62 3b 3d c1 80 5d 3d 28 f1 25 bd
       0.04558777 0.04574828 0.054077867 -0.040513188
000350 89 aa c2 3c 41 6b a6 bc da 83 cb 3d d0 fc 38 3e
       0.023762958 -0.020314815 0.09937258 0.1806519
000360 8a 23 1f be 5d cd 6e 3e 84 4c 4c bd 5a f4 db bd
       -0.15540901 0.23320527 -0.04987766 -0.10739966
000370 e9 d0 2b 3e 7e d4 0f bd 2a 6b 30 be 8e 56 5b be
       0.16778912 -0.035114758 -0.1722838 -0.21419737
000380 be 85 85 bd 8c 40 7b 3d b9 64 89 bd ea 25 9a bd
       -0.0651965 0.061340854 -0.067086644 -0.07526763
000390 d6 94 3a bd 1a 16 89 bd c2 48 26 3c 5a c4 42 be
       -0.045552097 -0.06693669 0.010149183 -0.19020215
0003a0 26 8b 4e 3d 42 db 10 be db a2 f0 3c eb 14 8a bc
       0.05042567 -0.1414614 0.02937453 -0.016855678
0003b0 2d d8 38 3e 60 b0 86 be 9e 78 6a bc a4 3f c8 bc
       0.18051215 -0.26306438 -0.014310984 -0.024444409
0003c0 b8 40 b2 bd c3 2e 18 3e 26 f0 24 3c 4e ad 93 3d
       -0.0870375 0.14861588 0.0100670215 0.072107896
0003d0 46 7b b4 3d db a3 18 bd 46 5a 0a 3d db e0 99 3d
       0.08812575 -0.03726564 0.033777498 0.07513591
0003e0 2a a7 f0 bc ec f9 93 bd 54 cd 4c be ce b3 01 3e
       -0.029376585 -0.07225403 -0.20000201 0.12666246
0003f0 a8 27 13 bd 2c 9a 59 bd a9 d6 d7 3d 17 59 95 bd
       -0.03592649 -0.053125545 0.1053899 -0.07292383

5.bias f4 [10]
000000 44 68 ec bc 66 fe bf 3c 1e 5e 9a 3b 11 08 b0 3b
       -0.028858311 0.023436736 0.0047109267 0.0053720553
000010 51 fe a9 bd 0f 78 5c 3d 7a 77 c5 bc f4 5a a8 3d
       -0.0830046 0.053825434 -0.024104822 0.08220473
000020 09 91 2f bd ee 41 0b bc
       -0.042862926 -0.008499606
