models/mnist_conv_base.pt (torch, 88711 bytes, 8 tensors)

0.weight f4 [16, 1, 3, 3]
0	0xbe891314	-0.26772368
1	0x3e125c96	0.14293131
2	0xbd231339	-0.039813254
3	0x3d9cecac	0.07662329
4	0x3ea24286	0.31691378
5	0x3deb372c	0.114851326
6	0xbde2c0d5	-0.11071936
7	0xbe7c9439	-0.24665917
8	0xbe92ff23	-0.2871028
9	0xbe9b841c	-0.3037423
10	0xbe3d4a78	-0.18485439
11	0x3e267488	0.1625539
12	0x3dde7334	0.10861817
13	0x3ea1095f	0.31452462
14	0xbdb2d5e7	-0.08732205
15	0x3e97bd27	0.296365
16	0x3ea40e16	0.32041997
17	0x3e2e3c97	0.170153
18	0xbe83181a	-0.25604326
19	0xbdf8dbae	-0.121512756
20	0xbe6e2541	-0.23256399
21	0x3e592c78	0.2120837
22	0x3d8d29d0	0.06892741
23	0x3e4c8005	0.1997071
24	0x3c7e3d9a	0.015517617
25	0x3e78ddd4	0.2430337
26	0x3e309ff6	0.1724852
27	0x3b6f0de8	0.0036476795
28	0xbe172ca1	-0.14763118
29	0x3e341730	0.1758697
30	0x3e1714b3	0.1475399
31	0xbe73798d	-0.23776837
32	0x3e84169e	0.25798506
33	0x3d5cf3f6	0.053943597
34	0xbe9fec35	-0.312349
35	0xbe5b0e12	-0.21392086
36	0x3e941bf6	0.28927583
37	0x3e1d37f6	0.15353379
38	0xbe245b42	-0.16050437
39	0x3e0db6af	0.1383922
40	0xbdbe2a48	-0.09285408
41	0xbe5f6866	-0.21817169
42	0xb7797c1c	-1.4870453e-05
43	0xbdba4f23	-0.090971254
44	0xbda5663f	-0.080761425
45	0x3cd396f0	0.025828809
46	0xbe2eebb1	-0.17082097
47	0x3dac439c	0.08411333
48	0x3e96757b	0.29386505
49	0x3e02caad	0.12772627
50	0x3d106ba7	0.035258915
51	0x3e68772a	0.22701707
52	0x39b689f2	0.00034816522
53	0x3be01f36	0.006839658
54	0x3d68d29f	0.05684149
55	0x3ccef6ee	0.02526423
56	0x3de0a005	0.10968021
57	0x3c85e8a1	0.016346278
58	0x3ea296e3	0.31755742
59	0x3e1bfeea	0.15233961
60	0xbda05a8d	-0.07829771
61	0x3dc1185f	0.094284765
62	0x3c2ef314	0.0106780715
63	0x3e7786ac	0.24172467
64	0x3e78d86a	0.24301305
65	0x3e4c2720	0.199368
66	0x3e141217	0.14460026
67	0x3e12f3f4	0.14350873
68	0xbe043a00	-0.1291275
69	0xbe649ba2	-0.22324994
70	0x3e8c141e	0.27359098
71	0x3dfc3433	0.12314644
72	0xbe8c0674	-0.27348673
73	0x3d4ff146	0.050767206
74	0xbd38637d	-0.045016754
75	0xbe3624e1	-0.17787506
76	0x3efc622e	0.49293655
77	0xbcb56ec5	-0.022147546
78	0x3da009a4	0.07814339
79	0x3c2b19f1	0.010443197
80	0xbe874f59	-0.26427725
81	0x3e834ece	0.2564606
82	0x3a898155	0.0010490814
83	0xbe79b80f	-0.24386619
84	0x3e43edc4	0.19133669
85	0xbe333d6b	-0.17503898
86	0xbdaf6a17	-0.08565157
87	0x3e970fef	0.29504344
88	0x3e03880a	0.12844864
89	0xbe1e8c00	-0.15483093
90	0x3d18a3cb	0.03726558
91	0xbd738376	-0.059451543
92	0x3e5be3fd	0.2147369
93	0xbe46b049	-0.19403185
94	0xbe9889db	-0.29792675
95	0xbd4aa37f	-0.04947233
96	0xbd88f7ca	-0.06687887
97	0x3e9f20b1	0.3107963
98	0xbdab5724	-0.0836623
99	0xbd3babae	-0.045818023
100	0x3dbf957c	0.09354684
101	0x3d06c37d	0.032901276
102	0xbc8a8f6b	-0.01691409
103	0xbe85e0f9	-0.26148203
104	0xbe08ba15	-0.13352235
105	0x3ee44991	0.44587377
106	0xbd80d646	-0.062908694
107	0x3dfcc194	0.123416096
108	0x3e4948c1	0.1965666
109	0x3df58f16	0.11990182
110	0xbe71362f	-0.23555826
111	0xbd07743b	-0.03306983
112	0x3d64d666	0.05586853
113	0x3db8af8e	0.090178594
114	0x3e5f2f07	0.21795283
115	0x3e861e41	0.26194957
116	0x3bb67a5d	0.005568786
117	0x3e992cb8	0.2991693
118	0xbe02c591	-0.12770678
119	0xbe248f2c	-0.1607024
120	0xbd7fd0e0	-0.062455058
121	0x3f14effd	0.58178693
122	0x3d9de0ff	0.0770893
123	0xbc54bb1a	-0.012984062
124	0xbdf36c0e	-0.11885844
125	0xbe0d81f1	-0.138191
126	0x3b92bb4b	0.0044778935
127	0x3926bb5b	0.00015900789
128	0xbe559e44	-0.20861155
129	0x3e48cc4e	0.19609186
130	0x39c96f98	0.0003842085
131	0x3b280023	0.0025634847
132	0xbe90a225	-0.28248706
133	0x3d564b77	0.052318063
134	0xbdc9542f	-0.0983051
135	0x3e20bae0	0.15696287
136	0x3e3f1a3b	0.1866235
137	0x3ca9b6bd	0.02071702
138	0xbdef50c9	-0.116853304
139	0x3ebc710a	0.36804992
140	0x3e0891bf	0.13336848
141	0x3e333e49	0.17504229
142	0xbe8a1e94	-0.26976454
143	0xbd4ecc17	-0.050487604

0.bias f4 [16]
0	0x3dae4651	0.085095055
1	0xbe3807a4	-0.17971665
2	0xbdf48a8e	-0.1194049
3	0x3ddd14b1	0.10794962
4	0x3dc41e41	0.09576083
5	0xbe7efd3d	-0.2490129
6	0xbe8c8440	-0.2744465
7	0xbe0b806b	-0.13623206
8	0x3c4a61fe	0.012352465
9	0xbc8603c7	-0.016359223
10	0x3d027ce6	0.031857394
11	0xbd9bfd6c	-0.07616696
12	0xbdbecbc0	-0.09316206
13	0xbdbd225e	-0.09235071
14	0x3e0446a9	0.1291758
15	0xbd910209	-0.07080466

1.weight f4 [8, 16, 3, 3]
0	0x3e133943	0.14377312
1	0x3d89d74c	0.06730518
2	0xbcc5140f	-0.024057416
3	0x3cefed48	0.02928795
4	0x3e8e40cc	0.2778381
5	0x3c2873cb	0.010281513
6	0xbd3e2c1d	-0.04642879
7	0x3a22bfdb	0.0006208398
8	0x3c45a0b1	0.012062238
9	0xbe0baa3c	-0.13639158
10	0xbe2085db	-0.15676062
11	0xbd3c45c4	-0.04596497
12	0xbe3ae603	-0.18251805
13	0x3d73c316	0.05951222
14	0xbddfb63c	-0.1092343
15	0xbd946291	-0.072453626
16	0xbd872fdb	-0.066009246
17	0xb84c1146	-4.8653477e-05
18	0xbe5d1a31	-0.21592022
19	0xbe5473e4	-0.20747334
20	0xbd49d033	-0.04927082
21	0x3c781f53	0.015144187
22	0x3dc59356	0.09647243
23	0xbd4debf8	-0.050273865
24	0xbd87fd12	-0.06640066
25	0xb93b98eb	-0.00017890676
26	0x3b3b2154	0.00285538
27	0x3e2252cc	0.15851897
28	0x3d3b209f	0.045685407
29	0xbc8ae5e0	-0.016955316
30	0xb7c47b16	-2.3422337e-05
31	0x3d054b09	0.032542262
32	0xbc0d2d17	-0.008616707
33	0xbd64ce68	-0.055860907
34	0xbda74a69	-0.081684895
35	0xbd2bc46e	-0.041935377
36	0x3d1ff6b8	0.03905365
37	0x3d4a6b2f	0.049418624
38	0x3ce09ab3	0.027417516
39	0x3d23d9d1	0.040002648
40	0xbd91b47c	-0.07114503
41	0xb8ddf384	-0.000105834595
42	0x3c96f8bd	0.018429155
43	0x3b3ac898	0.002850091
44	0xbddb3d4a	-0.10705049
45	0x3917576c	0.0001443305
46	0xbe40c9e5	-0.18827017
47	0x387db51d	6.0488575e-05
48	0xbcaf2618	-0.02138047
49	0x392b7dad	0.00016354649
50	0xbdbe558f	-0.09293663
51	0xbd0ebf2d	-0.03485029
52	0xbd888945	-0.06666807
53	0xbd27f9b0	-0.041009605
54	0xbdb24c05	-0.08705906
55	0xbb94bc62	-0.0045390585
56	0x3d221178	0.03956744
57	0xbd3d0063	-0.046142947
58	0xbc24cfe0	-0.010059327
59	0xbbcbfca4	-0.0062251855
60	0xbd1c1f5e	-0.03811585
61	0xbd74f4ac	-0.05980365
62	0xbd9a7505	-0.07541851
63	0xbabee938	-0.0014565354
64	0x3d6be2fb	0.057589512
65	0x3cade4d3	0.021227276
66	0xbe46f3bb	-0.19428913
67	0xbe10dcb6	-0.14146695
68	0xbde00238	-0.10937923
69	0xbd900230	-0.07031667
70	0xbe0f3058	-0.13983285
71	0xbe32dc81	-0.17466928
72	0x3d584722	0.052802213
73	0xbd81d3ad	-0.06339202
74	0xbd250084	-0.040283695
75	0x3a7ce1f8	0.0009646709
76	0x3e93b2ac	0.28847253
77	0xb90f1739	-0.00013646194
78	0xb9e1ee43	-0.00043092863
79	0x3d5992d7	0.053118553
80	0x3d4cbb0e	0.049983077
81	0x39b83bdc	0.00035139814
82	0xbe27f733	-0.16402893
83	0x3a7b5055	0.00095868605
84	0x3de8aa54	0.113606125
85	0xbd119498	-0.0355421
86	0xbcd6bd84	-0.026213415
87	0x3d6668c8	0.05625227
88	0xb9439cb1	-0.00018655021
89	0xbe213690	-0.1574347
90	0x3dd22656	0.10261218
91	0xb7b9072e	-2.2057062e-05
92	0xbca32e1b	-0.019919446
93	0xb9d59ebe	-0.00040744798
94	0xbd105694	-0.035238817
95	0x3df226c4	0.118238
96	0x3cae25c0	0.021258235
97	0xbc5f1b14	-0.013617296
98	0x3d96edee	0.073696
99	0xbd291a6f	-0.041284975
100	0xbe38208c	-0.17981166
101	0xbdacc294	-0.0843555
102	0xbc82e1b4	-0.015976764
103	0xbd36bfef	-0.044616636
104	0xbc472b83	-0.01215637
105	0x3c844538	0.016146287
106	0xb9dda74c	-0.0004227705
107	0xbc4981d3	-0.012299019
108	0xbdf0de09	-0.117611
109	0xbe021c2e	-0.12706062
110	0x39d1aa8e	0.0003999066
111	0x3b1bebd3	0.0023791685
112	0xbe4bc2ed	-0.19898577
113	0xbd4d2843	-0.050087225
114	0x3b5b5170	0.0033465289
115	0xbd88f518	-0.06687373
116	0xbdc1baa6	-0.094594285
117	0xbda2cb6d	-0.07948957
118	0x3c9732f8	0.018456921
119	0x3cb5a833	0.02217493
120	0x3db1797d	0.0866575
121	0x3d0cf094	0.03440912
122	0xbd142764	-0.03617038
123	0xbd99e1e5	-0.07513789
124	0x3dc92e79	0.09823317
125	0xbd982af8	-0.07430071
126	0x3c8bc1d3	0.017060196
127	0x3d06d1d4	0.03291495
128	0x3b529bbf	0.003213629
129	0x3dbcd61a	0.09220524
130	0x3d9fc8be	0.078019604
131	0x3d3404df	0.043949958
132	0x3a427dbf	0.00074192503
133	0x3bfdef41	0.0077494686
134	0x3893b365	7.042921e-05
135	0xbcdf4fda	-0.027259756
136	0x3d94b888	0.07261759
137	0xbcf4b655	-0.029872099
138	0xbda423fc	-0.08014676
139	0xbb93effc	-0.0045146924
140	0xbd6b03c5	-0.05737664
141	0xbd622519	-0.05521116
142	0xbdc7ee6f	-0.097622745
143	0xbdb23ee2	-0.087034
144	0x3dd0f562	0.10203053
145	0xbd6fcc4f	-0.058544453
146	0xbd956715	-0.07295052
147	0x3d8862ce	0.066594705
148	0xbbe19dd3	-0.006885269
149	0xbd33e9ec	-0.043924257
150	0xbc71ff50	-0.014770344
151	0x3d39cf07	0.045363452
152	0xbc09a86a	-0.008401969
153	0xbda8948c	-0.08231458
154	0x3b1f124f	0.0024272387
155	0xbc3c17ad	-0.011480254
156	0xbd8db539	-0.06919331
157	0xbe897d24	-0.26853287
158	0xbde4fd84	-0.11181167
159	0xbd908909	-0.070573874
160	0x3d66094a	0.056161202
161	0x3c7570f5	0.014980544
162	0x38218e25	3.8517774e-05
163	0x3c15706e	0.009121044
164	0x3c2cc939	0.010546022
165	0xbc4ee7d8	-0.012628518
166	0xbdc5444f	-0.096321695
167	0xbd45428f	-0.04815918
168	0x3d3fec2e	0.046856098
169	0x3dc9522f	0.098301284
170	0xbcf0e6d4	-0.029406942
171	0x3d9ce4cd	0.07660828
172	0xbcbf2254	-0.023331799
173	0x3b209d37	0.002450777
174	0x3e076c64	0.13224941
175	0xbc68ac1b	-0.014201189
176	0x3e2035df	0.1564555
177	0xbd72e328	-0.059298664
178	0x3d20651c	0.039158925
179	0xbcaac6d5	-0.020846764
180	0xbbc81324	-0.0061057974
181	0x39824d95	0.00024853335
182	0xb9b884a8	-0.0003519405
183	0x3cec9193	0.028878009
184	0x3ce40d06	0.027838241
185	0x3ce9594b	0.028484961
186	0x3d8ca3c5	0.06867174
187	0xbe583ad0	-0.21116185
188	0x3d537284	0.051622882
189	0xbbfa2246	-0.0076334802
190	0x3c95f27e	0.018304106
191	0xbb4f8f72	-0.0031671193
192	0xbc829aec	-0.015943013
193	0xbdaac0b9	-0.0833754
194	0xb99293f3	-0.0002795752
195	0xbd942660	-0.07233882
196	0xb9470e40	-0.00018983427
197	0x3c955051	0.018226774
198	0x3af64c30	0.0018791016
199	0x3c8be58a	0.017077226
200	0xbda32e07	-0.079677634
201	0xbcde6856	-0.02714936
202	0xbdbcdd50	-0.092218995
203	0xbddda4e1	-0.10822464
204	0xbe00c56b	-0.12575309
205	0xb95e02dd	-0.00021172636
206	0xbcbeed39	-0.023306476
207	0xbc062e71	-0.008189783
208	0x3d48c467	0.04901543
209	0xbc7cdc80	-0.015433431
210	0xbdb2e3ac	-0.08734831
211	0x39c1dd27	0.000369766
212	0xbe2a0670	-0.16604018
213	0xbe079e9b	-0.13244097
214	0xbd833f0e	-0.06408511
215	0x3d876d17	0.06612604
216	0x399d71df	0.00030030214
217	0xbd34af4d	-0.044112492
218	0xbc4f5b0f	-0.012655987
219	0x3e10c6a5	0.14138277
220	0xbe42d149	-0.19025148
221	0xbe543cae	-0.20726272
222	0xba871484	-0.0010305797
223	0x3d8b4283	0.067997955
224	0xbdd23491	-0.102639325
225	0xba087f8e	-0.00052069954
226	0x3c8c3591	0.017115386
227	0xb8bc2fba	-8.973428e-05
228	0x3dcd9d9e	0.10039829
229	0xbe1594a1	-0.14607479
230	0x3d8000d2	0.062501565
231	0x3af74fff	0.0018868445
232	0xbd8d1ff5	-0.06890861
233	0x3de7403d	0.11291549
234	0xbde65de0	-0.11248374
235	0xbc7b8f50	-0.015353993
236	0x39fad7b5	0.0004784443
237	0x38a6b130	7.9485006e-05
238	0x3dc9bc3a	0.098503545
239	0x3b207310	0.0024482645
240	0xbb5c60f9	-0.0033627136
241	0x3a59d89c	0.00083101704
242	0xbd79e2ed	-0.06100743
243	0xbdf239ef	-0.11827456
244	0xb84bc70c	-4.858435e-05
245	0x39a517dc	0.0003148903
246	0x38aaf724	8.152265e-05
247	0xbb2e5626	-0.0026601641
248	0x3e400634	0.18752366
249	0x38abd8e6	8.194316e-05
250	0x3d2b47b5	0.041816432
251	0xb99e798a	-0.00030226662
252	0xbd55f74e	-0.0522378
253	0xb9684e57	-0.00022154428
254	0xb907699c	-0.00012913946
255	0xbde394d9	-0.11112375

1.bias f4 [8]
0	0x3d5dac6a	0.054119505
1	0x3c24a0b7	0.010048083
2	0xbc85368e	-0.016261365
3	0xbc82a388	-0.015947118
4	0x3c3272ec	0.010891657
5	0xbce477f8	-0.027889237
6	0x3c2d12a1	0.0105635235
7	0x3d36a8a8	0.044594437

3.weight f4 [50, 392]
0	0xb8859789	-6.37016e-05
1	0xb8223877	-3.8676397e-05
2	0xb8ad47ce	-8.2626575e-05
3	0xb86612da	-5.485383e-05
4	0x3ab07ba0	0.0013464577
5	0xb8c8c754	-9.573871e-05
6	0xb8d80755	-0.00010301048
7	0xb89f0e21	-7.5843425e-05
8	0xb64da4ed	-3.064338e-06
9	0xb91c9aa0	-0.00014934922
10	0x39f71767	0.00047128947
11	0xb995a680	-0.00028543547
12	0xbd3bdc34	-0.0458643
13	0xbb9f9336	-0.004869844
14	0xb8d59cd9	-0.000101858466
15	0xb6585069	-3.2233313e-06
16	0xbb115a70	-0.002217915
17	0xbaebfc8b	-0.0018004341
18	0xbe42febd	-0.19042487
19	0xbe17514a	-0.14777103
20	0xbd3b6ce2	-0.045758136
21	0xb940df85	-0.00018393814
22	0xbbd8eef5	-0.006620283
23	0xbda91cac	-0.08257422
24	0xbc95d5ba	-0.01829039
25	0x3e88c43c	0.26712215
26	0x3d00d338	0.031451434
27	0x3994118d	0.00028241836
28	0xb98bed71	-0.00026689054
29	0xbc72821e	-0.01480153
30	0xbb13d7b6	-0.0022558994
31	0x3d00b6b9	0.031424258
32	0xba5526a3	-0.00081310625
33	0xb9b9ab4c	-0.00035413576
34	0x388bbbe3	6.663033e-05
35	0x388091a6	6.130645e-05
36	0xb9317982	-0.000169253
37	0xbdb93821	-0.09043909
38	0x3d248883	0.04016925
39	0xbd8d4538	-0.06897968
40	0x3ba28aa0	0.004960373
41	0xb93975a1	-0.00017686795
42	0xb77e802f	-1.5169425e-05
43	0x3a801aa7	0.0009773568
44	0x3b4fa74a	0.0031685405
45	0xbe341acd	-0.17588349
46	0xbc909ce2	-0.017652933
47	0xbb112f6a	-0.0022153505
48	0xb80f2ba6	-3.4134508e-05
49	0xb80aabd1	-3.306178e-05
50	0x369401e5	4.4109643e-06
51	0xb8804b1d	-6.1175066e-05
52	0xb6cb416c	-6.0574876e-06
53	0xb88c8ce2	-6.701962e-05
54	0xba949a8c	-0.0011337562
55	0xb8c8a728	-9.5678784e-05
56	0xb7f72778	-2.9463074e-05
57	0xb498c92a	-2.8458572e-07
58	0xbb2dd99f	-0.0026527417
59	0xb9b9cf3c	-0.0003544035
60	0xbaae12e5	-0.0013280777
61	0xb91a258c	-0.00014700572
62	0xbc594767	-0.013261653
63	0xb7c99984	-2.4032553e-05
64	0xb8cfbe63	-9.9059915e-05
65	0x3948b8c2	0.00019142314
66	0xbe125c52	-0.1429303
67	0xbce6641e	-0.028123911
68	0xbe670953	-0.2256215
69	0xbc73ff56	-0.01489242
70	0xb86b43bd	-5.6091452e-05
71	0xbc6272be	-0.013821302
72	0xba72c8ae	-0.0009261471
73	0x3d52feb2	0.051512428
74	0x3d8e31b7	0.06943076
75	0xb69528a5	-4.4452777e-06
76	0x3a3878aa	0.00070370233
77	0xb9de78a1	-0.00042433015
78	0xbc0b08fa	-0.008486027
79	0xb8f9b7e3	-0.00011907497
80	0x3970941d	0.0002294336
81	0x3ce27c59	0.027647184
82	0x3ce33abc	0.027737968
83	0x3bbc4e7a	0.00574666
84	0x37cb3a3f	2.4226609e-05
85	0x367b6cfe	3.7465356e-06
86	0xbe00e93f	-0.12588976
87	0x3d9f817e	0.077883705
88	0x3d5e6cd5	0.05430301
89	0xba128b45	-0.0005590211
90	0xb8b09867	-8.420721e-05
91	0x389291f9	6.989012e-05
92	0x3aff07d0	0.0019457284
93	0xbb3ed19d	-0.0029116638
94	0x394f1705	0.00019749634
95	0xbd31024b	-0.043215077
96	0x3b008909	0.001961293
97	0xb876dc15	-5.8855938e-05
98	0x37fb221f	2.993742e-05
99	0xb793b676	-1.760873e-05
100	0xb6c6f86c	-5.92978e-06
101	0x3a351eee	0.0006909211
102	0x3a5c71e1	0.0008409303
103	0x3a102e0d	0.0005500026
104	0xb788c0cc	-1.6302241e-05
105	0xb8263b96	-3.9632978e-05
106	0xb8afd65c	-8.384578e-05
107	0x36346c68	2.688519e-06
108	0x3a84ff1a	0.0010146827
109	0xbc90feb2	-0.017699573
110	0xba850775	-0.0010149317
111	0xb995c691	-0.00028567438
112	0xb813e381	-3.525941e-05
113	0x3820e3bb	3.8359063e-05
114	0x3a0b2f0b	0.0005309439
115	0x39269318	0.0001588579
116	0x3d21afc1	0.039474253
117	0xbe2eff1f	-0.17089508
118	0xbc349fcf	-0.011024429
119	0x3788a778	1.6290447e-05
120	0x37cda26e	2.4513542e-05
121	0x3c3304bf	0.0109264245
122	0xbe61962f	-0.22029947
123	0x3e2ce6fb	0.16884987
124	0x3dbd741e	0.09250663
125	0x39814b2e	0.0002466081
126	0x3a246714	0.00062714634
127	0x3d258464	0.04040946
128	0xb83f1947	-4.556149e-05
129	0xbe0447a4	-0.12917954
130	0xba08dca9	-0.0005220869
131	0xb81e9d33	-3.781654e-05
132	0xbbc2d517	-0.0059458124
133	0xb7f2eb73	-2.8958288e-05
134	0x39254d33	0.00015764385
135	0xbdeac433	-0.11463203
136	0xbc8fe565	-0.017565439
137	0x3dae2c65	0.08504561
138	0xb9c72747	-0.00037985502
139	0xb81baf7f	-3.7118323e-05
140	0xb92cbf67	-0.00016474501
141	0xbb556994	-0.003256415
142	0x38a4cc03	7.8581295e-05
143	0x39c324aa	0.00037220615
144	0xba89ffa1	-0.0010528454
145	0xbada4e9b	-0.0016655506
146	0xb828195a	-4.007793e-05
147	0xb8166ff3	-3.5867048e-05
148	0x37bcdea0	2.2515014e-05
149	0x36f03f95	7.1599593e-06
150	0xb68c909a	-4.189159e-06
151	0xb8a5de5d	-7.9092315e-05
152	0xb87446cd	-5.824007e-05
153	0xb7b74cf7	-2.185114e-05
154	0x37cdddf3	2.4541258e-05
155	0x36e639aa	6.861247e-06
156	0xb917cf7c	-0.00014477776
157	0x3b3e0fcd	0.0029001117
158	0x3d3738e3	0.044731986
159	0xbbeb3ded	-0.007179013
160	0xb85dd86d	-5.289207e-05
161	0x381343a5	3.511053e-05
162	0xb80081a0	-3.06383e-05
163	0x39d24347	0.00040104447
164	0xbcdcaefd	-0.02693891
165	0x3cea3531	0.028589817
166	0xbe48f3c9	-0.19624247
167	0x3d7fea8f	0.062479552
168	0x38392f4c	4.4151486e-05
169	0x367cbb7e	3.766006e-06
170	0xbe2b054e	-0.16701242
171	0xba9e3b63	-0.0012072142
172	0x3d27cad9	0.040964935
173	0x3a407fb7	0.000734325
174	0x3c55473b	0.013017471
175	0x378c5ce5	1.6732558e-05
176	0x3b5c8fc5	0.003365503
177	0xba37f62c	-0.00070175785
178	0xb8b44641	-8.596155e-05
179	0x3a1c2be5	0.00059574685
180	0x381e529b	3.7747068e-05
181	0xb9c9b239	-0.00038470494
182	0xb8a6a1b6	-7.945618e-05
183	0x38482bac	4.772439e-05
184	0xbca1df90	-0.019759923
185	0xbdba9b5e	-0.09111665
186	0xb91eba8d	-0.0001513755
187	0xbd3e4d40	-0.04646039
188	0x38aba966	8.185468e-05
189	0x37889388	1.6281163e-05
190	0xba3108ec	-0.00067533436
191	0x3ca55f09	0.020186918
192	0xbe580a26	-0.21097621
193	0x3d11941c	0.03554164
194	0xb86f0004	-5.6982055e-05
195	0x38903ac8	6.877404e-05
196	0x3711cf09	8.690878e-06
197	0xb8843cb2	-6.305556e-05
198	0xb81486a7	-3.5411354e-05
199	0xb8bdd454	-9.0517715e-05
200	0xb8ba39bf	-8.879927e-05
201	0xb8c6cb33	-9.4792245e-05
202	0xb8223295	-3.8670918e-05
203	0x387b2799	5.987994e-05
204	0xb80df197	-3.3842018e-05
205	0x39281ae5	0.00016031748
206	0xb693ee96	-4.4087164e-06
207	0x3b01254a	0.0019706064
208	0xbaa1efae	-0.0012354755
209	0x3870b604	5.7389974e-05
210	0x3811a96f	3.472849e-05
211	0x37f90cb6	2.9689032e-05
212	0x38a6f2ae	7.9606994e-05
213	0xbd6cb20f	-0.057786997
214	0xbd87bea2	-0.06628157
215	0xbde1dbd4	-0.11028257
216	0xbd31db66	-0.043422125
217	0x38a54d88	7.8822544e-05
218	0x3ab8f473	0.0014110937
219	0xbbb541bc	-0.005531518
220	0x3e670254	0.22559482
221	0x3d9f5917	0.077806644
222	0xbbb3871b	-0.0054787523
223	0xbb9a6784	-0.004712047
224	0x39d314c6	0.00040260534
225	0x3b2fc998	0.002682304
226	0x39b69dfb	0.0003483145
227	0xb91ef5f5	-0.0001515968
228	0xb9898dc1	-0.0002623629
229	0x39287b53	0.0001606767
230	0xb8f6e74c	-0.000117732765
231	0x38eff537	0.00011442083
232	0xb7f78edc	-2.9511219e-05
233	0x3bbdbd7e	0.0057904115
234	0xb9663e38	-0.00021957688
235	0x3dd56c18	0.10421008
236	0xba6e26e5	-0.0009084775
237	0xb9166261	-0.00014341764
238	0x36aa60a4	5.0776453e-06
239	0xba179201	-0.0005781949
240	0xb9c4bd54	-0.00037525094
241	0x3af9de67	0.0019063473
242	0xbcb21efa	-0.021743286
243	0x39328451	0.00017024695
244	0xb996a870	-0.00028735725
245	0x359e450d	1.1792014e-06
246	0x381ce197	3.7403395e-05
247	0x37a2eac7	1.9421232e-05
248	0x387710c9	5.890502e-05
249	0x3988a84d	0.00026065335
250	0x3b46b1d8	0.0030318405
251	0x38e1c217	0.00010764988
252	0xb6a076d3	-4.7822045e-06
253	0xb56a6ea4	-8.7332796e-07
254	0xba4f7a25	-0.00079146243
255	0x3a13b051	0.0005633878

3.bias f4 [50]
0	0x3e895647	0.26823637
1	0x3cf72f16	0.03017382
2	0xbc99fccc	-0.0187973
3	0x3eaea304	0.34108746
4	0xbe8922d0	-0.26784372
5	0x3dac77cd	0.08421288
6	0xbe26fec7	-0.16308127
7	0x3caac5f3	0.020846343
8	0x3e95767b	0.29191956
9	0x3c670ef9	0.014102691
10	0xbd90e199	-0.07074279
11	0x3dadf0dc	0.08493206
12	0x3da64813	0.08119216
13	0x3b612611	0.0034354965
14	0x3c9e7685	0.019343624
15	0x3d7761f1	0.06039614
16	0x3ea1bac4	0.31587803
17	0xbd2a9ce6	-0.041653536
18	0x3d165a5f	0.03670728
19	0xbe1df40f	-0.15425132
20	0xbe511028	-0.2041632
21	0x3dd8476d	0.105604984
22	0x3e83f6a4	0.2577411
23	0x3df8dfca	0.121520594
24	0xbcba7178	-0.022759184
25	0xbe2ccd20	-0.16875124
26	0x3aeae2bb	0.0017920354
27	0x3c9dfbbe	0.01928508
28	0x3e8c34ad	0.27383938
29	0x3d288481	0.04114199
30	0xbbdce047	-0.006740603
31	0xbd30a22d	-0.043123413
32	0xbdabe33f	-0.08392953
33	0x3e9e8131	0.3095794
34	0xbe22f00a	-0.1591188
35	0x3e76e50b	0.2411081
36	0xbde438d7	-0.11143654
37	0xbd1fd8ac	-0.039024994
38	0xbe058ab7	-0.13041197
39	0x3e06f388	0.13178837
40	0x3cdcdc61	0.026960554
41	0x3e2ea484	0.17054945
42	0x3e8afadb	0.27144513
43	0x3eb5b7d5	0.35491815
44	0x3d5aec6f	0.053448137
45	0x3d200593	0.039067816
46	0x3e1218dd	0.14267297
47	0x39cd2f05	0.0003913568
48	0x3dad8ad2	0.084737435
49	0x3d818f17	0.0632612

4.weight f4 [10, 50]
0	0x3e871d5b	0.26389584
1	0x3ea3ad50	0.31968164
2	0x3d03203f	0.032013174
3	0x3c98a7a6	0.018634629
4	0xbbb7f0b1	-0.0056134094
5	0x3e7813f5	0.24226363
6	0x3b4e56f5	0.0031484936
7	0xbe3b380f	-0.18283103
8	0xb812969d	-3.4949382e-05
9	0x3d6282c1	0.055300478
10	0xbd7c5af2	-0.06161017
11	0xbea0f1f6	-0.31434602
12	0x3e6719c4	0.22568423
13	0xb8a78eb2	-7.9897596e-05
14	0x3e095b76	0.13413796
15	0xbe58e810	-0.21182275
16	0x3e13ab2b	0.14420764
17	0x3dee7988	0.11644274
18	0xbd518e45	-0.05116107
19	0xbda9bcfe	-0.082880005
20	0xb918815f	-0.00014544044
21	0x3dba98b9	0.09111161
22	0x3e3ce846	0.1844798
23	0x3c210f3d	0.009830293
24	0xbcb192b0	-0.021676391
25	0xbb1b752c	-0.0023720963
26	0xbe0af5e9	-0.1357037
27	0xbcd66138	-0.026169404
28	0xbe165e5e	-0.14684436
29	0x3e31d431	0.17366101
30	0xbca297e7	-0.019847823
31	0x3e457180	0.19281578
32	0x3ded8014	0.115966946
33	0x3b595bc7	0.0033166276
34	0xbc131e3d	-0.008979377
35	0xbd6e69d3	-0.05820639
36	0x3e2076e1	0.15670349
37	0x3e9ca337	0.30593273
38	0x3b012e2b	0.0019711356
39	0x3e3e508d	0.18585415
40	0xbdd33b84	-0.10314086
41	0xbdfce68f	-0.12348663
42	0xbe07daf0	-0.13267112
43	0x3e7eeb1e	0.24894378
44	0xbea12aa9	-0.3147786
45	0xbe9597f5	-0.29217497
46	0xbdab6c32	-0.08370246
47	0xb645cc2b	-2.947413e-06
48	0xbbb90abf	-0.005647033
49	0x3e90c628	0.2827618
50	0xbda09988	-0.07841784
51	0xbe397d3f	-0.18114184
52	0xbe5bf493	-0.21480016
53	0x3d1783d1	0.036990944
54	0x3e946763	0.28985128
55	0xbdb7fad1	-0.08983386
56	0xbe3cb668	-0.18428957
57	0x3c66dba5	0.014090453
58	0xbe647ac3	-0.22312455
59	0xbdca38fa	-0.09874149
60	0x3bf9b503	0.007620455
61	0xba4e429c	-0.0007868202
62	0x3d9b27f3	0.07575979
63	0xbda433fc	-0.08017728
64	0xbd075d79	-0.033048127
65	0x3db2c7cd	0.08729515
66	0xbe86b381	-0.26308826
67	0x3e519243	0.2046595
68	0x3dcb132a	0.09915765
69	0xba9bdff7	-0.0011892308
70	0xbb0cc4d8	-0.0021479633
71	0xbc0c4e3c	-0.008563574
72	0xbe70d709	-0.2351953
73	0xbd34836e	-0.044070654
74	0x3dee34dc	0.11631176
75	0x3e1c2a7f	0.15250586
76	0x3db3f62b	0.08787187
77	0x3c815339	0.015786754
78	0xb9622b15	-0.00021569089
79	0xbe4fe9db	-0.20304053
80	0xba2bf1a2	-0.00065591384
81	0x3e58fc22	0.21189931
82	0xbd170bce	-0.036876492
83	0xbe17f7ac	-0.14840573
84	0x3d2811fc	0.041032776
85	0xbe1f68cb	-0.15567319
86	0xbe62a026	-0.22131404
87	0xbdea5eb4	-0.114438444
88	0x3e6ec36c	0.23316735
89	0x3aec4b68	0.0018027844
90	0xbc9a3b3e	-0.018827077
91	0xbe58728e	-0.21137449
92	0x3e2bbc62	0.16771081
93	0xbd986ec9	-0.074430056
94	0x3e3316ec	0.17489213
95	0x3e28cb97	0.16483913
96	0xbe879d0f	-0.26487014
97	0x37176f44	9.026207e-06
98	0xb956afd7	-0.00020474136
99	0x3e5a57b4	0.21322519
100	0x3cce49ef	0.025181739
101	0x3b772cd2	0.0037715924
102	0x3dce08ab	0.10060247
103	0xbaf75b19	-0.0018871754
104	0x3e14b198	0.14520872
105	0xbe37d195	-0.17951043
106	0x3d701711	0.058615748
107	0xbcd66d88	-0.026175275
108	0xbcaf2b16	-0.02138285
109	0x3df058ee	0.11735712
110	0xbe08e59c	-0.13368839
111	0x3d861b41	0.06548167
112	0xbdcd7469	-0.10031969
113	0xbd3347b8	-0.04376957
114	0x3dad9019	0.0847475
115	0xbdc23559	-0.094828315
116	0x3d63c772	0.055610128
117	0x3e5dd28a	0.21662346
118	0x3d2a4e33	0.041578483
119	0xbde311a4	-0.11087349
120	0xba80424d	-0.0009785384
121	0x3e24c08e	0.16089079
122	0x3cab5ee1	0.020919265
123	0x3d337c53	0.043819737
124	0x3dac7d66	0.08422355
125	0x3dfe215b	0.12408706
126	0xbe0646e6	-0.13112983
127	0xbc17d4e3	-0.009267065
128	0x3c227cf7	0.009917489
129	0xbdf2b34e	-0.11850606
130	0xbe61b70a	-0.2204248
131	0xbdde1c48	-0.10845238
132	0x3e2183e8	0.15772974
133	0x3e10b586	0.14131746
134	0xbd6a8206	-0.057252906
135	0x3df20185	0.11816696
136	0x3ac1b6b5	0.0014779182
137	0xba057c5c	-0.00050920784
138	0x3e618192	0.22022083
139	0xb9098476	-0.00013114684
140	0xbe1a1fca	-0.15051189
141	0x3e6e9142	0.23297599
142	0xbb186519	-0.0023253618
143	0x3db9f275	0.09079448
144	0x3e0294dd	0.127521
145	0x3b7a49ab	0.0038190882
146	0x3dd15569	0.10221369
147	0xb790725d	-1.7219392e-05
148	0xbd06d748	-0.032920152
149	0xbdd42e66	-0.10360412
150	0xbdaa30bf	-0.08310079
151	0xbaa00bf9	-0.0012210599
152	0xbde057d9	-0.109542556
153	0xba61b633	-0.00086102186
154	0xbe2dbf59	-0.16967525
155	0x3d09df6a	0.03366033
156	0xbddd2230	-0.107975364
157	0x3da1b5f6	0.078960344
158	0x3dee3ac9	0.11632306
159	0xbe69155a	-0.22762051
160	0x3d36a2fd	0.04458903
161	0x3badccdd	0.0053039626
162	0x3cc8ba9c	0.024503045
163	0x3cbb2e93	0.022849357
164	0x3c843846	0.016140115
165	0x3d928ace	0.07155381
166	0xbe5ee994	-0.2176879
167	0xbd0744bc	-0.033024535
168	0xbd2a079e	-0.04151117
169	0x3d3d16d8	0.046164364
170	0xbb95d504	-0.0045725126
171	0x3e596f13	0.21233778
172	0x3e089635	0.1333855
173	0xbcdbd1bd	-0.02683341
174	0xbd0244a0	-0.031803727
175	0x3c35ab06	0.011088138
176	0xbd74f3da	-0.059802867
177	0xbba0a827	-0.004902858
178	0xbdb00421	-0.085945375
179	0x3ddd3401	0.108009346
180	0x3e376f68	0.17913592
181	0x3d65529c	0.055986986
182	0x3e4e364f	0.20137905
183	0xbe810716	-0.2520072
184	0x3c5f8da4	0.01364461
185	0x3e2bf0cf	0.1679108
186	0x3d37658d	0.04477458
187	0xbd5904b5	-0.052983005
188	0x3dd66d4f	0.10470068
189	0xbbfb7342	-0.007673652
190	0xbe3a046f	-0.18165754
191	0x3dd82615	0.105541386
192	0xb9f328d0	-0.0004637898
193	0x3df50996	0.11964719
194	0x3b4982ae	0.0030748057
195	0x3e2500a8	0.16113532
196	0x3d6a13f7	0.057147946
197	0x371bb718	9.28135e-06
198	0x3d8998bd	0.06718586
199	0x3bfb5cef	0.0076709907
200	0xbc3b31f8	-0.011425488
201	0x3e160827	0.14651547
202	0xbe4e48f2	-0.20145014
203	0xbd93e830	-0.072220206
204	0x3e44984b	0.1919872
205	0xbb39940f	-0.002831701
206	0x3ae531f8	0.0017486205
207	0x3dabbd2d	0.08385692
208	0x3da49974	0.08037081
209	0xbe015c7c	-0.12632936
210	0x3dfff461	0.124977835
211	0x3e343390	0.17597795
212	0xbcd5c59c	-0.026095204
213	0x3d4fc269	0.050722513
214	0x3dd2d149	0.10293824
215	0x3e7af60f	0.24507926
216	0x3e17f5be	0.14839837
217	0xbe26f4a1	-0.16304256
218	0xbe790301	-0.24317552
219	0x3e3a6517	0.18202625
220	0xbcfd54d6	-0.030924242
221	0xbde817e2	-0.1133268
222	0x3cad399d	0.021145636
223	0xb8bf0ce1	-9.1099886e-05
224	0xba06fdc8	-0.00051495107
225	0xbc343c20	-0.011000663
226	0x3d629940	0.05532193
227	0xbc7e286f	-0.01551257
228	0x3e01d4b6	0.12678799
229	0xba6ecaa3	-0.0009109175
230	0xbde96b46	-0.11397414
231	0x3a39f2b1	0.0007093354
232	0xbde103e4	-0.1098707
233	0x3dbbe6a4	0.091748506
234	0xbda3726c	-0.079808086
235	0x3dc9da24	0.0985606
236	0xb9310398	-0.00016881374
237	0x3e0cd548	0.13753235
238	0xbe72b105	-0.2370034
239	0xbde18faf	-0.110137336
240	0x3e250cd4	0.16118175
241	0xbe23dfb6	-0.16003308
242	0x3dbc5f9a	0.09197922
243	0x3d9ba916	0.0760061
244	0x39f44c00	0.0004659593
245	0xbdd6a3b9	-0.10480446
246	0x3e2036d2	0.15645912
247	0x370dcb53	8.451595e-06
248	0x3d512944	0.051064745
249	0xbe0f1dae	-0.13976166
250	0x3e20cf0c	0.15703982
251	0xbd7e8cb7	-0.062145915
252	0xbd0ffb72	-0.035151906
253	0x3e1f4db2	0.15556982
254	0xbe67dc2d	-0.22642584
255	0x3e0f75e3	0.14009814

4.bias f4 [10]
0	0xbc54381a	-0.012952829
1	0xbe721293	-0.23639898
2	0x3da5ccf0	0.08095729
3	0x3d3db7f0	0.046317995
4	0xbbe860ba	-0.007091609
5	0x3eeb72aa	0.4598592
6	0xbd8382b4	-0.06421414
7	0xbd3a8792	-0.045539446
8	0xbe11c8a1	-0.1423669
9	0xbd1a9d33	-0.037747573
