models/mnist_fc_3.pt (torch, 360655 bytes, 6 tensors)

1.weight f4 [100, 784]
000000 5f c1 78 b8 14 38 93 37 48 ee ab b8 2c 40 4f b8
       -5.93079e-05 1.7549879e-05 -8.198299e-05 -4.941241e-05
000010 4d e3 36 b8 9a fd 15 b9 95 67 13 b9 7b 97 93 b8
       -4.360387e-05 -0.00014304221 -0.000140576 -7.037722e-05
000020 fb b6 db b8 ea 83 3b b8 6e a9 f5 b7 d1 9f 17 b8
       -0.000104768165 -4.470713e-05 -2.9285173e-05 -3.6150046e-05
000030 1d da 0c b8 5d a1 80 b8 cd 04 45 38 b7 c4 fb b8
       -3.3581735e-05 -6.133572e-05 4.697293e-05 -0.00012005254
000040 45 99 37 b8 a4 1c be 38 cc ac 87 b8 d4 38 c7 b5
       -4.3773343e-05 9.065241e-05 -6.4694876e-05 -1.4843195e-06
000050 f2 d2 fc b8 31 a8 90 b8 47 aa b2 b8 fc 5a e3 b6
       -0.00012055588 -6.897783e-05 -8.519418e-05 -6.775719e-06
000060 97 98 be 35 09 8e ff b8 30 bd e0 b8 19 29 aa b8
       1.4200513e-06 -0.00012185804 -0.00010716391 -8.113887e-05
000070 4a 81 e6 38 62 bc 50 b8 f9 15 96 b8 1e 46 ea b7
       0.000109913366 -4.976651e-05 -7.15665e-05 -2.7927625e-05
000080 22 33 77 b8 77 da f5 b8 ce 00 89 b8 94 49 f8 b8
       -5.893701e-05 -0.000117232026 -6.532819e-05 -0.000118392665
000090 67 70 ec b8 df 8d d5 b8 a7 9f 0b b8 f1 11 91 b8
       -0.000112742935 -0.00010183057 -3.328887e-05 -6.917481e-05
0000a0 37 8d 6d b8 49 79 cb b8 70 04 64 b8 2e 55 1d b8
       -5.663672e-05 -9.7023854e-05 -5.436357e-05 -3.7511047e-05
0000b0 c5 8b 0c b9 42 0d b6 b8 3c 96 19 b9 55 f4 ca b8
       -0.00013403509 -8.680906e-05 -0.00014647184 -9.677621e-05
0000c0 94 f8 6d b8 72 cf 00 b9 1e e8 8d 38 52 d1 80 b8
       -5.673671e-05 -0.0001228431 6.766639e-05 -6.1425046e-05
0000d0 00 45 d4 b8 73 28 7e 37 ad c3 16 b9 67 b0 b2 b7
       -0.000101218 1.5148998e-05 -0.0001437801 -2.1301397e-05
0000e0 99 9c 20 b9 bc f8 02 b9 db 23 9d b8 45 bd 53 b6
       -0.00015317126 -0.00012490427 -7.493022e-05 -3.155162e-06
0000f0 d5 81 07 b9 fe 2f d5 b8 f6 8d e3 b5 3b 0d ac b8
       -0.0001292297 -0.00010165571 -1.6954134e-06 -8.2040635e-05
000100 91 18 80 b9 9e 9d 88 b9 31 fb 00 ba 09 ad 74 b9
       -0.00024432366 -0.00026057375 -0.0004920243 -0.00023334114
000110 70 d8 11 b9 74 2a 17 ba e4 69 fb b9 d4 14 a0 b9
       -0.00013908907 -0.0005766519 -0.00047953345 -0.00030533096
000120 c6 1d 2f 3a d6 5d 4e 3a 80 8f 1f b8 fd 94 f8 b8
       0.0006680157 0.0007872259 -3.80422e-05 -0.00011853313
000130 ca a5 9a b9 fd b6 7a b9 5e 1f b0 38 36 ba 9d b7
       -0.0002949669 -0.00023910026 8.3981766e-05 -1.880257e-05
000140 c9 72 93 b7 0b a7 d7 b8 1c 9f 66 b8 5c ba d8 36
       -1.7577217e-05 -0.00010283113 -5.4984455e-05 6.4589967e-06
000150 08 45 24 b8 21 33 0e b8 57 af 6e b8 d3 63 12 b9
       -3.9164937e-05 -3.3903056e-05 -5.690692e-05 -0.00013960832
000160 b8 4c 23 b8 f4 a1 af b8 6c 5b 45 36 52 54 d9 37
       -3.893368e-05 -8.3748164e-05 2.9408502e-06 2.590768e-05
000170 1e 4c 81 b7 8a 1f ec 38 c0 51 c2 b9 70 05 d6 bb
       -1.5413443e-05 0.000112592315 -0.00037063472 -0.00653141
000180 2c 74 2a bd ad 70 6b bd 09 5c 78 bd 69 ed 9e bd
       -0.041614696 -0.057480503 -0.060634647 -0.07760126
000190 22 63 ae bc 28 ab fc 3c c9 79 e9 3c fd 74 ea b8
       -0.021287505 0.030843332 0.028500455 -0.0001117978
0001a0 fb ed eb 37 2c 15 46 ba e9 f0 c7 b9 e6 ca 0b b9
       2.8125001e-05 -0.00075562554 -0.0003813573 -0.00013331659
0001b0 0e a0 0d b9 db 95 59 b9 f2 7d c5 35 21 b0 3c b8
       -0.00013506433 -0.00020750558 1.4714299e-06 -4.4986726e-05
0001c0 b6 ab 38 b9 c3 bd 86 38 be c9 07 b9 6f 26 a3 b7
       -0.00017611575 6.424964e-05 -0.00012949758 -1.9449011e-05
0001d0 db 2e 9d b7 9f 66 56 b7 b8 50 1a b9 90 1f e9 b9
       -1.8737677e-05 -1.2779287e-05 -0.00014716655 -0.0004446474
0001e0 d0 ea c1 b9 76 82 a2 b9 7d f8 e9 bc d0 15 be bd
       -0.00036986778 -0.0003099625 -0.028560871 -0.09281504
0001f0 d5 d9 eb bd 73 48 8b bd 20 e0 bc bd 15 3c a0 bd
       -0.115161575 -0.06800928 -0.09222436 -0.0782396
000200 f7 68 7c 39 45 8a d9 3d 79 d3 90 3d e1 bb 77 3b
       0.00024071695 0.10622076 0.07071585 0.0037801194
000210 a7 50 57 bc 79 4b 20 bd 4b 7e d2 bb 46 fc 7e ba
       -0.013141788 -0.039134476 -0.0064237467 -0.0009726923
000220 81 65 64 ba 97 50 a2 b9 48 9a 3b b6 ba a6 b4 b8
       -0.0008712635 -0.00030959092 -2.7954975e-06 -8.614124e-05
000230 29 f4 95 b8 b4 09 ae b7 4c 82 44 b8 23 bf 2f b9
       -7.150352e-05 -2.0746935e-05 -4.685139e-05 -0.00016760505
000240 90 29 77 38 3c 2b d8 39 dd 7c 84 39 ec 02 0d 3b
       5.8928097e-05 0.00041230943 0.00025270032 0.0021516634
000250 56 9c 79 3d d5 dd 1d 3d 61 99 4b bd 6c ba 06 bd
       0.06094011 0.038541634 -0.04970682 -0.03289263
000260 e0 c8 d6 bc 79 0f 19 3d df 93 14 bd e0 54 b8 bd
       -0.026218832 0.03736827 -0.036273833 -0.090005636
000270 46 18 e2 b9 5f 6f 59 3b c3 08 67 3e e3 65 3f 3e
       -0.00043124164 0.0033177955 0.22561936 0.1869121
000280 d1 33 c0 3b 88 98 21 bc 40 0d db bc 62 58 e1 bc
       0.005865552 -0.009863026 -0.026739717 -0.027507965
000290 7b 80 74 ba 9f f6 0e ba e4 38 db b9 a1 65 0c b9
       -0.00093270064 -0.00054536195 -0.00041813322 -0.000133893
0002a0 a5 55 11 38 eb e7 c5 b7 54 9a 07 b8 2b cd ee b8
       3.4650457e-05 -2.3592225e-05 -3.2330237e-05 -0.0001138694
0002b0 ef 3b 33 39 04 fe b7 39 c7 22 76 3b b6 2a 9a 3b
       0.00017093097 0.00035093736 0.003755735 0.0047047986
0002c0 09 c1 3f 3b 1b 36 4b bd 42 af 13 bd 88 f5 40 bc
       0.0029259345 -0.049612146 -0.03605581 -0.011777289
0002d0 08 f7 d3 bc cf 30 2c bd 64 36 92 bd 67 91 72 bd
       -0.02587463 -0.042038735 -0.071392804 -0.059220698
0002e0 ed 3e 09 bd 00 6a 89 bb 40 3c 8f 3c 1c 0c 1b bb
       -0.033507276 -0.0041935444 0.017484784 -0.002365834
0002f0 46 38 b8 3b c1 f3 84 bd 6a 79 8f bc 00 0a 72 3b
       0.0056219427 -0.06491805 -0.01751395 0.003693223
000300 97 ef 24 ba be c9 43 b9 08 52 88 38 c5 b5 ab 37
       -0.0006291805 -0.00018671804 6.500265e-05 2.0469432e-05
000310 7f 11 4a 37 14 70 6b b8 d2 e2 c7 b6 7d 63 dc b8
       1.2044212e-05 -5.6132747e-05 -5.9570675e-06 -0.000105089486
000320 29 bb f8 39 78 fa a6 3c bd 46 ac 3d e0 7c 1e 3c
       0.0004744169 0.020383105 0.0841193 0.009673327
000330 c1 01 9f bd e8 42 cb bd 66 e2 9d bd 4b c2 93 3c
       -0.077640064 -0.09924871 -0.07709198 0.018036982
000340 4f 53 2e 3d f9 29 fc 3c d1 bf 45 bd f3 7d 10 be
       0.042559918 0.030781733 -0.048278634 -0.14110546
000350 45 12 99 bd bb d9 84 3d c0 18 04 3e 49 1c 81 3d
       -0.07474188 0.06486841 0.12900066 0.06304223
000360 bf 71 e4 3c a9 b2 5e 3d 6e 62 1f 3d 9e f2 51 3d
       0.02788627 0.054369602 0.03891223 0.05125677
000370 53 41 05 3a 49 3f eb 38 56 1a f4 b7 f1 73 a1 b8
       0.00050832814 0.00011217461 -2.909933e-05 -7.698674e-05
000380 dd b0 ef b8 da 5a b6 b8 27 af f9 b7 04 d8 f0 b8
       -0.000114293514 -8.695359e-05 -2.9764675e-05 -0.00011484328
000390 f1 64 bf 3a 24 d4 09 3d 86 3c 76 ba 6e c6 9f bd
       0.0014602226 0.03364958 -0.0009393174 -0.07801519
0003a0 2a 70 0b be 20 ef 19 be 6d e8 04 bd 21 29 02 3d
       -0.13617006 -0.15032625 -0.03244822 0.031777505
0003b0 68 23 1a 3e 52 45 a8 3d 91 5b 2e bd 5e 19 f5 bd
       0.15052569 0.08216347 -0.042567793 -0.11967729
0003c0 b0 30 99 bd db 48 58 3d 83 0f 05 3e 55 11 2c 3c
       -0.074799895 0.052803855 0.12994199 0.010502179
0003d0 f4 7b 02 3c 35 63 62 3c 1e 25 4e 3d f3 c2 59 3d
       0.007964123 0.013817598 0.050328366 0.053164434
0003e0 e3 3f 07 3c 93 17 17 39 e0 45 d8 b7 3f 98 d6 b8
       0.008254978 0.00014409264 -2.5781745e-05 -0.00010232673
0003f0 66 85 ea b8 e5 f6 81 b7 cc 09 ca b7 c8 47 07 39
       -0.00011182837 -1.5492968e-05 -2.4084839e-05 0.00012901344

1.bias f4 [100]
000000 89 07 60 3d 78 f7 c4 bd 20 9b 8d 3d 58 64 00 3e
       0.054694686 -0.096175134 0.06914353 0.12538278
000010 94 bf 9c bd fe aa a1 3e 2e 2a d1 3d 0a c3 ae 3d
       -0.07653728 0.3157577 0.10213123 0.085332945
000020 a8 fe 2f bd b9 cc aa bd ea a5 f2 3d a5 02 38 bd
       -0.04296747 -0.08339829 0.11848052 -0.044924397
000030 f7 37 b4 3c bc 34 14 3e 89 3c 36 3e 23 0a 2f 3d
       0.021999342 0.14473242 0.1779653 0.042734277
000040 11 09 44 be e2 fd 99 3d 43 a8 42 be 69 f5 b3 3c
       -0.19144084 0.075191274 -0.19009499 0.021967607
000050 eb a0 4d 3d 7e cf 1d be 2f 87 0b 3e 68 46 1a be
       0.05020229 -0.15411183 0.13625787 -0.1506592
000060 95 77 dd 3d 9b 6d 27 be 5e 9a 19 3e e7 96 d8 3d
       0.10813824 -0.16350405 0.15000293 0.10575657
000070 0e 73 c0 bc fe dc f5 bd 0d 64 72 bc d4 13 f2 3d
       -0.023492362 -0.120050415 -0.014794362 0.11820188
000080 17 7c 1c be 61 b6 65 be ca 15 0c be d9 7e a7 3d
       -0.15281712 -0.22432853 -0.13680187 0.08178491
000090 d9 b5 b7 3e 12 a8 df 3d e1 59 85 bd e6 76 4d 3e
       0.35880926 0.10920729 -0.06511284 0.20064887
0000a0 a6 3c 1f 3e ee da d3 bc 12 84 56 bd c7 a3 22 3d
       0.1555048 -0.02586123 -0.052372046 0.03970697
0000b0 5a 07 55 bd b1 da 81 3b 67 b3 e7 3c d8 e2 c7 3e
       -0.052008964 0.0039628376 0.028283788 0.39040256
0000c0 5f 15 36 be ba a5 40 3e 37 a4 fc 3d d1 51 61 3e
       -0.1778159 0.1881322 0.12336009 0.22003867
0000d0 ad c4 7a 3e b1 55 01 3d f2 ac 2d 3d 9d 8e 32 be
       0.24489088 0.031575862 0.04240126 -0.17437215
0000e0 95 00 86 3e 49 bd d9 bc 1b 6d 93 3e 31 58 c3 3d
       0.2617232 -0.026579516 0.28794178 0.095383056
0000f0 3e 9e 49 3e 34 b8 7c 3c 90 fc 6d 3d 50 02 77 3d
       0.19689271 0.015424777 0.05810219 0.06030494
000100 cb a4 31 bd 0b b9 0f 3e 83 5e 42 3e 34 dc 4b 3e
       -0.04337005 0.14035432 0.18981366 0.1990822
000110 bc 0d 04 be 2b b5 f2 3d 81 b5 b5 3d 75 80 a7 3e
       -0.12895864 0.11850961 0.0887251 0.32715192
000120 44 f1 b0 bd 54 a8 0d bc 9a 01 ca 3e 01 1c 03 be
       -0.08639768 -0.00864609 0.39454347 -0.12803651
000130 b1 2e 26 3e 15 8c 59 be 6b 1c 14 3e 08 0d 86 3d
       0.16228749 -0.21244843 0.14463966 0.06545454
000140 1a 7e cc 3d e0 4c 6e bd 7d f3 f8 3d 7c a3 45 be
       0.099849895 -0.058178782 0.12155817 -0.19300646
000150 c6 e2 ee 3e 7f 01 ed bd 41 17 a6 bc 80 29 c4 3e
       0.4665739 -0.11572551 -0.02027476 0.38312912
000160 83 89 0a 3b 4d 86 9b 3d 09 16 64 3e dd 47 76 3d
       0.0021139092 0.07593975 0.2227403 0.060127128
000170 5e cb 95 3d 20 89 2f 3d 90 dd fb 3d c4 57 b0 3e
       0.0731418 0.042855382 0.12298119 0.3444196
000180 6b e1 0f bc 2a f9 27 3d 07 0a 01 3e cf 65 cf 3d
       -0.008781771 0.041009106 0.12601481 0.1012684

3.weight f4 [100, 100]
000000 03 cc 52 be df 9f e6 bd 2a 2f b6 bd 2a 37 3d bd
       -0.20585637 -0.11260962 -0.088957146 -0.046195187
000010 cf 52 4c 3e 8f 6f b6 3d 31 9e 07 3e 26 26 e1 bd
       0.19953464 0.08907997 0.13243939 -0.10993604
000020 fe e7 36 3e b2 0c 05 be 64 ce 2b 3e 8b f4 94 3c
       0.17861935 -0.12993124 0.1677795 0.018183013
000030 30 16 ba 3d 7e 60 71 3d 7e 16 bb 3d 8d 3e 30 be
       0.09086263 0.058929913 0.091351494 -0.17211361
000040 9b ee 99 be e1 ed 37 3d e4 1e 1a be b6 4e 19 be
       -0.30064854 0.044904593 -0.15050846 -0.14971432
000050 5c 24 b1 3d c1 7e 23 3d 00 f5 ea 3d ec 4c f5 bb
       0.08649513 0.039915804 0.11472511 -0.0074859764
000060 cf 51 a9 bc 3d 23 9b 3d 2e f2 2b 3e 15 92 9d 3d
       -0.020668892 0.075750805 0.16791603 0.076938786
000070 4c c6 b3 3d 12 67 b5 3d 8d b2 15 be 7e 10 0c bc
       0.087780565 0.0885755 -0.14618893 -0.008548854
000080 53 cb 91 bd fc 98 be 3c 7d e1 ae 3d f6 f6 fd 3d
       -0.07118859 0.023266308 0.08539102 0.1240062
000090 f3 27 33 3e 24 2d 82 3d fe 4e b7 3d b5 d3 39 be
       0.17495708 0.06356266 0.089506134 -0.18147166
0000a0 81 8e 5f 3e d8 86 ac be 19 e8 84 bd a6 01 9a 3d
       0.21831705 -0.33696628 -0.064895816 0.07519846
0000b0 6a cd 19 be 79 86 a3 3d 7a 77 ae 3d 91 2e 7a be
       -0.15019765 0.07984633 0.08518882 -0.24431826
0000c0 2e d6 85 bd aa 35 33 be ef 35 53 be 10 96 cc 3c
       -0.06534992 -0.1750094 -0.20626043 0.0249739
0000d0 ac 76 be 3b 32 5c 84 be fd 47 13 3e 00 40 97 3b
       0.0058124866 -0.2585159 0.1438293 0.0046157837
0000e0 65 7d 0e be 4e 60 33 3e 26 4a 36 3e 6f b7 76 3d
       -0.13915022 0.17517206 0.17801723 0.06023353
0000f0 5d 02 4b be b2 ac 55 be 8a 32 3d bd a5 53 5c be
       -0.1982512 -0.2086666 -0.046190776 -0.21516283
000100 67 09 0d be 0c 02 f8 3e 5d d9 2f 3e a2 5c 2e bd
       -0.13773118 0.48439062 0.17172761 -0.04256881
000110 3b 82 03 bd 50 e0 33 bd ab cd 88 3c a1 27 96 3e
       -0.03210662 -0.043915093 0.016699633 0.2932711
000120 84 5c 39 3c e6 d8 7e 3e bb d5 08 3d fd d1 3a 3e
       0.011313561 0.24887428 0.033406954 0.18244167
000130 96 da d2 3d c0 57 38 3e 7a 60 0f ba 86 71 44 be
       0.10295598 0.18002224 -0.0005469393 -0.19183931
000140 21 96 0d be c4 4a 78 be 19 11 c7 3e 46 5e 9c be
       -0.13826801 -0.24247271 0.38880232 -0.30540675
000150 7d 60 8c 3e ae 57 7b be ff 96 8d bd 1b ad 44 3c
       0.27417365 -0.24545166 -0.06913566 0.012004162
000160 93 22 c9 bc c5 1a 55 3d f1 9f ca 3c c2 eb c3 bd
       -0.02455262 0.052027483 0.02473447 -0.095664516
000170 ff a9 b7 be db cc 8b 3e 60 3f 18 3d f8 05 9d be
       -0.35871884 0.2730473 0.037169814 -0.30668616
000180 e6 f3 3a 3d 73 5c 70 3d af 9e d7 3d 88 24 8f 3d
       0.045642756 0.058681916 0.10528313 0.0698939
000190 a9 50 c2 37 90 80 e3 bd 1f a3 e2 3d 60 2d e4 3d
       2.3164162e-05 -0.11108506 0.11066269 0.11141467
0001a0 96 50 eb 3c 05 d0 1c be 89 ef 7d bc 06 ad 88 3d
       0.02872495 -0.15313728 -0.015499004 0.066736266
0001b0 8d 3c 27 be e5 9d cb bd cb b4 e4 3d 5c b2 9c be
       -0.16331692 -0.09942225 0.11167296 -0.30604827
0001c0 be a9 ba 3e 8a 7f 20 bd f4 e4 1e 3b 90 ae ba be
       0.36457628 -0.03918413 0.0024245353 -0.36461306
0001d0 4b 51 8e be e0 b3 7e 3e e5 c5 ab 3d aa d0 39 3e
       -0.27796397 0.24873304 0.08387355 0.18146005
0001e0 10 ed 22 3e 02 91 2a be ac 7b 8f b9 f8 14 41 be
       0.15910745 -0.16656879 -0.00027367228 -0.18855655
0001f0 a1 e6 b6 bd 65 c0 94 bd c8 1b dc 3d e3 9e 14 be
       -0.08930708 -0.07263259 0.10747486 -0.14513735
000200 2e 39 58 3d f2 bb eb bd 46 e6 a4 be f7 20 20 3d
       0.052788906 -0.11510457 -0.32206935 0.039093938
000210 b5 eb ba 3e 9d 52 b6 bc 5f f6 f7 3d 8a 32 7e 3e
       0.36507955 -0.02225619 0.121075384 0.24823967
000220 0b f2 2e 3e 19 24 06 bc ea 19 18 3e 5e 52 27 be
       0.1708452 -0.008187317 0.14853635 -0.16340014
000230 98 a4 fb bd 91 13 02 3e f5 39 8a be a8 cd 36 3e
       -0.12287253 0.12702776 -0.26997343 0.17851889
000240 3f 4a 16 3b 5c f1 81 be e6 54 eb bc f1 2b 6e bd
       0.0022932438 -0.25379455 -0.028727006 -0.058147375
000250 9d fa 8f 3d bb 85 52 bd e4 de 4d 3e a5 76 c3 3d
       0.070302226 -0.051397067 0.20104557 0.09544114
000260 7a be 86 3e b0 5b b4 3e 6a fd 88 bd 7e 95 12 be
       0.26317197 0.35226202 -0.0668896 -0.14314839
000270 10 b9 97 3c 5e ea 6b 3e c4 03 a6 b7 bc 46 ec 3d
       0.018520862 0.23038623 -1.9790496e-05 0.11536929
000280 54 b4 46 3d f1 49 1b be a9 b1 82 3d 96 36 27 3e
       0.048511818 -0.15164925 0.06381542 0.16329417
000290 86 eb 67 be 8f 00 2e be e9 8f 84 bb 17 21 b1 3d
       -0.22648439 -0.169924 -0.0040454757 0.086488895
0002a0 9f f0 19 3e ce e5 01 be 54 53 6b bc ac c4 9c be
       0.15033196 -0.1268532 -0.014363129 -0.306188
0002b0 02 3f 28 bc f8 90 ba 3d b4 0c 5f bd 40 c9 b1 3e
       -0.0102689285 0.09109682 -0.054455474 0.34723854
0002c0 a9 a5 f7 be 87 9d d3 bd 73 44 9d be f6 c8 96 bd
       -0.48368576 -0.1033278 -0.30716285 -0.07362549
0002d0 c2 f8 72 3e 73 e8 9d 3e 7a 6d 4d 3d c3 b8 06 be
       0.23727706 0.30841407 0.050153233 -0.13156419
0002e0 69 0d e2 bd 9a cb 92 3c 4c 3a 84 3d 39 a8 a6 bc
       -0.11037714 0.01791935 0.06456432 -0.020343887
0002f0 da 70 21 3d d9 a0 ff 3b 00 48 ed bd ea aa 0e 3e
       0.039414264 0.007801157 -0.115859985 0.13932386
000300 85 18 83 be 86 48 f4 bd d3 44 be bb 1c 55 28 be
       -0.25604644 -0.11927895 -0.0058065443 -0.16438717
000310 5c cf 29 be 8b 2b f7 3c 28 9d 4e be f7 6d 8f bd
       -0.16583008 0.03017213 -0.20177138 -0.07003396
000320 3b 15 10 3e 2d 61 01 be 01 d2 5f be 74 64 a3 bd
       0.14070599 -0.12634726 -0.21857454 -0.07978144
000330 8e fd 8a 3c 7f 4e 91 bb e9 77 55 be a7 af 7b be
       0.016966607 -0.0044344063 -0.20846523 -0.24578725
000340 b1 78 3d be 67 3a 6a be 0f aa df bd 08 5b 4e 3d
       -0.18503071 -0.22873841 -0.10921108 0.050379783
000350 44 34 bb bc 25 5b b4 3d 6b b1 64 bd a7 84 97 3e
       -0.02285207 0.08806447 -0.05583326 0.29593393
000360 11 43 a7 3e c9 3b 86 bd 7e 27 39 be 02 43 de 3d
       0.32668355 -0.06554372 -0.18081471 0.108526245
000370 6d bd 86 3c b1 4c 51 be 1a aa c7 be 27 43 e9 bd
       0.016447747 -0.20439412 -0.38996965 -0.113897614
000380 f8 52 e8 bd b2 14 92 bd 7b c5 35 be 2c c0 e7 bd
       -0.1134395 -0.071328536 -0.17751114 -0.11315951
000390 70 20 07 be db 82 9a be 95 4b 1b 3e 8c 17 e5 bd
       -0.13195968 -0.3017796 0.15165551 -0.11186132
0003a0 55 37 b4 bb dc 67 c2 3c 6b 3f 64 bd ba 81 95 3d
       -0.00549976 0.023731165 -0.055724543 0.07300134
0003b0 27 44 ab bd 04 05 2c 3e b2 6a 9a 3e ac d7 0c bb
       -0.083626084 0.16798788 0.30159527 -0.0021490855
0003c0 58 68 37 bd bb ca c9 3d 32 c8 2b 3e 20 72 66 3e
       -0.044777244 0.09853121 0.16775587 0.22504473
0003d0 cc 6f 80 3e 97 90 4b 3e ca 16 8c 3d 5a 55 4f 3e
       0.25085294 0.19879375 0.06840284 0.20247403
0003e0 73 4a 72 bb e8 d8 7f 3d 4f da 49 bd 9f 18 42 be
       -0.0036970645 0.062462717 -0.04928046 -0.18954705
0003f0 95 8c 4a bc 7e dd 48 be 1d 64 ac be 57 35 36 3e
       -0.012362619 -0.19615743 -0.3367013 0.17793785

3.bias f4 [100]
000000 21 aa 90 3c 79 26 08 3e 51 47 37 bd 08 86 7b 3d
       0.017659249 0.13295926 -0.044745747 0.06140712
000010 ef df d5 3d b5 30 3a 3d d2 bb 63 3d 03 e1 7a 3d
       0.104431026 0.045456607 0.05559904 0.061249744
000020 9f c8 06 bc 69 38 c1 3d 79 2d b2 bc 9e af 14 3e
       -0.008226543 0.094345875 -0.021750199 0.14520118
000030 c5 97 70 bd 1f d0 97 bc 6e 1a 95 bd 88 74 a4 3c
       -0.05873849 -0.018531857 -0.07280432 0.020075098
000040 ed 68 ff 3c b1 c8 94 b9 b1 ef 58 bc f7 67 96 bd
       0.031177962 -0.00028378287 -0.013240741 -0.073440485
000050 b6 e5 24 3d 7a 5b 3e 3e 03 8a 8d 3d f4 e5 d2 3c
       0.040258132 0.18589583 0.06911089 0.025744416
000060 b6 35 8f 3e 8c 18 06 3e 74 b7 49 3e 2b d5 d1 3d
       0.27970666 0.13095301 0.19698888 0.10245737
000070 d8 fe ea 3d ba 03 8d 3e bb 48 1d 3e d0 87 46 bc
       0.11474389 0.27541906 0.15359776 -0.012117341
000080 3b 4c 94 bc 61 3b 3b 3d d9 d9 36 3e 8d 1a 21 3e
       -0.018102756 0.045710925 0.1785654 0.15732785
000090 0a 1e 7c bc 70 02 03 3b f6 00 ac bd 22 b7 e2 b9
       -0.015388021 0.0019990467 -0.08398621 -0.00043242524
0000a0 dd 62 64 3e 57 df 5f 3d 68 99 9c 3d 44 04 ec bc
       0.22303338 0.054656353 0.076464474 -0.028810628
0000b0 a4 ad 3c bb 28 53 a1 3d 1f f1 c9 3d bd ee b7 bc
       -0.0028790021 0.07877189 0.09860443 -0.022452706
0000c0 3f 55 63 3c 6a 66 34 bd 8b 21 60 bd 28 72 98 bd
       0.013875305 -0.044042982 -0.05471949 -0.074436486
0000d0 d6 32 53 3c 86 1e 17 be e3 34 1c 3e f6 2f bd bd
       0.012890538 -0.14757738 0.1525455 -0.092376634
0000e0 12 aa e2 bc 5f c8 07 3d b7 2f 12 3d a3 e1 c0 bd
       -0.027668986 0.033150073 0.035690036 -0.09418037
0000f0 c0 ae 24 3e 94 ae 93 3d f8 ae cf 3d df 8f 09 be
       0.16082287 0.072110325 0.101407945 -0.13433789
000100 bd 96 5c 3d 8f 2d ea bd a9 5a b6 3d 2c fe 89 3d
       0.053854693 -0.11434471 0.08904011 0.067379326
000110 bc 8b fc bd 08 33 30 3d 42 cf 85 bd e2 1b 87 bd
       -0.1233134 0.043017417 -0.06533672 -0.06597115
000120 68 9a 97 bd 81 45 10 3e 20 8b 17 bd 3f 94 76 3d
       -0.074024975 0.14089014 -0.036997914 0.060199972
000130 72 1f 60 3e 83 3f d7 3d 77 65 1c 3e 77 c9 6d bd
       0.21886995 0.10510161 0.15273081 -0.05805346
000140 a4 35 2c 3e 63 15 58 bd 78 b1 94 3e 93 e6 93 3e
       0.16817337 -0.05275477 0.29041648 0.28886852
000150 fa 46 fd bd a8 2a 81 3d 24 e9 82 3d d0 5a 49 3e
       -0.12367053 0.06306964 0.06392124 0.19663548
000160 59 17 ad 3d 4a 76 1a 3e 56 60 c5 bc 2e f9 28 be
       0.08451719 0.15084186 -0.024093788 -0.16501305
000170 2a f7 3c be 1a 4f 82 bd 3f 2a ed ba 3d 8a 02 bd
       -0.1845366 -0.06362744 -0.0018094255 -0.031870116
000180 fc a0 99 bd f3 9f 74 3d 96 cb 14 3e 9d 92 ca bd
       -0.075014085 0.059722852 0.14530787 -0.098912455

5.weight f4 [10, 100]
000000 0b ec 82 be b8 66 8a 3e b7 78 49 3e 74 ee 18 3b
       -0.25570711 0.27031493 0.19674955 0.0023335489
000010 60 e4 95 3d 8e a0 cd be a2 95 52 3e 12 d1 ca 3d
       0.0731895 -0.40161556 0.20564893 0.09903158
000020 e4 cd 01 3d 68 e2 9d 3d 57 9c ef 3d 95 fc d2 be
       0.031690493 0.07709199 0.11699741 -0.4120833
000030 70 68 1f be 86 2f ea 3d 6a b9 ef be 3c 65 b9 3e
       -0.15567183 0.114348456 -0.46821147 0.36210048
000040 fb 7b f7 3d 4c 5c 4e 3e ee b0 df be 52 7f b4 be
       0.12084194 0.20152396 -0.43689674 -0.35253388
000050 3a 28 29 3e 3f 74 af be 2a f0 f4 bd 78 c5 84 bd
       0.16519251 -0.34268376 -0.1195987 -0.06482977
000060 31 83 40 3e 15 b5 4b 3e d8 f9 f4 3d 69 0f 45 3e
       0.18800046 0.19893296 0.119617164 0.1924416
000070 6e 4a 16 3d 62 cf a0 be 66 32 40 3e 37 11 c0 bd
       0.036692075 -0.3140822 0.18769225 -0.093782835
000080 6b 36 75 3e 2b 4d fd bd 29 e4 8e be 62 68 05 3d
       0.2394654 -0.12368234 -0.27908447 0.03257025
000090 e8 cf 03 bd 98 69 8b bd 77 84 c7 3d cf ae 01 be
       -0.032180697 -0.0680725 0.097420625 -0.1266434
0000a0 c2 0f f2 be 57 75 21 3e 3d 46 8a be d5 19 90 3d
       -0.47277647 0.15767418 -0.27006713 0.07036177
0000b0 2a 4f fc bd 75 fd 15 bf 56 0d 92 be a9 05 00 bf
       -0.12319787 -0.5858987 -0.285258 -0.50008637
0000c0 33 c0 82 be 66 46 f9 bd 86 38 c3 3d 9b bd b4 bd
       -0.2553726 -0.121716306 0.09532265 -0.08825227
0000d0 35 3f 47 bf 37 87 2c 3e 50 cf 85 bc f5 4b a9 3e
       -0.7783082 0.16848455 -0.016334206 0.33065763
0000e0 f3 12 de be c1 4d a0 3e 20 ed 8e 3e c1 d0 92 bd
       -0.43373832 0.31309322 0.27915287 -0.07168723
0000f0 a0 0d 20 bf 40 24 9d 3e 56 a4 cc 3c 3b d0 82 be
       -0.6252079 0.3069172 0.024980705 -0.25549492
000100 f6 b1 5a be 1b 11 1d 3e 50 92 2b 3e 10 5c 6f 3e
       -0.21356949 0.15338556 0.16755033 0.23374963
000110 c4 0b 05 bf d5 94 58 3b 61 6b ae bd be 8d 11 bf
       -0.5197108 0.0033047695 -0.08516575 -0.56856906
000120 e8 34 ab bd bd 0c 2a 3e fb 61 b9 3e 3f c3 41 be
       -0.083597004 0.16606422 0.36207566 -0.18922137
000130 74 ca 02 be 95 14 51 3d 1d 68 6a 3d de bf 55 be
       -0.12772542 0.05104502 0.057228196 -0.20873973
000140 45 31 2d be 9e ef cc bc ae d7 a9 be 00 02 ef be
       -0.16913326 -0.025016602 -0.33172363 -0.46681213
000150 a1 4a a0 be 0d 5b 10 bf 7c 50 87 3d 79 2a 8e bd
       -0.31306937 -0.5638893 0.06607148 -0.06941695
000160 3d 05 98 be 1b 90 49 be a0 0d 47 3e d9 fe 65 3e
       -0.29691496 -0.19683878 0.19438791 0.22460498
000170 d1 f9 dd bd 8f 5d 94 3e b2 7a 27 3e 31 2d 08 3e
       -0.10838664 0.2897763 0.16355398 0.13298489
000180 57 9d 90 3d 9a 5a b2 3d 48 d4 08 3e 92 15 87 be
       0.0706126 0.08708687 0.13362229 -0.26383644
000190 b2 c9 c8 3c c6 72 8b 3d 1e a5 9a 3e 69 15 25 be
       0.024510238 0.06809001 0.302041 -0.16121449
0001a0 52 9f 81 3e da 3a d3 bd b0 1a 96 3e 92 fa 54 3e
       0.25316864 -0.103139594 0.29317236 0.2079871
0001b0 17 42 da 3e 9c d9 2d 3e 67 86 7c bd ae 9a 81 3c
       0.42628548 0.16977543 -0.061651614 0.015820827
0001c0 80 07 c8 3d d9 e9 3c 3e ac 0d c7 3e 81 c0 73 3b
       0.097670555 0.18448581 0.38877618 0.0037193599
0001d0 3c 47 84 3d 5a 79 99 be 1c e1 28 3e 23 27 b1 3d
       0.064588994 -0.29975396 0.16492122 0.08650043
0001e0 56 dc 8f bd 7e 1a 04 bf 05 cb 54 3e 02 1d 9e 3d
       -0.070244476 -0.51602924 0.20780571 0.077203766
0001f0 e3 86 a1 3e b9 5d 86 3e cb 1f e5 3c ab 6e cd bd
       0.31548223 0.2624338 0.027969262 -0.10030874
000200 4a 3e 9a 3b 5c 49 91 bc cc 92 34 bf 97 b1 44 3e
       0.0047071325 -0.017735176 -0.70536494 0.1920837
000210 2d 5f 8f 3e 3f 8c 1e 3e ed 1f 09 be b0 57 49 be
       0.280023 0.15483187 -0.13391085 -0.19662356
000220 ff 5e 27 bf 4d 7d b7 be fa 02 0f bf f6 b8 a3 be
       -0.6537933 -0.35837784 -0.55863917 -0.31977051
000230 15 5e 25 bc 37 77 6d be a7 11 c3 3e 18 92 ac 3e
       -0.010093232 -0.23190008 0.38099405 0.3370521
000240 d2 1c ff be 57 83 24 3e ba c1 48 3e 6e 6d c0 3d
       -0.49826676 0.16065727 0.19605151 0.09395872
000250 fc f8 25 3e 2f c0 43 bd 21 16 5d 3e 90 7c 8a 3e
       0.16208261 -0.047790702 0.21590473 0.2704816
000260 2c 3b 33 3d d2 e8 7a be f6 26 a2 3e 17 1f c0 bd
       0.043757603 -0.24502876 0.3167035 -0.0938093
000270 2b 1d 15 be e8 2e 83 be 80 3c ae be d1 3a a0 be
       -0.14561908 -0.25621724 -0.34030533 -0.31294873
000280 e8 b3 ff be 01 a3 2d 3d 7f 37 81 bd b4 70 f3 ba
       -0.49941945 0.04239178 -0.06309413 -0.0018573017
000290 66 62 07 be 06 73 7e be 1c 7f 80 3d 0f 65 2a be
       -0.1322113 -0.24848565 0.06274244 -0.16640113
0002a0 d8 82 a8 3e db 17 93 3e 68 f4 5a 3e 5c ad 4d 3d
       0.32912326 0.28729138 0.21382296 0.050214157
0002b0 ce a4 94 be 91 1b 67 be db f1 1f 3e 74 18 c7 bd
       -0.29031986 -0.2256911 0.15619604 -0.09721461
0002c0 ba 3a 22 3f 1d 90 11 be 7c 87 36 bf 62 86 08 3c
       0.6337086 -0.14215131 -0.7130048 0.008332821
0002d0 25 9c 42 3e 11 df ea 3d b7 7d 35 3e 27 49 8c be
       0.19004877 0.11468328 0.17723738 -0.2739956
0002e0 36 e5 06 be 2b 8b a3 3d 0a 52 a7 be 54 59 2d bf
       -0.13173375 0.079855286 -0.32679778 -0.6771443
0002f0 ce d8 3a be 90 75 8c 3e 81 9f b2 be f4 8a c2 3b
       -0.18246767 0.27433443 -0.34887317 0.0059369747
000300 7e 2d e2 3c 0c e9 98 3e d3 b5 a4 bc 9a 0c d8 be
       0.027609583 0.298653 -0.020106232 -0.42197114
000310 4a c0 19 be b5 4c bd be e2 cd b2 bb 88 a2 fe 3c
       -0.15014759 -0.36972585 -0.005456672 0.03108336
000320 5f a8 ad 3c e0 c0 a0 bd 37 ce c6 bd e2 1d 60 3e
       0.02119845 -0.07849288 -0.09707301 0.218864
000330 ff cc ec 3d 7e 16 46 be f9 7d 32 3d 0f 6a 77 bd
       0.115625374 -0.19344518 0.043577168 -0.06040388
000340 1b 35 0e 3e a2 8c bf 3e ea 67 85 3e b6 e3 e4 3d
       0.13887446 0.37411982 0.26055843 0.11176245
000350 07 a8 86 3d 31 d5 e3 3c 70 9a 94 bd 2a 11 c4 3e
       0.065750174 0.027811619 -0.07256019 0.38294345
000360 0a e2 f6 be a1 d9 4d 3e d1 0d 04 bf f4 a9 bc be
       -0.4821933 0.2010255 -0.5158358 -0.36848414
000370 d1 88 98 3e be a8 b7 3e 6f 54 97 be b5 1d 70 be
       0.29791883 0.35870928 -0.29556605 -0.23448832
000380 6a f9 4c 3d f2 2d f2 bd 20 71 66 3d 21 2c 81 bd
       0.050042547 -0.118251696 0.05626023 -0.06307245
000390 a0 cb bd 3e 9a d4 d1 3d 65 70 25 be b9 ad bd 3d
       0.37069416 0.10245629 -0.16156156 0.092616506
0003a0 26 dc 16 be d5 cc f5 be 4a 2a 01 bf f1 50 9a be
       -0.14732417 -0.48007837 -0.50455153 -0.30139878
0003b0 9f 67 8e bc d3 13 8d 3d f2 e1 a2 be 22 20 c9 be
       -0.017383395 0.06888547 -0.31813008 -0.39282328
0003c0 54 ee 24 bd 08 5b 3c 3e 38 15 0b 3d e0 22 78 3e
       -0.04026635 0.183941 0.033955783 0.24232054
0003d0 f6 9e 1a 3d 0f e3 b8 bc d3 a5 a1 3d 11 a3 d5 3e
       0.037749253 -0.022569207 0.078929566 0.41725972
0003e0 31 6c 40 be 4f 75 5f 3d 5b 38 9d 3e fd 24 5f 3e
       -0.18791272 0.054555234 0.30707058 0.21791454
0003f0 49 db 21 bd 6c 86 a8 3e e1 0f a1 be 69 3a 7f 3d
       -0.039515767 0.32915056 -0.31457427 0.062311564

5.bias f4 [10]
000000 b0 aa 97 bd 70 30 e2 bd 7a 66 9d 3c 96 63 e4 ba
       -0.07405603 -0.11044395 0.019213904 -0.0017424698
000010 3a 45 51 3d 6e 70 fb bb 9d 4d a3 3c b3 71 3a bd
       0.05109141 -0.007673315 0.01993447 -0.04551859
000020 75 52 37 3b 1b 1a 01 3d
       0.0027972732 0.031519037
