models/mnist_fc_7.pt (torch, 565491 bytes, 16 tensors)

1.weight f4 [100, 784]
00000000: 14d4 33b6 2e71 3fb8 539b 94b8 c630 2bb8
00000010: 8c5b 2db7 7e25 23b8 9811 46b8 dadd af37
00000020: 5b20 f8b7 9d88 33b8 6051 b4b7 8e3b dbb7
00000030: c93b feb7 ec0f 7037 fb60 45b7 06c2 9ab6
00000040: 0575 9737 fd74 cfb6 96fe 05b8 5eaa af37
00000050: c2f1 26b8 e69b 3836 ae42 3db8 4a05 b533
00000060: f07d ecb7 9dd4 f2b7 da59 48b8 870b 8436
00000070: 3042 8fb7 56a9 f137 0b96 cc35 cf18 d1b7
00000080: 999f d5b7 a8b2 32b8 0ce6 19b8 bb82 4cb8
00000090: 274e 6e38 9068 89b7 13bc 20b8 df66 f6b7
000000a0: f719 46b8 5303 80b8 5f3a 3db8 1ed4 9cb7
000000b0: 68a7 5cb7 369a e2b7 9193 b0b8 7fd1 29b7
000000c0: 9f1c dcb7 4e18 81b7 b028 c9b6 4035 2db6
000000d0: b2da 64b8 2a08 48b8 e5e7 75b7 4599 ddb7
000000e0: 56c8 c7b7 e618 2db8 e81e b9b7 5085 a2b8
000000f0: 497b 13b8 72fe ee37 962a 2cb8 1086 e0b7
00000100: 7166 8b37 3ac5 6137 6683 2cb8 2f75 c8b7
00000110: 7006 4cb7 9909 61b7 7571 28b8 de5f d0b6
00000120: 5bac 9337 6e2c ac37 b38d abb6 8075 8bb7
00000130: 5802 c436 b62d 12b8 b419 9ab7 f14d f0b6
00000140: 2b54 8d37 80eb f6b6 3ae0 97b7 f3e8 d737
00000150: 4bb8 37b8 b4e6 1eb8 59a5 23b8 d6a5 15b8
00000160: 44c0 67b8 42f8 26b6 98de aab6 00d8 c9b7
00000170: d783 96b7 d23f d938 09e9 65b5 ed93 9eb8
00000180: b991 c1b7 44eb f838 213b 2e37 8ef3 10b9
00000190: e7bd 49b9 3c7b 10b9 cf46 8db8 266b 4ab8
000001a0: a006 d6b8 22d6 97b8 caf0 00b8 b987 04b8
000001b0: b7fd 1cb8 bd22 50b8 6eed 2db7 8512 78b8
000001c0: 4ec4 56b8 ae30 3ab8 61b2 d0b7 bfd1 b1b7
000001d0: a213 4fb8 34e9 d4b7 6068 9537 bcad 61b8
000001e0: d0c0 2f37 b409 46b8 2ee9 22b9 e827 65b9
000001f0: 644d 49b9 5a3d 5fb8 09c3 84b8 a65a 42b9
00000200: 9b77 8db9 ae05 7db8 723c bfb8 a26a fd37
00000210: dbed a9b8 cc59 f8b7 7230 8138 3178 1fb7
00000220: df23 9fb7 7bb1 4eb7 d095 87b8 e277 9bb8
00000230: 99c6 1db7 f42b 1cb8 fea3 9035 2bba dfb7
00000240: 169d 22b8 1f47 7eb8 99ef 08b8 9a5a 88b8
00000250: 398c 13b8 0286 3eb9 979e 00bc ce5f bebc
00000260: e461 51bb 157a b23c f5c7 233d 6b58 1b3d
00000270: 47e2 3a3d 88b5 813c 0652 3bba d7e1 18bb
00000280: 770c efba b743 15b9 bf7e f4b7 49b2 0039
00000290: 0ecc 4cb7 1448 13b8 ae4c 84b7 0954 79b7
000002a0: 0a0d 42b8 8125 28b8 981a 6437 bae5 9237
000002b0: 25ec 91b8 b315 dfb8 5995 b7b7 1b1f a1b8
000002c0: ef2e abb9 af30 54b9 87a6 cfb9 e9ad 12b9
000002d0: f422 963b 020f 5f3c f38a c038 9774 44b9
000002e0: bbfc 06b9 8b61 123b 4310 39ba 11f7 96ba
000002f0: e9fe 0db9 9a77 d8ba a82c 33b9 f1a6 a038
00000300: c629 5138 bfdd ceb8 2c62 b9b7 44b6 c3b7
00000310: c8ea 92b7 43ee 94b8 539a 02b8 cdfe 40b8
00000320: c7b3 81b8 0ea5 7eb7 3500 a1b8 42dd adb9
00000330: 1e76 91b9 aea4 40ba c12d beba cc1f 8cbb
00000340: 4bc5 e5bb 4ca1 e6bb 49dd cdbb cc13 24ba
00000350: 742b cb3b 1f74 ddb8 cf33 14b9 c420 7ab9
00000360: fa5c 24b9 1251 3db9 5917 37bb 57db aab8
00000370: 29b2 61b8 f836 3bb9 b7c9 a4b8 9052 98b5
00000380: 98cc ef36 a63d dfb6 5f68 63b7 2556 b4b8
00000390: a541 b8b8 a8ec d2b7 c0b3 09b9 a00f 07ba
000003a0: e778 f3b9 9e26 27bc 94a3 9fbc 9362 d2bb
000003b0: ed57 e2b9 35ed 9fb9 f208 d338 e109 8039
000003c0: fd9e dbb9 fa0c 43b9 748a bbb9 129c ed3b
000003d0: f91e 373c 3960 ac3b be22 893a 2409 e7b9
000003e0: 0d06 88b9 4883 15b9 5503 37b8 a2ee e6b7
000003f0: 4b09 03b8 0dc9 21b8 a229 1bb7 5534 92b8
-2.6796524e-06 -4.5643355e-05 -7.086121e-05 -4.0815e-05 -1.03329185e-05 -3.8897146e-05 -4.7223264e-05 2.0964933e-05
-2.957897e-05 -4.2804157e-05 -2.1495565e-05 -2.6134567e-05 -3.0307e-05 1.4308822e-05 -1.1764695e-05 -4.612145e-06
1.8055094e-05 -6.1827e-06 -3.1946773e-05 2.0940959e-05 -3.980264e-05 2.7508881e-06 -4.512321e-05 8.4294314e-08
-2.8192037e-05 -2.8947654e-05 -4.7767397e-05 3.9352485e-06 -1.707775e-05 2.8808292e-05 1.5242853e-06 -2.4926294e-05
-2.5465897e-05 -4.2604894e-05 -3.669229e-05 -4.8759142e-05 5.6816407e-05 -1.6380363e-05 -3.832213e-05 -2.9373388e-05
-4.723106e-05 -6.104135e-05 -4.5115474e-05 -1.8695424e-05 -1.3151999e-05 -2.701311e-05 -8.4198204e-05 -1.0121962e-05
-2.6239371e-05 -1.5389316e-05 -5.9950034e-06 -2.5810004e-06 -5.4563112e-05 -4.769132e-05 -1.465713e-05 -2.6416625e-05
-2.3815937e-05 -4.1269603e-05 -2.206811e-05 -7.749593e-05 -3.516235e-05 2.8490296e-05 -4.1047657e-05 -2.6765309e-05
1.6617794e-05 1.34569655e-05 -4.113037e-05 -2.3896426e-05 -1.2160846e-05 -1.341328e-05 -4.0159986e-05 -6.2100435e-06
1.7604025e-05 2.0524687e-05 -5.112693e-06 -1.6624806e-05 5.841528e-06 -3.4851684e-05 -1.83702e-05 -7.161631e-06
1.6847704e-05 -7.358787e-06 -1.8105016e-05 2.5738473e-05 -4.3802236e-05 -3.7884995e-05 -3.901622e-05 -3.5678815e-05
-5.5253753e-05 -2.4880433e-06 -5.092308e-06 -2.406165e-05 -1.7942786e-05 0.00010359254 -8.564826e-07 -7.5615804e-05
-2.307525e-05 0.00011869383 1.0384975e-05 -0.00013823641 -0.00019239598 -0.00013778819 -6.736593e-05 -4.8260343e-05
-0.00010205549 -7.2401264e-05 -3.074183e-05 -3.1597654e-05 -3.742959e-05 -4.9623417e-05 -1.0366884e-05 -5.9145055e-05
-5.12044e-05 -4.4391192e-05 -2.4878596e-05 -2.1197715e-05 -4.937093e-05 -2.5380963e-05 1.7810788e-05 -5.3805983e-05
1.04757055e-05 -4.7215915e-05 -0.0001553639 -0.00021854008 -0.00019197684 -5.322448e-05 -6.3305786e-05 -0.00018535051
-0.0002698273 -6.032519e-05 -9.1188485e-05 3.0209605e-05 -8.102852e-05 -2.9605719e-05 6.160223e-05 -9.505123e-06
-1.897098e-05 -1.231988e-05 -6.4652064e-05 -7.413306e-05 -9.404169e-06 -3.7234233e-05 1.0776564e-06 -2.6670363e-05
-3.8770107e-05 -6.0624556e-05 -3.264807e-05 -6.501861e-05 -3.5178124e-05 -0.00018169734 -0.007850311 -0.023239043
-0.0031949216 0.021786729 0.039985616 0.03792612 0.04562595 0.015833631 -0.00071457063 -0.002332797
-0.0018237968 -0.00014234973 -2.9146087e-05 0.00012273448 -1.2206858e-05 -3.511466e-05 -1.5771333e-05 -1.48611225e-05
-4.6265348e-05 -4.008925e-05 1.3596051e-05 1.7511531e-05 -6.958124e-05 -0.000106375104 -2.1884845e-05 -7.682872e-05
-0.0003265063 -0.00020236032 -0.0003960619 -0.00013988432 0.0045818035 0.013614418 9.181155e-05 -0.0001873545
-0.00012873385 0.0022335972 -0.0007059613 -0.0011517723 -0.0001354177 -0.0016515136 -0.00017087406 7.66049e-05
4.9868388e-05 -9.864149e-05 -2.2099433e-05 -2.3330686e-05 -1.7513885e-05 -7.10157e-05 -3.113814e-05 -4.601367e-05
-6.1846855e-05 -1.517801e-05 -7.677117e-05 -0.0003316198 -0.0002774456 -0.0007348758 -0.0014509485 -0.0042762514
-0.0070120445 -0.007038271 -0.0062824828 -0.00062590535 0.0062002484 -0.000105597304 -0.0001413368 -0.00023854064
-0.00015674895 -0.00018054646 -0.00279375 -8.147087e-05 -5.3810105e-05 -0.00017854187 -7.857702e-05 -1.1348911e-06
7.146573e-06 -6.6530947e-06 -1.3554555e-05 -8.5991145e-05 -8.786031e-05 -2.5144152e-05 -0.000131323 -0.00051521696
-0.0004643865 -0.010202078 -0.01948718 -0.0064204424 -0.0004317159 -0.00030503576 0.0001006293 0.00024421423
-0.0004188939 -0.00018601483 -0.00035770575 0.007251271 0.011176818 0.005260494 0.0010462624 -0.00044066564
-0.0002594445 -0.00014258653 -4.3633703e-05 -2.7529259e-05 -3.124149e-05 -3.8572634e-05 -9.248413e-06 -6.97157e-05

1.bias f4 [100]
00000000: e53c 913e 56f8 283d 3811 a7be 4918 a1be
00000010: 03f5 013f d868 82be 54f8 253d 41f5 5e3c
00000020: ff57 6ebe 6b0f 0dbe 89e6 e83e 571f 96be
00000030: 8b0e 77be 3c99 13be c03e 44be 3911 95be
00000040: 32e7 a83d 9940 a9be b23b 373e e791 313e
00000050: 57e0 893e fb4c 2cbe ee29 6ebe 8a7e 17bd
00000060: f626 fc3b 9eee 96be c661 efbd 7782 a63d
00000070: d4c9 823c 0a34 a1bd 90e2 a4bd 9123 c5bb
00000080: 2f93 dcbd 86f5 82bc 56e3 a2be 083d d0be
00000090: a463 51be 4e32 b63e 58b5 2d3d a6d1 99be
000000a0: 5dac 2fbe 3e2e 9cbe 8e8e b23e 65cb e4be
000000b0: b1bb 253d 3189 bebd 73a6 883e c70b 03be
000000c0: 43a6 cbbd 5e4a fa3e 840b bcbb 8340 91be
000000d0: 23fa efbd 84e0 d53e c26d 8abd c69f 13be
000000e0: df5d 76be 3434 c1be ddb4 b5be 3ae8 f5be
000000f0: f2be c43c 59d9 f13e e387 c8be 0de1 c8bd
00000100: 79db 66bb 7f12 a03d 6847 8dbb f9c1 1bbe
00000110: 33b8 f7bb a8ec 613c fc6d 9ebe 776a b13e
00000120: d272 72be abc8 fbbd a7c0 e7bd a902 08be
00000130: b0ce 95be 5eb4 5c3e 2ff5 423e 57d3 4bbe
00000140: ef79 ae3e ff17 813e 40eb 90be fab1 8c3e
00000150: 3f0c 2ebe 4db2 dc3e 49b3 853d 81a9 25be
00000160: de4c fb3d 8b55 3fbe e0df 3ebe f152 96be
00000170: 7696 0cbe d3fc af3e c969 7abe aefe 923b
00000180: 22d6 29be f5e4 8c3c fef8 bfbc 0306 923d
0.2836677 0.041252457 -0.32630324 -0.3146384 0.50764483 -0.25470614 0.040520027 0.013608278
-0.23275755 -0.13775413 0.45488384 -0.29320785 -0.24126641 -0.14413923 -0.19164562 -0.29114702
0.08247222 -0.33057097 0.17893866 0.17340814 0.2692897 -0.1682624 -0.23258182 -0.03698591
0.007695074 -0.29478925 -0.11688571 0.08130353 0.01596538 -0.07871254 -0.08051026 -0.0060162027
-0.107702605 -0.015986215 -0.3181407 -0.40671563 -0.20448166 0.35585254 0.04240927 -0.30042762
-0.17155595 -0.3050403 0.34874386 -0.44686428 0.0404622 -0.09303511 0.2668949 -0.12797461
-0.09943821 0.48884863 -0.0057386775 -0.2836953 -0.11717632 0.41772854 -0.06759216 -0.14416417
-0.24059246 -0.3773514 -0.3548955 -0.48028737 0.024016831 0.47236136 -0.39166173 -0.0980855
-0.003522603 0.07816028 -0.004311491 -0.15210713 -0.0075598 0.013789333 -0.30943286 0.3465154
-0.23676613 -0.12294134 -0.113160424 -0.13282265 -0.29259253 0.2155318 0.19038843 -0.19904839
0.34077403 0.2521362 -0.28304482 0.27479535 -0.16996859 0.43104783 0.065283366 -0.16177942
0.12270521 -0.18684976 -0.18640089 -0.29360154 -0.13729271 0.34372577 -0.24454416 0.0044859266
-0.16585591 0.017199019 -0.023434158 0.07130053

3.weight f4 [100, 100]
00000000: 0889 ffba 8236 7a3b 309f 9fbb b372 aa3b
00000010: eff2 93bb bda8 4c3d b258 62b9 9ecb 8f3b
00000020: 9358 47bb 5612 88be dfd4 33ba ec65 4b3d
00000030: ea86 5e3c 83d2 bbbd 7b61 cf3b 5cf6 18ba
00000040: d21b 6cbb a2ad ad3a e83b 5d3c e1ce 593c
00000050: cf2c 543a 6670 9839 308b 9a3c d387 17ba
00000060: ab1a 5cbd 619b 37bb 4eb1 18bc 117a 31bc
00000070: 9eec 84bd 1714 833b 3b76 3c39 b65e 4738
00000080: 9be1 c93b 669a fcba ae0b 49bd ba53 a1bc
00000090: 8083 f93b cc07 003a 41e8 273d 76fb 1b3d
000000a0: 08a2 7b37 a857 b5be a15b 30b9 9f1e 1f3b
000000b0: ee35 143a 15ef 093c 498b 5339 fcb1 963a
000000c0: 3f78 32be dc1f 3139 6fb0 2437 c88a 15bf
000000d0: 941e ddbd 08d0 ccbd c7dd f13d e2ed 11b9
000000e0: 14e1 613a aad2 88ba 5dbc fcbb 255f 80bb
000000f0: dd7f 42bd d550 e2bc 7f07 31bc ece8 473d
00000100: e213 84bc bcdc 33bc 14b3 25ba 3e27 013a
00000110: 5a63 93bc 7d8e c7bb 1805 39bb 9044 df3c
00000120: 7573 bebb a3d1 293b 5985 a139 0ed7 263c
00000130: dd05 4ebb 6592 563a 9ee6 6abc 57b5 873b
00000140: 33f7 793d f992 10ba 46e2 603d 2dcf 583d
00000150: d956 1eba 7f94 673b 2566 d63d b767 9dbc
00000160: c519 223c 5e89 be3c dd0b 023a a36b 30be
00000170: 62b5 61ba 2ebd cc3a ed28 793b 03c4 863c
00000180: 46ee d7bb 62f8 273b d67a 5f3a 3437 543c
00000190: d872 a9bc f0c4 2b39 7146 fdb8 cf97 ca38
000001a0: 1cb9 4a3d 4338 b3bd 2cc4 69be 6a50 c93c
000001b0: 6934 333d 90be 783a a13b 0fbe a51e cdbd
000001c0: 4608 5d3d bf67 8b3a 5d37 a7bd c301 a7bc
000001d0: 5c21 87bc a672 78bd 2bc4 023d f7bd ec3b
000001e0: 5655 da39 deab 27be a42d c63a cd70 d0bd
000001f0: a3d1 66bc 4684 e93b 98fa 103e 9ebb 8439
00000200: a5e1 493d 4539 853c d5a2 523c 8bd5 d837
00000210: e0c8 c33d c430 3fbb fdd4 993c ae54 4c3c
00000220: 93c0 43bd aec8 21be bf1d 96ba c7ec 41bc
00000230: 18f6 ac3e 2fd6 babb 3f09 0e3d 4bd9 6cbd
00000240: 0d7b a4bd 0d9f 89bd 96eb fcbc d7d9 75bb
00000250: 4553 debb 917c 133b 8ecc aa37 5469 1abc
00000260: e9fe 3ebd d247 2b3c 5d81 76bc bdb4 473c
00000270: 7989 a0bd 2167 8b3a ac34 9239 8f6e c7bb
00000280: edc5 043a 7b1e d8bc cc5f 33bb f725 503c
00000290: f2e6 3cba eb86 fcb9 b2b5 67bd b463 dab9
000002a0: d58b 403c 6952 19bc c7da 44b9 e9f0 f8b9
000002b0: 5a55 e9bc db0c 43bc 6d81 9d39 f1e6 83ba
000002c0: 0b08 1a3d 00e9 0b3a 7230 213a 9ab4 1c3d
000002d0: 19d0 9d3a c4f8 193c ce72 01bd dc5c 623c
000002e0: 323b 943c 3770 be3b 891b 3ab9 bd3d c038
000002f0: becf 9d3d 26be f53c 5ba7 6d3c c3a5 87ba
00000300: 262f 57bd 7cfb 4cba 38a7 babc 2a4d cb39
00000310: 3e75 023c f4f2 96bb 279d b9bd 58db 0cbd
00000320: d553 6d3c 0cb1 323e dfe0 97bc cb61 903d
00000330: db9b be3e 914a 2e3b c0da a63b d97d 263d
00000340: 561a f93c d934 2cbb b85c 1db9 c4cb 7ebc
00000350: 115d d5ba 4ced c739 cc9f 083c a6bc 1fb8
00000360: 1123 0bbb f8a9 c7bc 9702 ac3d 61fa 75bd
00000370: 13d5 e13b 99c7 e93b 3195 92bd 04bc 843d
00000380: f670 bbbb ed6e b7be 5c46 03ba ef01 76bc
00000390: a5ec 79b9 4fa6 b1b8 a61a f13b b7cd 90b7
000003a0: 66cf 10b9 d17e 443d d8b2 debc a1d7 17be
000003b0: 86c2 743a d9da b837 e34f 6bb8 8466 aebb
000003c0: a65d e3bc 15da a1ba 6eb3 0b3d 0501 84bc
000003d0: 1ec5 c5bc ad48 273c d0b1 823d 2912 4ebc
000003e0: 7645 8fb9 3971 51bc 3617 9737 8305 f639
000003f0: 6aab 143c 8874 0a39 0e18 e7bc 9c75 b43c
-0.0019495795 0.0038179462 -0.0048712716 0.0052016615 -0.004515044 0.04996561 -0.00021586081 0.0043882867
-0.0030417785 -0.2657649 -0.00068600284 0.049657747 0.013581971 -0.09171011 0.0063287592 -0.000583505
-0.0036027324 0.0013250599 0.013503052 0.013293953 0.0008093835 0.00029075443 0.018865198 -0.0005780432
-0.05373637 -0.0028016197 -0.0093196165 -0.010832326 -0.06490444 0.0040001976 0.00017973121 4.7533504e-05
0.0061609275 -0.0019272089 -0.049083404 -0.019693244 0.007614553 0.00048839743 0.04099298 0.03808161
1.4998492e-05 -0.3541844 -0.00016818802 0.0024279726 0.0005653788 0.008418818 0.00020174416 0.0011497135
-0.17428683 0.00016891904 9.816241e-06 -0.5841489 -0.10796848 -0.10000616 0.11809879 -0.00013916896
0.0008616608 -0.0010438759 -0.0077128843 -0.003917592 -0.04748522 -0.027626434 -0.01080501 0.048806116
-0.016122762 -0.01097792 -0.0006320935 0.0004926807 -0.01799171 -0.006089984 -0.0028231796 0.027254373
-0.0058121034 0.0025912307 0.00030807665 0.010183109 -0.00314366 0.00081852666 -0.01433721 0.0041414904
0.061026763 -0.00055150647 0.05490329 0.052931953 -0.0006040163 0.0035336313 0.10468701 -0.019214494
0.009893839 0.023258861 0.0004960874 -0.1722856 -0.0008610097 0.0015620345 0.0038018778 0.016450888
-0.0065896837 0.0025630225 0.0008525079 0.012952615 -0.020684645 0.00016381196 -0.00012077101 9.660387e-05
0.04949294 -0.087509654 -0.2282874 0.024574477 0.043751154 0.0009488845 -0.1398759 -0.100156106
0.05396297 0.0010635777 -0.081648566 -0.020386582 -0.0164954 -0.060656212 0.03192536 0.007224794
0.0004164378 -0.16374156 0.0015119803 -0.10177765 -0.014088067 0.007126364 0.14158094 0.00025316788
0.049287457 0.01626266 0.012856205 2.5848645e-05 0.09559798 -0.0029173354 0.018778319 0.012471361
-0.047791075 -0.1579921 -0.0011452957 -0.011836237 0.33781505 -0.005701802 0.034676787 -0.057824414
-0.080312826 -0.0671979 -0.030874055 -0.0037513876 -0.006784829 0.0022504667 2.0360832e-05 -0.009424526
-0.04662982 0.010454135 -0.015045491 0.012189087 -0.07838721 0.0010635593 0.00027886534 -0.0060861777
0.00050648936 -0.026381722 -0.0027370332 0.012704364 -0.00072060444 -0.00048165707 -0.056569763 -0.00041654485
0.011752089 -0.009358027 -0.00018773518 -0.00047481738 -0.028483082 -0.01190492 0.00030041803 -0.0010063333
0.037605327 0.0005337149 0.00061488815 0.038258173 0.0012040167 0.009397689 -0.031603627 0.013816085
0.018094633 0.005811717 -0.000177486 9.166773e-05 0.07705639 0.029997896 0.014505233 -0.0010349083
-0.0525352 -0.00078194565 -0.022784814 0.0003877667 0.007962523 -0.004606599 -0.090631776 -0.03438887
0.014485319 0.1745035 -0.018539844 0.070499025 0.37228283 0.0026594738 0.005091995 0.04064736
0.030408066 -0.0026276617 -0.00015007227 -0.015551511 -0.0016278346 0.00038133038 0.00833888 -3.8084247e-05
-0.0021230618 -0.02437304 0.083989315 -0.060053233 0.0068918555 0.0071343896 -0.07157362 0.06481174
-0.005720253 -0.35826817 -0.0005007738 -0.015015109 -0.00023834647 -8.470995e-05 0.007357913 -1.7261931e-05
-0.00013810172 0.047972504 -0.027184889 -0.1482835 0.00093368476 2.2036418e-05 -5.6102766e-05 -0.0053222794
-0.027754616 -0.0012348319 0.034106664 -0.016113767 -0.024141844 0.010210198 0.06381571 -0.012577572
-0.00027326838 -0.012783342 1.8011411e-05 0.00046924883 0.009074071 0.00013204117 -0.028209712 0.022028737

3.bias f4 [100]
00000000: f200 3bbc 9e12 073e ef19 60bd 166c 963d
00000010: d8aa acbc 057c 83be e0c2 263e e580 50be
00000020: df5c eb3d 7a14 ccbd 72c2 2e3d ceef 76be
00000030: b3d6 ebbd 5c42 3dbe ca25 63be 0b15 49bd
00000040: 7435 283e 1d45 b2bd 4215 913c 0f1e f6bd
00000050: 5974 303e 5de4 91bd 7f9f 76bc 3e65 babb
00000060: 5118 96bd c166 463e 9ad8 973d d95c 263e
00000070: a71d ed3d 8f55 6f3d ddc4 13be 3a05 df3d
00000080: 2dea 41be a5c5 2f3e 5f56 f8bc 6fc5 893d
00000090: cfc0 fb3d 7af7 153d 7953 30be 249f 60be
000000a0: c0c2 bf3c 2637 303d 13c3 68be 8075 0c3e
000000b0: f8be 2dbe 2f16 dc3c 9482 c03d 4fef 4e3d
000000c0: 7914 a83d 3026 2dbc d73e 5abd 387e 573b
000000d0: 0ecb 0c3e 1a5f 81bd 7414 e33d 7026 26bb
000000e0: 42d7 b0bc 6067 53bd 15bf d73d 6fd5 503d
000000f0: eb84 a23b db7e a6bd 6642 afbd 9ee0 bcbd
00000100: 20a6 0a3e aa74 86be cf83 533e faa7 bbbc
00000110: 56bd 81bd 2b24 02bd 8db5 f43c c952 d8bd
00000120: 0640 dcbd 2427 b13d e97a 3ebd c609 d1bd
00000130: 22fd 833d 6ce9 6fbc 2a52 94bd 2f31 413d
00000140: 21f1 d13c 5e90 35bc 776b 643c 94a2 08bd
00000150: 90c8 61bd 81b6 a13d 69f6 cd3d 7c3e 9ebd
00000160: 08e7 a83d 2bba 8fbc ad0c 1dbe 39f0 14be
00000170: 1296 6bbe cdac 1abc 40d9 383e fcf6 3abd
00000180: 55b4 0f3e e966 61be 81fb 943d 7ea3 78bd
-0.0114138 0.13190696 -0.054712232 0.073448345 -0.021077558 -0.25680557 0.16285276 -0.2036167
0.11492323 -0.09964843 0.042665906 -0.24114916 -0.1151556 -0.18482345 -0.22182384 -0.049092334
0.16426641 -0.087045886 0.017710332 -0.12017452 0.17231883 -0.07123635 -0.015052675 -0.0056883385
-0.07328857 0.19375135 0.0741436 0.16246356 0.11577921 0.058431204 -0.14430566 0.10889669
-0.18936987 0.17165239 -0.030314622 0.067271106 0.12292635 0.036612965 -0.17219342 -0.21935707
0.023408294 0.043021344 -0.22730665 0.13716698 -0.1696738 0.026866047 0.09399906 0.05052119
0.0820703 -0.010568187 -0.053282585 0.0032881629 0.13749334 -0.06316967 0.110878855 -0.00253525
-0.021587018 -0.051612258 0.10534493 0.050984796 0.0049596927 -0.081296645 -0.08557586 -0.0922253
0.13539934 -0.26260883 0.2065575 -0.022907246 -0.06334941 -0.031772774 0.029871726 -0.10562665
-0.10754399 0.086500436 -0.046503935 -0.10206942 0.064447656 -0.014643054 -0.07242234 0.047166046
0.025627675 -0.011081783 0.013941637 -0.03335817 -0.055122912 0.07896138 0.10056765 -0.07726762
0.08247191 -0.017544826 -0.15336867 -0.14544763 -0.23006466 -0.009440613 0.18051624 -0.0456457
0.14033635 -0.22011913 0.07274533 -0.060702793

5.weight f4 [100, 100]
00000000: 704b 16bb 43cf 6a3c da06 28ba eef8 a8ba
00000010: f8be eabb bb48 4d3d 516b 023f 6414 e23c
00000020: 92ef 883c c064 d334 aabe f73c 0e99 7dbd
00000030: 5cb0 39bd 6340 0c3a 6589 d2bd d520 abba
00000040: baaf 2a3d 4a6e df3c 0931 67bd 8972 ed3b
00000050: dbcb 753d caf1 963d ef45 9c3c 57b3 373d
00000060: ced1 003e f00c 01bc 8ce3 633e 38bb 0e3d
00000070: 5495 d23b 0535 36bd 31cc 5c3b e4b5 62bd
00000080: d889 ad3a 4243 ce39 f81e 983d 1468 ba39
00000090: eee4 10ba ff74 05ba 0a19 243a 747e 22be
000000a0: 0114 26be 396a 7abd c591 523a 75f8 0fbd
000000b0: 50f4 c839 4a72 9f37 5dab 86bd 1e4c 9d3d
000000c0: e0b1 e6bc c72b 723c 0a23 e2b9 71eb 3bb9
000000d0: c696 cdbd d526 01ba 3a7e 643e 4c0f 6dbb
000000e0: a181 6639 18fb 683d fdce 8dbb b3a4 943c
000000f0: 5239 10b9 67ac 693d e898 893c ef0f e4bb
00000100: 48ab d1bd af55 403b 8e78 63bb b2c1 92bd
00000110: daa4 02bd 6ac2 023c 70ae 5f3d 81ce 853d
00000120: b9d6 a83c 332c b5bd 66c5 b738 0041 acbc
00000130: 31d6 22bc 907a 80b9 d811 f2ba 3447 d039
00000140: c4a0 a43c f289 9e3c 022a 0abd df8d d5bd
00000150: 2fcc 5637 e0e4 e5b8 815b 9e3e 1ad7 813d
00000160: c020 083a 05f6 f6bb 7f55 cbbb 91d6 01b9
00000170: 5dd9 8c3b 4cc9 fe3c 16a8 3e3d 4b30 013a
00000180: ef35 89bc c4c7 86bc 97a6 0bbc 192c ab3e
00000190: 2cb8 eebc e8f8 c5b8 b586 983c bb70 febc
000001a0: 566b f5b8 9056 7739 ddd4 cf3c c380 82be
000001b0: 6b17 03bc 3569 4e3c 87a5 85ba 403d 453a
000001c0: f737 8b3d 3c90 b838 cc26 373b b6e6 003d
000001d0: d99f aebb f40c cb3c 6f99 b0bd fb04 483d
000001e0: bc6e acbc 286c bebc d36d 04bb 84f9 373a
000001f0: 6fff 1d3c db8f 323a 5691 1abd bada b739
00000200: c064 e239 5334 473d bfec ca3c e081 d43c
00000210: 70c4 a1bd 8c19 643c d9d2 c13b 60dc 85be
00000220: fe67 03be 2a48 03ba 0d7e 143c 1dc5 43ba
00000230: 4d0c 393b 1406 9dbe 8b98 91bc 8229 3ebe
00000240: b923 0ebe ad10 ff3b 68e3 873c 8eb1 d338
00000250: 4e74 1e3d 4273 f0bc 394d 2c3d 3904 083c
00000260: fcaa 0d3d 6e6e c8bb 24c7 933b d5ae e9b8
00000270: 02f1 33bd ae3b c8bc d052 6c3d 52fe 05ba
00000280: 77e8 a9be 4cf0 26ba fb5f 7a3c 9200 d739
00000290: 7850 433b 9d20 c5bc 5d23 913d 2081 9bbd
000002a0: 474a e13c 7c4f 97b9 7080 c339 7209 c23c
000002b0: 6323 78bc a1b2 943d 4787 b53d 6cc0 293a
000002c0: 6043 ce3b 6d55 d93b 821d 8b3c 4d49 0d3d
000002d0: a6c6 ebbb 96c5 8a3b 14ee cbba a85d e23d
000002e0: d078 15bc 9d3f 643b 7e4d 09bb b94d 93bc
000002f0: ac9b 1cbe 1aaf 7d3a 111a 9a39 4585 d83b
00000300: 1ec2 e2b9 d269 d3bb 38df 863d 9e77 f03c
00000310: 0bda 873c e5ec 9a39 8a4d 8a3b d539 db3c
00000320: 4c17 673b f2c9 f3bd 98ab 103b 16fd 0bbd
00000330: 55bd 6a3b 68a9 bbbc 4d68 3d3d 3f4c 023d
00000340: 64c2 49bd 3f6c 9b39 69bf 91bd 8fb3 e4bc
00000350: 0b15 cbbc 1de9 1b3d b71c 7cb9 ad63 b53b
00000360: c6e4 a9bc dc75 c9b9 2c4e 94b7 22d8 8cbe
00000370: 281d 4639 2bbb 16ba 1765 73ba 871e bbb8
00000380: 2725 633b f0f2 5fb9 f0e1 243b 2d62 c23c
00000390: d10c e13d 742e 46bd b916 b7ba fbfd 80bc
000003a0: d84f cfbc 148c 3a3a 760c 4abd 973d d53a
000003b0: ab06 cd3c 6a90 31ba 0714 9539 b939 213c
000003c0: 6600 9eb7 fb21 80bc e350 d9bc 1e09 ad3d
000003d0: 611b f5ba f550 993c 0cfc fcb9 52bc 853d
000003e0: 571d ce39 c70b cd39 c9b1 55b8 b36a 63bb
000003f0: 920f 1e3d f36e 9139 024e 01ba bc5d 4a3e
-0.0022933148 0.014331642 -0.00064097124 -0.001289157 -0.0071638785 0.05011819 0.50945 0.027597614
0.016715799 3.9375118e-07 0.030242283 -0.061913542 -0.045334205 0.00053501705 -0.10280112 -0.0013056049
0.041671492 0.02727427 -0.056443248 0.0072463197 0.060008865 0.07370336 0.019076316 0.044848766
0.12580034 -0.00787662 0.22254771 0.034846514 0.0064264927 -0.044484157 0.0033691043 -0.055349246
0.0013239933 0.00039341493 0.07427782 0.0003555423 -0.0005527277 -0.0005090981 0.00062598346 -0.1586855
-0.16218568 -0.061136458 0.00080325856 -0.035149056 0.00038329 1.9007497e-05 -0.06575654 0.07680534
-0.02816099 0.014780945 -0.00043132185 -0.00017921418 -0.100385234 -0.0004926746 0.22313777 -0.0036172448
0.000219828 0.056880087 -0.0043276534 0.018144941 -0.00013754264 0.05704918 0.016796544 -0.0069599072
-0.102377474 0.0029347946 -0.0034709307 -0.07165851 -0.031895496 0.007980922 0.054609716 0.06533528
0.0206102 -0.08846321 8.762888e-05 -0.021027088 -0.0099387625 -0.0002450538 -0.0018468453 0.00039725902
0.02009619 0.019352887 -0.033731468 -0.104274504 1.2802934e-05 -0.00010962202 0.30929187 0.063398555
0.00051928684 -0.007536652 -0.0062052603 -0.00012382331 0.0042983727 0.031101845 0.046547018 0.00049281557
-0.01674935 -0.016452678 -0.008523605 0.3343208 -0.029140554 -9.4400544e-05 0.01861892 -0.031059613
-0.00011702503 0.00023588003 0.025370056 -0.25488862 -0.008001189 0.0125983255 -0.0010196426 0.00075240806
0.06797784 8.8006695e-05 0.0027946709 0.031470023 -0.005329114 0.02478645 -0.08623015 0.048832875
-0.021048896 -0.023244932 -0.0020207062 0.0007018077 0.00964342 0.0006811597 -0.03773626 0.00035067444
0.00043181144 0.048633885 0.024771092 0.025940835 -0.078987956 0.0139221065 0.0059150276 -0.26144695
-0.12832639 -0.00050080067 0.009063256 -0.0007468032 0.0028236092 -0.306687 -0.017772933 -0.18570521
-0.13880815 0.0077839703 0.016587928 0.00010094336 0.038685136 -0.029351834 0.042065833 0.008301788
0.03458689 -0.00611668 0.0045098234 -0.00011142871 -0.043931015 -0.02444252 0.057696164 -0.0005111444
-0.3318517 -0.00063682045 0.015281673 0.0004100842 0.0029802602 -0.024063403 0.07086823 -0.07592988
0.027501239 -0.00028860185 0.00037288992 0.023686145 -0.015145156 0.07260633 0.08863693 0.00064755115
0.006294653 0.006632498 0.016981844 0.034493733 -0.0071953116 0.00423498 -0.0015558624 0.1105302
-0.009123042 0.0034827956 -0.002095073 -0.017981397 -0.15293759 0.0009677276 0.0002939259 0.006607684
-0.00043250708 -0.0064518237 0.06585544 0.029353913 0.016583463 0.0002954967 0.004220669 0.026760975
0.0035261689 -0.119037524 0.0022074934 -0.03417691 0.0035818417 -0.022907928 0.046242047 0.031810995
-0.04925765 0.00029644553 -0.07116587 -0.027917651 -0.024790308 0.03806411 -0.0002404329 0.005535564
-0.02073897 -0.0003842552 -1.7679376e-05 -0.27508646 0.00018893613 -0.0005749936 -0.0009284778 -8.922541e-05
0.0034659596 -0.00021357439 0.0025159083 0.023728454 0.10988773 -0.048384145 -0.0013968564 -0.015746107
-0.025306627 0.000711621 -0.04932829 0.0016268966 0.025027594 -0.00067735335 0.00028434416 0.009840422
-1.8835253e-05 -0.015641203 -0.026527828 0.084490046 -0.0018700176 0.018715361 -0.00048252975 0.0653006
0.00039313242 0.00039109422 -5.0948733e-05 -0.003470105 0.038589068 0.0002773922 -0.00049325835 0.1976232

5.bias f4 [100]
00000000: bd2b 733e 7632 d6bd 3234 783e 6033 b0be
00000010: d791 b3bd 6701 013e 8888 5f3c 1561 e73d
00000020: 0eb1 b93d 6b6d f53d 8344 ec3d 79d7 423d
00000030: 71c3 50bd 085c a13c 7983 803c cfc5 5ebc
00000040: ac14 233e 5b8f 2e3e 2305 97bc b118 a33d
00000050: ef4c fab7 c13e f9bd e009 3fbe 58be 14bd
00000060: 63ec bb3e d9b8 ef3c 021c 89bd c1d1 cebb
00000070: b20e b6bd 59c1 9f3e d0cb c83d 78ec 41bc
00000080: 912b 8b3d 7a68 623e 5537 82bd d515 a33e
00000090: 38cc e1bc 66c3 213c def5 bd3d d050 d83d
000000a0: 2a53 143d 2c05 003d f63a 72bc 9677 76be
000000b0: 03e4 88be dbdc a53d 6002 c13e c4af 243e
000000c0: 2fe6 183d ef1c 243d ee0c 813c f970 293d
000000d0: e2d8 7dbd ff38 f53c 9422 5e3e 19b1 713e
000000e0: cc26 e83a a2c5 c1bc b643 a13b 782a ca3d
000000f0: 5eec 8b3e ed2a a1bd f66b 91bd d467 99be
00000100: 1722 41be 60dd 353b 4d00 20be 5c0b a63d
00000110: cdfb 78bd 4c53 193e 905e f73d 097a 703c
00000120: fea3 6dbe b6dc 3d3e 791d 0bbe 3eb5 75be
00000130: baa6 75bd ef7d 223c 0308 98bd 6b2d 7bbd
00000140: fc25 a63e 9e2e 033e 1649 d1bc c3b0 653d
00000150: da55 1fbe 71f3 fcbd e66a d2bb b243 c83c
00000160: a6aa 9c3d eb48 e0bc 9790 723d d6ce 4dbd
00000170: fdad 333e cd16 52be 9c0c 3ebd 917b 43be
00000180: ce10 773c 4fc5 1abe bcb3 e13c 9da2 8e3d
0.23747154 -0.104588434 0.24238661 -0.34414196 -0.08768051 0.12598191 0.013643391 0.11297814
0.090669736 0.119837604 0.11536505 0.047568772 -0.050967637 0.019697204 0.015687691 -0.013596966
0.15925854 0.17046873 -0.018435067 0.07963694 -2.9838147e-05 -0.121701725 -0.18656111 -0.03631434
0.36703786 0.029262947 -0.06694795 -0.0063116257 -0.08889522 0.312022 0.09804499 -0.011836164
0.06795419 0.22110167 -0.0635821 0.31852594 -0.0275632 0.009873247 0.09275411 0.10562289
0.036212124 0.031254932 -0.014784565 -0.24069056 -0.2673646 0.080987655 0.37697124 0.16082674
0.037328895 0.040066656 0.015753236 0.041367505 -0.061974414 0.029934404 0.21692878 0.23602714
0.0017711758 -0.023653809 0.004921402 0.098713815 0.2732877 -0.078695156 -0.0710067 -0.29962027
-0.1886066 0.0027750358 -0.15625115 0.081076354 -0.06078701 0.14973181 0.12078583 0.014677533
-0.2320709 0.18541226 -0.13585462 -0.2399492 -0.059973456 0.00991772 -0.07423403 -0.06132261
0.32450855 0.12810752 -0.025547545 0.056076776 -0.15560094 -0.1235112 -0.0064214347 0.024446342
0.07649736 -0.02737852 0.059219923 -0.050246082 0.1754684 -0.2051651 -0.046398744 -0.19090106
0.01507969 -0.1511433 0.027551524 0.0696461

7.weight f4 [100, 100]
00000000: d1df 31be 5a89 9fbb 365d 3c3b b540 9f39
00000010: 2014 d23d 5b73 133a 75ed 5c38 565c 3c3d
00000020: db60 94bd e30e d23c 52bd 10b9 7b3b 2539
00000030: e994 74bc bc15 62ba 05f0 21bd 0682 9dbb
00000040: 5e63 843c ade1 96bd de7f b4bd c52b 89bb
00000050: 0665 1fbd dbfb b9bd fa95 02b9 9618 5f3e
00000060: e935 1fbc ccce 5fbb 8355 a9bc dc4f b7bd
00000070: bc18 1f3d bc09 fabc 4458 50bb fb5c 313e
00000080: 3ecb 1dbd 32be 613b 41fc 96ba bb84 363e
00000090: 87d0 0ebd f18a e33c 6ccb 58bb c3de 383b
000000a0: 9b7d 36bc 35b9 ed3b 7484 e8bb aa71 b1b9
000000b0: b02c 5039 2db9 573d fb0f ed3c ad59 2b3d
000000c0: 15ed 91bd b7a8 3abd 698d e33d 193e 333d
000000d0: ed41 0cbd fbc5 853a c9c6 d83a 32bb b33e
000000e0: 0623 2bbc c2e5 0039 8069 4a3d 6541 313e
000000f0: 782f e339 0927 63ba dcf5 fab9 a2fd 14bd
00000100: 22b0 653a 7098 bd3c 85ae 833d bf8b 7939
00000110: d499 c639 d7b3 57ba b337 d23d b311 b63c
00000120: 0960 653e cd71 2bbd 0dc2 b83d d975 543d
00000130: 76fb a4bc 3a33 45b9 9d86 b839 b575 bb3b
00000140: 9c78 fd3c aee9 5abd 0f19 de3c 109c a83d
00000150: 2ec1 f23d dc84 89ba f44b d13d 2ccb 6db8
00000160: b3ae 663a 3e8c e23b bda7 9abb 52bd c7b9
00000170: 1a77 fb3b dc0f 8c3d 1ac4 5738 eef6 93ba
00000180: 9f5a e1bd 99b3 a9b9 fa37 263c 9e13 26ba
00000190: b4e4 44bd ded9 8139 0444 303c f56e 4c3c
000001a0: 5fb4 30ba bd2a cdbc 80e1 8039 95b7 91ba
000001b0: ea39 143a 5a51 863d 3be9 aeb8 412b 52b8
000001c0: 973c d83c 717d 9439 13a7 94b9 6fa8 063a
000001d0: 89ea d1b7 1f14 503a ffc7 a3ba a0f7 6ebb
000001e0: 44b8 5fb9 9f0c fc3d 4d10 93bd fc13 dfbc
000001f0: afbd 26bd 620b 013e 38bf 62ba b0d8 8b39
00000200: 1eb5 bbbc 26ff 8139 36bd 0cbd 4ca3 8a39
00000210: c92c 843a fdbf 81ba 7482 6b3a 6498 9e3b
00000220: 694e 193a 931d ac3b 2edf 063e 6abe 84b9
00000230: 0bfe 30bc 4e3d a03c cd2f 9b3d 11d3 8fb9
00000240: 1b66 5239 9cb7 c0bd f04c 8d39 fe32 e93c
00000250: 8702 adbd 8a4b 093b 0fbf b339 6cfc 71bb
00000260: df00 d6bd 41aa 5839 fe45 043e b233 aa39
00000270: 2968 3fba 9f69 98bd 299c b2b9 533d c7b9
00000280: 990f 7cbc ad01 7939 c1b3 013d fc11 efbc
00000290: b466 dc3b e1bf b038 1678 073a 268b 8fbb
000002a0: 23a4 443b e39e 213a 6fc1 8a3c ebd5 7d3c
000002b0: b2ef 943a 7e3f 893a 757a 41b9 542c 4ebc
000002c0: 2b07 f239 d0d1 9a38 0dc3 6f39 df2d 2d3a
000002d0: 7b85 82ba 2a82 62ba e8e7 38ba fa33 a3b9
000002e0: bce3 1bbb d2da 373d f1af 833b c984 6ebc
000002f0: 3bcc bab9 72ec ae39 9309 ba3d 3a19 793c
00000300: 3976 87ba 9e5f 1eba 6c7e 89b9 e421 b63a
00000310: cd5a 163d 1e8d 313a e7d7 70b9 89a9 2eb9
00000320: 96b1 90bd 8dff 443b 6490 99bb 8554 87bb
00000330: e390 37bc 6884 8bba a724 c83c 2cf6 9d38
00000340: 085d aa3a 2d9e 8eb9 c679 5c3b 58ec b0bc
00000350: d05a 6dba 34dd 7639 472e c339 83c2 1139
00000360: 5768 183d 7ffb bfbb 58ed 73b9 d6a9 e138
00000370: 28ce e13c 3e89 373d 4c74 643d e3e2 a33c
00000380: 384e 31ba 21da fa3d 9eac b6b9 c284 723b
00000390: 0552 9ebc f55c bbb9 67b6 67bc c05d 90b9
000003a0: 017a 31b9 d0da 5fba f9b9 0b38 8a22 4439
000003b0: 4539 b3b9 c23b 2b3a 9411 963d 0ab6 3eb8
000003c0: 940c c8b8 b73b 7bbd 27a5 1fbc 90f4 b1b8
000003d0: 529b 573e 74d9 b5bc 2c7b 683b a945 11b7
000003e0: 7138 933c 75ba 93b9 134d 6cbd 6ceb 59ba
000003f0: 1833 a6bb e7ef bdb8 3a14 d0bc 13ba 60b9
-0.17370535 -0.0048686685 0.0028742081 0.00030375054 0.10257745 0.0005624794 5.2673236e-05 0.045986496
-0.07245036 0.025641864 -0.00013803437 0.00015757784 -0.014928081 -0.00086244545 -0.03953554 -0.00480676
0.016160663 -0.07367263 -0.08813451 -0.004186126 -0.038914703 -0.09081241 -0.00012453637 0.21786723
-0.009717443 -0.003415036 -0.020670658 -0.08950779 0.038841948 -0.03052222 -0.0031790892 0.17320625
-0.038523905 0.003444564 -0.0011519269 0.1782407 -0.034866836 0.027776213 -0.0033080233 0.0028208948
-0.011138345 0.0072547444 -0.007095868 -0.00033844757 0.00019853073 0.05266683 0.028938284 0.04183357
-0.07125298 -0.045571055 0.11110956 0.043760393 -0.03424256 0.0010206098 0.0016538735 0.35103756
-0.010445362 0.00012292623 0.04941702 0.17310102 0.0004333218 -0.00086651795 -0.00047866895 -0.036374696
0.00087619026 0.023143977 0.06429771 0.0002379855 0.00037880114 -0.00082283973 0.1026453 0.022225237
0.22399916 -0.041856576 0.09021387 0.0518702 -0.020139437 -0.00018806467 0.0003519551 0.005720819
0.0309413 -0.05344551 0.027111558 0.082328916 0.11853252 -0.0010491866 0.10219565 -5.669442e-05
0.0008799836 0.006913691 -0.004719703 -0.00038097292 0.00767411 0.068389624 5.144263e-05 -0.0011288801
-0.11003613 -0.00032368003 0.010145182 -0.00063353206 -0.04806967 0.0002476712 0.010758404 0.012477626
-0.00067407446 -0.025044793 0.00024582073 -0.0011117334 0.0005654382 0.06558485 -8.340409e-05 -5.0108185e-05
0.026396079 0.0002832222 -0.0002835324 0.0005136793 -2.5023955e-05 0.00079375686 -0.0012495517 -0.0036463514
-0.00021335582 0.12307095 -0.071808435 -0.027231209 -0.04070824 0.12601998 -0.00086497096 0.0002667359
-0.022913512 0.00024794898 -0.034360133 0.00026443077 0.0010084148 -0.0009899136 0.00089839776 0.0048399437
0.0005848171 0.005252549 0.13171074 -0.00025318871 -0.010802756 0.019560482 0.07577477 -0.00027432342
0.00020065198 -0.09410021 0.0002695094 0.028466698 -0.08447748 0.0020949566 0.0003428389 -0.0036924137
-0.10449385 0.0002066279 0.12917325 0.00032463443 -0.0007301593 -0.074420206 -0.00034067154 -0.00038001928
-0.015384578 0.00023747115 0.031665567 -0.02918338 0.0067261104 8.428074e-05 0.00051677355 -0.0043806015
0.003000506 0.00061653386 0.01693794 0.015492897 0.0011362939 0.0010471193 -0.00018451533 -0.012583811
0.00046163177 7.382373e-05 0.00022865478 0.00066062616 -0.0009957993 -0.0008640612 -0.00070535997 -0.00031128508
-0.0023786863 0.044886418 0.0040187766 -0.014558026 -0.00035628848 0.00033364032 0.090838574 0.015203768
-0.0010334916 -0.000604147 -0.00026224868 0.0013895598 0.036707688 0.0006773042 -0.00022968613 -0.0001665709
-0.07065122 0.0030059547 -0.004686402 -0.0041299486 -0.011203977 -0.0010644319 0.02443154 7.5321965e-05
0.0012997696 -0.000272022 0.0033641919 -0.021597072 -0.00090543646 0.00023542793 0.00037227778 0.00013900739
0.03720888 -0.005858838 -0.00023262703 0.000107604705 0.027564123 0.04480862 0.05577497 0.020005649
-0.00067636697 0.12248636 -0.00034842355 0.00370054 -0.01932622 -0.00035736678 -0.014142609 -0.0002753567
-0.00016925485 -0.00085393805 3.3313383e-05 0.00018704883 -0.0003418421 0.0006532037 0.073275715 -4.5469067e-05
-9.539086e-05 -0.061336245 -0.009743965 -8.485571e-05 0.21055344 -0.022198416 0.0035473807 -8.6588925e-06
0.01797125 -0.00028176946 -0.05769069 -0.00083129737 -0.005072009 -9.0569076e-05 -0.02540027 -0.00021431623

7.bias f4 [100]
00000000: 01af 76be f60d 26be bb4c aebb ae8e 703d
00000010: a1a4 acbd a9e4 00be cc16 ac3e f67a 41be
00000020: 9b3e 3dbe 3f33 96bd 3e31 1a3e 30e4 f13a
00000030: c710 0dbb 5e68 5abe 5c8e d1bc e005 78be
00000040: 50c3 2c3e d37f 243e 2e37 3fbe 0595 193c
00000050: 9737 64be 0558 8fbd ca2f 94be 13dd 443d
00000060: 8f83 2f3e 42e0 58be f942 223e 54ba 53be
00000070: 70cb 583d 16fb 603e 5c0f 513e 9268 c63e
00000080: 8ca2 b33e 361d 76bd 9e85 993c 7072 da3c
00000090: ae75 0cbd 62e0 ebbd 9c10 25be 2d2d a83d
000000a0: dc77 6abe c322 8fbd 60a2 2dbd f92f 68bc
000000b0: d884 053d 149e 68be e6aa 5cbe a96a 18be
000000c0: 09ea 82ba f1c1 9fbd 23ed 64be a686 953c
000000d0: f860 cbbe d081 263e bbd4 69be ab18 10be
000000e0: ae13 91bd f3bd dfbd e30c c13d 3a2d 80bd
000000f0: 0ac5 7fbd a86b 2ebe 58e2 023e 2ab2 393e
00000100: 8371 f7bb 66a5 413e a7ba 7dbd f0e8 dcbb
00000110: 1141 213e abe5 f23d 31a4 38be 5419 8abe
00000120: 18ff 82be 5df9 babd a0f1 dfbc 2261 88be
00000130: 673d 77be 9fbb 7bbd 0d98 993d ff1a 65be
00000140: 06a1 99bd 3e13 083e fed9 623e c05f 30bd
00000150: ba67 65bc 3fa2 32bd 9c25 903d aa4b f3bd
00000160: 9c34 d2bd 5c51 a9bc c2a4 68be cad1 bfbd
00000170: 3f31 b2bd 5de3 ae3e 8b2f 83bc d22d 1cbe
00000180: f932 bebd b6e0 05bf 20b0 033d 4194 253e
-0.24090196 -0.16216263 -0.0053192056 0.05872982 -0.08429838 -0.12587227 0.33611143 -0.18894562
-0.18480913 -0.07333993 0.15057847 0.0018454846 -0.0021524893 -0.21328875 -0.025580578 -0.24220991
0.16871381 0.16064386 -0.18673393 0.009373908 -0.22286831 -0.0699921 -0.2894271 0.048062395
0.1714003 -0.21179298 0.1584586 -0.20676547 0.052928388 0.21970782 0.20416015 0.38751656
0.3508495 -0.06008645 0.018740471 0.026665896 -0.034291916 -0.11517407 -0.16119617 0.082117416
-0.22897285 -0.06989052 -0.04239118 -0.014171594 0.032597393 -0.22716552 -0.21549568 -0.14884438
-0.0009987961 -0.07800663 -0.22356085 0.018252682 -0.3972242 0.16260457 -0.22835056 -0.1407191
-0.07083832 -0.10924902 0.09426286 -0.06258626 -0.06244377 -0.17033255 0.12781656 0.1813437
-0.0075513734 0.18910751 -0.061945584 -0.0067416355 0.15747477 0.11860212 -0.18031384 -0.2697245
-0.25585246 -0.091295935 -0.027336895 -0.26636606 -0.24144517 -0.061458226 0.074997045 -0.2237358
-0.07501416 0.1328859 0.2215347 -0.043060064 -0.014001781 -0.04361176 0.070384234 -0.11879666
-0.10263941 -0.020668678 -0.227191 -0.09366186 -0.08700799 0.3415784 -0.016013881 -0.15251854
-0.09287066 -0.52296007 0.032150388 0.16169836

9.weight f4 [100, 100]
00000000: 7daf 53bd 7376 4039 191c 8f3e 2d2c 003e
00000010: 08d9 933a 52bb 6e3d 0cd8 be3d 9051 41bd
00000020: 57fb 9bb9 fcb5 0e3c 90c5 bd3b 5b0d c4bc
00000030: ba17 5cbb 189c d2b8 8fce c4bd 5525 d13d
00000040: ab80 a5bc cae7 0ebd 249f 0c3d 3236 d63c
00000050: 3910 163b 22ca a0ba 236e 2039 3cc2 a03d
00000060: 1096 27bd a18f b6bd d758 6eb9 c033 0e39
00000070: c9b8 0f39 d9e5 dfba 7d8e 65bc 2619 683d
00000080: c057 8c37 450d 303c 849e 923e 7de1 44bc
00000090: a5a0 bebb 95be 0a3e 9ea7 43bc ab8a 103e
000000a0: ed5f aebc bca2 abbc f783 cb3a 2709 32bd
000000b0: bf3f 35bd 01ec 7fb9 f695 aabd 5e62 64bb
000000c0: ae34 643b 8b36 f3bc 478a 92b9 ca24 9439
000000d0: 5cca f939 fa87 f73b 2eb6 df3b 08e6 af3b
000000e0: b77c fcb8 0066 1e3d 4cca 4b3a b432 b437
000000f0: 45a0 63bc 6cd0 d1bd 5574 e73c 61a2 d53d
00000100: 5f00 033a 6ee5 ac3d e40f a7bd 8e52 8c39
00000110: 6343 0dbb 2158 cb3c 5a96 4dbb 8505 33bc
00000120: c8da 22be 036a 98bc 3b5b 4f3e 4638 253d
00000130: 5faa b73a 2559 05bd ff57 5c3e cd92 b53c
00000140: 875d 4a3e e632 74bb ab2e 1e3e 33f2 9f3a
00000150: 67f0 37bc 66a6 15ba 55a1 a3bc 08fd 77be
00000160: 4a53 ba3a b25b 143a 2260 00bd a97a ce3d
00000170: a0f1 e8bc 89cd d2bd aa59 1a3d a04d 12bc
00000180: 0025 3b3e 19ce 90bd 8a1f a0b9 4fa7 e4ba
00000190: f393 a53b e6db 57b9 33f8 483d 97fe 7c3c
000001a0: 0ddd 0cbe c30c 0b3c b148 0fba 199e 07be
000001b0: 1fb8 25bd 542c dabc 9400 173c e24a 023e
000001c0: 95e7 503c 333b 853b fe0e d2bc bc0a 4e3d
000001d0: 7222 aebc 7072 583a 26b0 5f3c 9eb0 9cbd
000001e0: 6404 94bd 97c6 02b8 d1a0 d33d 01db 55b8
000001f0: 78ee 023e 8f66 06ba 9107 e63d f699 293c
00000200: f23f 0b38 f3e8 9fbd 2312 7ebd a7de 2fbd
00000210: 84f4 fd3a 38be 3f3a a4b8 bd3a 9171 e73d
00000220: 513d 1ebc d50a 8a39 0695 9b39 2155 ac3b
00000230: d2f6 05bb 5d10 a43d d293 5636 17b7 59bd
00000240: 311a b93a 6ff1 87bd ee32 a0b8 d0a6 e03c
00000250: c967 8cb9 04aa 18bc f031 a53c 7e8b 1dbe
00000260: 52fa f63d 706d 1e3d dde1 8a3c 4167 f33d
00000270: 11ec 21be 095d 913d 1ed1 2d3b 46c9 c0bd
00000280: 7e17 b83c 1023 a4bb 431a c939 6604 8238
00000290: e3b3 9fb9 da3f 3ebe 47b3 17bb 29ab cdbb
000002a0: 15fa c53c c393 04bb 468e d4bb d304 f6bd
000002b0: a172 19bd 3026 98bd 0fc5 ea3a 45c2 1c3d
000002c0: de22 29bd 3680 6b3b 1dc0 6ab9 b63c b23d
000002d0: a64a 11b9 b37c 273e d487 22b9 8b2c b739
000002e0: 7762 c5b9 809e 4e3d daa1 81b9 fcb2 4dbc
000002f0: 36d7 883b 14d7 9239 d293 67b9 1d9a 183d
00000300: 17cb b7b9 d178 21ba 33c0 e1bc 7c53 aabd
00000310: 5034 e53c 8f13 4c38 e298 fb3c ad14 1739
00000320: f62b 583d a02a 07bd 1471 183b 7079 d3ba
00000330: df2b 31bc e50d 88bc 09b8 06be 2778 193b
00000340: e053 3f3d 6395 253b b6fb a83b 1c46 113a
00000350: 6e8c c13d c35c fbb9 7f85 cb3d 3aa9 0eba
00000360: ff8a 61ba 0ac9 0f3d 54d8 5db9 47de d7bc
00000370: 629b 503a c28b a1b9 c6f2 0ebd 6a50 0e3d
00000380: e66d 53be 1e18 03ba 27bf 4e38 acd9 a6bc
00000390: cffa 3e3b e502 39ba e3ee ce3b 3846 ed3c
000003a0: 3628 103c 991d 52bc c29d 17bd eafa a739
000003b0: fd85 a4bd 0524 cfb9 4beb 843d 3b8f 2439
000003c0: 8b30 86bb a2bc 8cbc f08c d0ba e9bd ec3c
000003d0: a57a 58bd 65ce 42b9 6a99 413d 5c27 9a3d
000003e0: 1651 0b3a 49af 8fbd 6fe3 27b9 01f5 31bd
000003f0: 7ec2 0d3d 8e94 0cbd a373 88b9 a29b 063d
-0.05168103 0.00018354673 0.27951124 0.12516852 0.001127989 0.05828411 0.093185514 -0.047196925
-0.00029751167 0.008710381 0.0057913736 -0.02393215 -0.0033583478 -0.00010042655 -0.096097104 0.10212199
-0.020202955 -0.03488902 0.034331456 0.02614889 0.0022897853 -0.0012267272 0.00015299818 0.07849547
-0.040914595 -0.08914114 -0.00022730544 0.00013561454 0.0001370638 -0.001708205 -0.014011023 0.05666461
1.6730162e-05 0.010745351 0.28636563 -0.012016651 -0.00581749 0.13549264 -0.0119418185 0.14115398
-0.021285975 -0.020951621 0.0015527 -0.04346576 -0.044250246 -0.00024406613 -0.08329384 -0.003484867
0.0034821439 -0.029689094 -0.00027950315 0.0002825617 0.0004764375 0.0075540515 0.0068271374 0.005367998
-0.00012039526 0.038671494 0.000777398 2.1481283e-05 -0.013893192 -0.102448314 0.028253714 0.10431362
0.0004997309 0.08442198 -0.08157328 0.0002676439 -0.0021555058 0.024822297 -0.0031370134 -0.010926609
-0.15903771 -0.018605238 0.20249645 0.04033687 0.0014012567 -0.032555718 0.21517943 0.022164727
0.1976224 -0.0037261783 0.1544749 0.0012202918 -0.01122675 -0.0005708694 -0.01997439 -0.24217618
0.0014215496 0.00056594156 -0.03134168 0.10081989 -0.028435528 -0.10293109 0.037683167 -0.00892964
0.18275833 -0.0707056 -0.00030541077 -0.0017444881 0.0050530373 -0.00020585916 0.049064826 0.015441558
-0.13756199 0.008486929 -0.0005465849 -0.13243903 -0.040458795 -0.026632465 0.009216446 0.12723878
0.012750526 0.004065895 -0.025641914 0.050303206 -0.02125666 0.00082567986 0.013652837 -0.076508746
-0.072274 -3.1179366e-05 0.10333408 -5.098712e-05 0.12786281 -0.0005126977 0.11231912 0.010351649
3.3199736e-05 -0.078081034 -0.062029015 -0.042936947 0.001937524 0.00073144166 0.0014474583 0.11300958
-0.009658174 0.00026329482 0.00029674935 0.0052591716 -0.0020441306 0.080109335 3.1974528e-06 -0.053153124
0.0014122186 -0.06637847 -7.638881e-05 0.027423292 -0.00026780207 -0.009317879 0.020165414 -0.15385243
0.120594636 0.038678586 0.016953403 0.118849285 -0.15812708 0.07097823 0.0026522349 -0.0941339
0.02247214 -0.0050090626 0.00038357274 6.199702e-05 -0.0003046087 -0.18579045 -0.002314763 -0.0062765074
0.0241671 -0.0020229674 -0.006486687 -0.12012639 -0.037462834 -0.07429159 0.0017911511 0.038271207
-0.041293018 0.0035934574 -0.00022387547 0.08702986 -0.00013856086 0.16356163 -0.00015500124 0.00034937667
-0.0003764813 0.050444126 -0.00024725386 -0.01255488 0.004176046 0.00028007536 -0.00022084944 0.03725635
-0.00035055794 -0.00061596656 -0.027557468 -0.08316705 0.027979046 4.8655605e-05 0.030712549 0.00014408185
0.0527763 -0.032999635 0.002326076 -0.0016134214 -0.010813682 -0.016608188 -0.13156141 0.0023417564
0.04671085 0.0025266043 0.0051569594 0.0005541758 0.09450613 -0.00047943564 0.09937572 -0.0005442087
-0.0008603781 0.035103835 -0.00021156791 -0.026351107 0.0007957724 -0.0003081244 -0.034899496 0.034744658
-0.20647392 -0.0005000847 4.929225e-05 -0.020367466 0.0029141193 -0.0007057621 0.0063150986 0.028964147
0.00879865 -0.012824439 -0.037015684 0.00032039668 -0.08033369 -0.00039508953 0.06490191 0.00015693616
-0.0040951422 -0.01717979 -0.0015911143 0.02889915 -0.052851338 -0.0001857817 0.047265448 0.075270385
0.0005314512 -0.07015855 -0.00016011087 -0.043446545 0.03460931 -0.03432136 -0.00026026097 0.032863267

9.bias f4 [100]
00000000: 09b1 803e ab2f 88bb 9279 0cbd 791b 223e
00000010: 2ba6 303b 7fac 48bc 8778 7c3d d0a2 c6bd
00000020: 633f 853e 5cf4 5d3d 3ec8 a2bc a6b0 873e
00000030: fb69 89bd 4061 8ebe af9e c33d bc4a 443d
00000040: 6db4 c1bc cef8 25be 864b 0d3e e8e5 813e
00000050: f474 183e 95e8 493e 34e6 8d3d 325f d0bc
00000060: 8af6 2a3d 36df c7bd 689a b839 b3da 4ebd
00000070: bb3e bdbd ee98 063e 8ae8 91bd a636 553e
00000080: d67d eebd 059c a6bb 8985 143e f0d7 983d
00000090: af43 313e f762 cabb 5570 eabe 4e0e 9f3c
000000a0: 831b c7bc 7338 c6bc e182 9c3d 9b52 82be
000000b0: 196f 0a3e c601 0fbe 05e9 8b3d ded7 41be
000000c0: 5400 eebd 4b8c 02be 3b47 493e e107 fe3d
000000d0: 3a23 093e 70be 443e 3d72 07be 495c ca3d
000000e0: db12 61bd 1fb6 663d 56e9 033e c6b2 a83d
000000f0: 2ba1 98bd 5b8d ba3e b1ac f2bd f872 27bb
00000100: de0a a23d 3bec d13d ce7c e1be bc2d f83d
00000110: 919c c23d d46f 79be e8db 503e 5462 be3d
00000120: d8db 253e 58a7 593e 5e68 893c 207a 06bd
00000130: be57 4b3e e145 013e b49a 08bd 728b 183d
00000140: 6333 973d 9573 783e 1c01 833e 946f 8ebd
00000150: 5387 033e 1132 7f3e af38 fa3d e9f8 043d
00000160: b373 d43c a3b3 943e 394f d5bd 91ce 7b3e
00000170: 3635 e8bc 7004 6d3e 9e9b 6e3d c9db eb3d
00000180: bcf5 453d 307c 093f e71a ae3d ca9d 003e
0.25135067 -0.004156073 -0.034295626 0.15830792 0.0026954513 -0.0122481575 0.06163838 -0.09699023
0.26024923 0.054188117 -0.019870874 0.2650196 -0.06709667 -0.2780857 0.09551751 0.047922835
-0.023645604 -0.16208193 0.13798341 0.25370717 0.14888364 0.19717629 0.069286734 -0.025436018
0.041739024 -0.09759371 0.00035210256 -0.050501537 -0.092404805 0.13144276 -0.071244314 0.20821628
-0.11645095 -0.005084517 0.14504065 0.07463062 0.17310975 -0.0061763483 -0.45788828 0.019416
-0.02430511 -0.024196839 0.07642151 -0.25453648 0.13518943 -0.1396552 0.06831554 -0.18930003
-0.11621156 -0.1274883 0.19656079 0.124038465 0.13392344 0.19213271 -0.13227172 0.09880883
-0.054949623 0.056326028 0.1288198 0.08237223 -0.07452615 0.3643597 -0.118493445 -0.0025550704
0.07912229 0.102501355 -0.4404053 0.12118098 0.09502519 -0.24359065 0.20396388 0.09296098
0.16197145 0.21255243 0.016773399 -0.03283131 0.1985769 0.12624313 -0.03335066 0.03724236
0.07382848 0.24262841 0.25586784 -0.069548756 0.12844591 0.24921443 0.12217843 0.03246394
0.025934076 0.29043302 -0.10415501 0.24590518 -0.028345685 0.23146224 0.058253877 0.1151653
0.048330054 0.5370512 0.08501225 0.12560192
