models/mnist_conv_2.pt (torch, 669427 bytes, 10 tensors)

0.weight f4 [16, 1, 4, 4]
0	0x37ee5b6d	2.8414384e-05
1	0x36d573b6	6.361365e-06
2	0xb8a9f004	-8.1032544e-05
3	0x381ea4e8	3.7823716e-05
4	0xb83fc059	-4.5717086e-05
5	0x37b0b3ee	2.1064621e-05
6	0x376b9bf1	1.40433995e-05
7	0x38e8304d	0.00011071619
8	0xb8894bcd	-6.546788e-05
9	0xb6aab01f	-5.086898e-06
10	0x38e51362	0.00010923181
11	0xb84ca37a	-4.878964e-05
12	0xb886a45b	-6.4202315e-05
13	0x3740eca9	1.14991935e-05
14	0x3fd8033e	1.687599
15	0x38f1cbab	0.000115297116
16	0xb8aba692	-8.1849415e-05
17	0x38f4e2a6	0.00011677043
18	0x37e55307	2.733759e-05
19	0xb8591be1	-5.1762796e-05
20	0xb617ba50	-2.2609202e-06
21	0x40892d10	4.286751
22	0x38bdfe5d	9.059601e-05
23	0xb7823458	-1.5521582e-05
24	0xb77a5f96	-1.49234165e-05
25	0x38abe190	8.19593e-05
26	0x35813ba5	9.628608e-07
27	0xb84b01c8	-4.840063e-05
28	0xb762267c	-1.347961e-05
29	0xb82ba62b	-4.0924333e-05
30	0xb83f3458	-4.5586698e-05
31	0xb89a869f	-7.3683674e-05
32	0x37433110	1.1634329e-05
33	0x3606b6bb	2.007392e-06
34	0xb70f70c7	-8.549722e-06
35	0xb7ab148c	-2.0394356e-05
36	0x3749474d	1.1997135e-05
37	0xb728a1c9	-1.0051249e-05
38	0xb6e8ef32	-6.941985e-06
39	0xb72957eb	-1.0093655e-05
40	0x3760a26f	1.338926e-05
41	0x36b676d3	5.4378556e-06
42	0xbd129d42	-0.035794504
43	0xbdb9e431	-0.09076727
44	0x3723a04e	9.752881e-06
45	0xb793075e	-1.7527196e-05
46	0xbdb158e0	-0.0865953
47	0x372aabb6	1.0172769e-05
48	0x36bd25d1	5.6370413e-06
49	0x33d216d0	9.7830366e-08
50	0xb66205d1	-3.368001e-06
51	0x374b2c89	1.2110112e-05
52	0xb713c53b	-8.807804e-06
53	0xb5fa376c	-1.8642581e-06
54	0xb485f89f	-2.4954076e-07
55	0xb7468034	-1.1831569e-05
56	0xb6824501	-3.882335e-06
57	0x343ca75f	1.7569754e-07
58	0xb763783d	-1.35582495e-05
59	0x3756f40a	1.2812214e-05
60	0xb34b661e	-4.7357496e-08
61	0x36a33e01	4.8649968e-06
62	0x366cc158	3.5279281e-06
63	0x35be1083	1.4160909e-06
64	0x38c1cc53	9.2410155e-05
65	0x3f08c846	0.53430593
66	0x3f928d77	1.1449422
67	0x3ab672c3	0.00139197
68	0x38bd3cdb	9.0235575e-05
69	0x3991fb6c	0.0002784388
70	0x39b1ee58	0.0003393765
71	0x39867dbf	0.0002565216
72	0x37e47c17	2.7237502e-05
73	0x395a1a50	0.00020799902
74	0x395d8acf	0.00021127913
75	0x39868269	0.00025655635
76	0x382feb55	4.194242e-05
77	0x37c23153	2.314957e-05
78	0x3918ae97	0.0001456089
79	0x39558035	0.00020361024
80	0x386ca107	5.6416753e-05
81	0x37e7a16f	2.761252e-05
82	0x38125949	3.4892266e-05
83	0x381b9888	3.7096936e-05
84	0x407d2f5c	3.9560156
85	0x38af2074	8.350695e-05
86	0x3655ea6b	3.1875923e-06
87	0x378bac94	1.6650454e-05
88	0x3894b7f1	7.091452e-05
89	0xb7ee7742	-2.8427345e-05
90	0xb6da1be0	-6.5001514e-06
91	0xb81a2aca	-3.675631e-05
92	0xb7478309	-1.1891833e-05
93	0xb875b566	-5.8581492e-05
94	0xb79e4cca	-1.8870825e-05
95	0x381e80a7	3.7789952e-05
96	0xb75b76fa	-1.3081119e-05
97	0xb7aade26	-2.0369025e-05
98	0x36930817	4.381883e-06
99	0x36631996	3.384053e-06
100	0xb707937f	-8.080969e-06
101	0x36abd377	5.120815e-06
102	0xb72a0cb6	-1.0135749e-05
103	0xb7bb5ace	-2.2334421e-05
104	0x34d90303	4.042159e-07
105	0xb636777e	-2.7189667e-06
106	0xb6bb07d6	-5.5739465e-06
107	0xb6ecb033	-7.0538604e-06
108	0xb622c3cf	-2.4253857e-06
109	0xb6af39b0	-5.222122e-06
110	0x36c0f974	5.751086e-06
111	0x3647d5cd	2.977776e-06
112	0x38d70ccf	0.00010254385
113	0x396218d9	0.00021562296
114	0x3934bfc3	0.00017237575
115	0x38ea2771	0.00011165336
116	0x3842b164	4.6418412e-05
117	0x40206f62	2.5067983
118	0x38f08d7c	0.00011470445
119	0x38b80f2a	8.776628e-05
120	0x39018578	0.0001235212
121	0x3896c338	7.18892e-05
122	0x39126628	0.00013961701
123	0x38cf9690	9.8985736e-05
124	0x38cd8d20	9.801448e-05
125	0x38c71aa9	9.494025e-05
126	0x38a21c4e	7.730034e-05
127	0x387537db	5.846457e-05
128	0xb6cddd1e	-6.1352175e-06
129	0x36d98fa3	6.4838255e-06
130	0x37056b86	7.9524525e-06
131	0x365b7662	3.270245e-06
132	0x380d1df2	3.364491e-05
133	0x334b4e87	4.733604e-08
134	0xb7575689	-1.2835147e-05
135	0x3712c880	8.748961e-06
136	0x373f57fe	1.1404974e-05
137	0xb68b9f28	-4.161051e-06
138	0x36ab9a74	5.114178e-06
139	0xb60286f9	-1.9450074e-06
140	0x37a6643a	1.9835414e-05
141	0x36b00b6d	5.246539e-06
142	0xb7b56613	-2.1624413e-05
143	0x35a037ec	1.1937204e-06
144	0x37527d2e	1.2546121e-05
145	0x35f7035f	1.8403915e-06
146	0xb704ae36	-7.908375e-06
147	0xb7a9db24	-2.0248415e-05
148	0x3ca3c425	0.01999099
149	0xb72be18c	-1.02449085e-05
150	0xbd5a5e42	-0.053312548
151	0xb72b1ec1	-1.0199555e-05
152	0x3777a836	1.4761512e-05
153	0x3bab67fb	0.0052309013
154	0xb4bf22b4	-3.5601772e-07
155	0xb713e542	-8.815261e-06
156	0x37290150	1.0073491e-05
157	0xb78b4511	-1.6602253e-05
158	0x3d9d9063	0.07693555
159	0x372fc957	1.0477691e-05
160	0x3742cec3	1.1611442e-05
161	0x35b8d379	1.3770615e-06
162	0xb70d69c8	-8.428884e-06
163	0xb7b5234d	-2.159332e-05
164	0xbca8debf	-0.020614026
165	0xb7247e1c	-9.804524e-06
166	0x3d6158ef	0.055016454
167	0xb727b81b	-9.996841e-06
168	0x37677a36	1.3797127e-05
169	0xbbb09bcb	-0.0053896657
170	0x3d067dd7	0.032834854
171	0x3daa7e97	0.08324926
172	0x37229fec	9.693187e-06
173	0xb7905c05	-1.7208988e-05
174	0xb75a9c32	-1.303018e-05
175	0x372aef13	1.0188453e-05
176	0xb893d3b6	-7.0489405e-05
177	0xb8e1cd89	-0.0001076712
178	0xb8abe03a	-8.195681e-05
179	0xb8fe6ac2	-0.00012131549
180	0xb6cde9f2	-6.136711e-06
181	0xb7bed6ec	-2.2749846e-05
182	0xb83d89e5	-4.5189536e-05
183	0xb8b8e135	-8.815752e-05
184	0x38f1590d	0.000115083625
185	0x40878b65	4.235766
186	0x3828b182	4.021964e-05
187	0xb84b03c8	-4.8402493e-05
188	0x380513ab	3.172799e-05
189	0x3803e775	3.1448395e-05
190	0xb8027c6c	-3.1110292e-05
191	0xb83a18ae	-4.436884e-05
192	0xb7f64468	-2.935734e-05
193	0xb8853ac6	-6.3528816e-05
194	0xb707515d	-8.065571e-06
195	0xb99a7f72	-0.00029468123
196	0xb834906b	-4.3049844e-05
197	0xb7cd32e5	-2.4461604e-05
198	0xb88c075f	-6.677093e-05
199	0xb8eb3487	-0.00011215457
200	0xb8725300	-5.7774596e-05
201	0xb88bfce0	-6.675138e-05
202	0xb9848431	-0.00025275492
203	0x3e7d0c37	0.24711691
204	0xb8ea773b	-0.00011180198
205	0xb8b7f67a	-8.77203e-05
206	0xb8a9a912	-8.09004e-05
207	0x3f9221f9	1.1416618
208	0xb83c2ae1	-4.4862627e-05
209	0xb8c68725	-9.466548e-05
210	0xb89f1ebb	-7.587435e-05
211	0xb8997d4e	-7.318948e-05
212	0x38f1c645	0.00011528706
213	0xb7c9b888	-2.4046996e-05
214	0xb885a966	-6.373487e-05
215	0xb810955e	-3.4471384e-05
216	0x4080adc6	4.0212126
217	0x381c3595	3.72432e-05
218	0x3783f62b	1.5731048e-05
219	0x36920d7e	4.3527098e-06
220	0x38513315	4.9877057e-05
221	0x38062fdf	3.1992673e-05
222	0xb8499e88	-4.8069778e-05
223	0xb7963acf	-1.7908778e-05
224	0x373f64f4	1.1407992e-05
225	0x3532c96d	6.660328e-07
226	0x36cd772d	6.12335e-06
227	0x3636c32f	2.7233725e-06
228	0x342e70c8	1.6246042e-07
229	0xb5fc5943	-1.8801442e-06
230	0xb65e3327	-3.3110352e-06
231	0x35b429ee	1.3423248e-06
232	0xb6f2fffb	-7.241962e-06
233	0x3650c25e	3.1107552e-06
234	0x365fa289	3.3324197e-06
235	0x3714f108	8.877607e-06
236	0x37362f35	1.0859037e-05
237	0x350c4e05	5.22676e-07
238	0x35c1b60d	1.4432604e-06
239	0x379cea00	1.8705614e-05
240	0xb949c654	-0.00019242737
241	0xb916f9af	-0.00014398129
242	0xb7df4dc1	-2.6619879e-05
243	0xb767d239	-1.3817619e-05
244	0xb926b24a	-0.00015897412
245	0xb84340cb	-4.6551966e-05
246	0x3907e4df	0.00012959864
247	0x3947de9e	0.0001906105
248	0xb942bf7c	-0.00018572615
249	0xb90b4b10	-0.00013284036
250	0x40084f76	2.12985
251	0x3ae09c1a	0.0017136366
252	0xb904b684	-0.00012656493
253	0x3821cd45	3.8576563e-05
254	0xb77cdbcf	-1.5071549e-05
255	0xb92c4ccc	-0.00016431807

0.bias f4 [16]
0	0xbe8a608a	-0.27026778
1	0xbf2fa629	-0.68612915
2	0x3f7c1c08	0.9848027
3	0xbd8c3f9b	-0.06848069
4	0xbe8a829d	-0.27052775
5	0xbf22116c	-0.63307834
6	0xbe5985ed	-0.21242495
7	0xbecd7ce0	-0.40134335
8	0xbae2b416	-0.0017296101
9	0x3f6cab12	0.9244853
10	0x3f718184	0.9433825
11	0xbf2d8920	-0.6778736
12	0xbe6cf1a4	-0.23139054
13	0xbf24b90e	-0.6434487
14	0xbaabf384	-0.0013118838
15	0xbeaedb42	-0.34151655

2.weight f4 [32, 16, 4, 4]
0	0x3a026ef4	0.000497564
1	0x38fe5de6	0.00012129154
2	0xb98fab60	-0.0002740277
3	0xb9aa33f6	-0.0003246364
4	0x3831b29b	4.2366428e-05
5	0x3980b456	0.00024548423
6	0xb9df0ee7	-0.00042544978
7	0xbdb3805d	-0.08764718
8	0xb93e7e20	-0.00018166797
9	0xb7a8cb56	-2.0121846e-05
10	0x39dd5db4	0.0004222222
11	0xb7eaed75	-2.8005548e-05
12	0xbd33f57c	-0.043935284
13	0x3caade5c	0.020857982
14	0xb9604e64	-0.00021391507
15	0xbcd2b054	-0.025718845
16	0x3d789282	0.060686596
17	0xbb9c81fa	-0.0047762366
18	0xbdf4cbac	-0.1195291
19	0xbb8128a1	-0.003941611
20	0x3c5f12d8	0.013615333
21	0x3e47a9fd	0.19498439
22	0xbdada9f5	-0.08479682
23	0xbece5dbd	-0.40305892
24	0xbd1dbfcb	-0.038512986
25	0x3e49440c	0.19654864
26	0x3c5e50c7	0.0135690635
27	0xbe803346	-0.2503912
28	0xbe101982	-0.1407223
29	0x3e1eae26	0.1549612
30	0x3ddb5fac	0.10711607
31	0xbd58c3cd	-0.052921105
32	0x39c702d5	0.00037958348
33	0x39db8e33	0.00041876882
34	0x39e44fe8	0.00043547084
35	0x39b797df	0.00035017633
36	0x39ba449c	0.00035527803
37	0x39b44ea2	0.0003439086
38	0x39bf83ac	0.00036528462
39	0x398d69c3	0.00026972414
40	0x39c95a64	0.00038405054
41	0x39bd95b8	0.00036160438
42	0x39acd9e7	0.00032968746
43	0x3992a308	0.00027968758
44	0x39b8d5c4	0.00035254483
45	0x39a839af	0.00032086435
46	0x39b1997a	0.0003387442
47	0x39a1ba88	0.0003084729
48	0x370eb8c2	8.506877e-06
49	0xb609e79f	-2.0549412e-06
50	0x3776e5ec	1.47162755e-05
51	0xb7e821a8	-2.7672228e-05
52	0x3723d262	9.764541e-06
53	0x36328500	2.6601483e-06
54	0x366d1c6c	3.5332296e-06
55	0xb6796ff7	-3.7169063e-06
56	0x342dc812	1.6184666e-07
57	0x371a7182	9.205543e-06
58	0x38043c7d	3.1527587e-05
59	0x360b3201	2.074172e-06
60	0xb63ac6db	-2.783191e-06
61	0xb7b07fb0	-2.1040294e-05
62	0x35cefe47	1.54222e-06
63	0xb702fa05	-7.806816e-06
64	0x3d4f38fe	0.05059146
65	0xbd04a6ae	-0.03238552
66	0xbabdc469	-0.001447809
67	0xb91a6b59	-0.00014726575
68	0x39e4d3d2	0.00043645367
69	0x3729fbac	1.0131782e-05
70	0xb859386d	-5.1789382e-05
71	0xb944ddc7	-0.00018774635
72	0xb8a64ea9	-7.9301484e-05
73	0x397eae0b	0.00024288164
74	0xba907243	-0.0011020381
75	0xba160b9d	-0.00057237764
76	0xb8ad9a73	-8.278051e-05
77	0xb9a63895	-0.00031704144
78	0xb919b051	-0.000146569
79	0xb9aec7f1	-0.00033336834
80	0x3cfbe896	0.030750554
81	0x3cd6e3bf	0.026231645
82	0xbd48abd4	-0.048991993
83	0xbdb84477	-0.08997434
84	0xbd642e67	-0.055708315
85	0x3e429cf5	0.19005187
86	0x3d3bca91	0.04584748
87	0xbe953586	-0.29142398
88	0xbe0832d4	-0.1330064
89	0x3dfc8b65	0.12331275
90	0x3e2e1493	0.17000036
91	0xbe83dbc3	-0.25753602
92	0xbe528f4f	-0.2056248
93	0xba123b22	-0.00055782695
94	0x3e4190a7	0.18902837
95	0x3d2e03cb	0.042484086
96	0x357947d3	9.2864246e-07
97	0xb6e6e635	-6.881334e-06
98	0x35f614f9	1.8334532e-06
99	0xb7b3ce8c	-2.1434644e-05
100	0xb718f90c	-9.117892e-06
101	0xb6b26fe6	-5.31784e-06
102	0xb61deb1c	-2.3531675e-06
103	0xb710d215	-8.631982e-06
104	0x35f37ae9	1.8140682e-06
105	0xb53f3235	-7.1226106e-07
106	0x3693b0a0	4.4015032e-06
107	0x37b19034	2.1167194e-05
108	0xb6dc14bb	-6.5589243e-06
109	0x36ad4d8a	5.1648285e-06
110	0xb55e83f8	-8.2893484e-07
111	0xb727a0ae	-9.991387e-06
112	0x3a7fabc3	0.00097530725
113	0x38e2b52c	0.00010810266
114	0xbc381476	-0.011235347
115	0xba257358	-0.0006311438
116	0x3a3a6806	0.00071108376
117	0x3d05e228	0.032686383
118	0xba632b95	-0.0008665857
119	0xba34f4e7	-0.00069029484
120	0xba1d2565	-0.0005994647
121	0x3d297788	0.04137376
122	0x38c4aa29	9.377703e-05
123	0xbc1aa717	-0.009439251
124	0xba0aa0d4	-0.00052882475
125	0x3b5786ed	0.0032886819
126	0x3a678e45	0.00088331505
127	0x3820fd50	3.838289e-05
128	0xb549372b	-7.4958615e-07
129	0xb6e18e12	-6.7220617e-06
130	0x35211f08	6.002233e-07
131	0xb6044870	-1.9711697e-06
132	0xb6846814	-3.946023e-06
133	0x37733a48	1.4497498e-05
134	0x372a3306	1.0144669e-05
135	0xb60021f5	-1.9093252e-06
136	0x3762c8b7	1.3517382e-05
137	0x3776f35a	1.4719402e-05
138	0xb5752843	-9.13282e-07
139	0x36316ff5	2.6440223e-06
140	0xb65c2ad3	-3.2807482e-06
141	0x35b7adb2	1.3685114e-06
142	0xb747f802	-1.1919068e-05
143	0x363c3345	2.8044026e-06
144	0x39dae110	0.00041747885
145	0x39de83c6	0.00042441319
146	0x39cb6e03	0.00038801142
147	0x39b04a55	0.00033624718
148	0x39ae32ca	0.00033225707
149	0x39af7011	0.00033462097
150	0x39aa7abc	0.0003251637
151	0x398b66bf	0.00026588698
152	0x39a18e03	0.0003081412
153	0x39a7a1d4	0.00031973294
154	0x39bbbb05	0.0003580676
155	0x399350a1	0.00028098098
156	0x39a8f38e	0.0003222492
157	0x39bb05b4	0.0003567167
158	0x39b66830	0.0003479137
159	0x398f6d39	0.00027356463
160	0x39dff4db	0.00042716306
161	0x39c24212	0.0003705179
162	0x39ce487f	0.00039345396
163	0x39b74c40	0.0003496129
164	0x39b035bb	0.00033609368
165	0x39acc945	0.00032956354
166	0x39afbcbf	0.00033519228
167	0x399d6865	0.00030023154
168	0x39af4987	0.00033433383
169	0x39ad816d	0.0003309356
170	0x39afb233	0.0003351137
171	0x398d98e1	0.0002700752
172	0x39c1c51a	0.0003695868
173	0x39c3051b	0.00037197102
174	0x39c2e6f5	0.0003717464
175	0x3999895e	0.0002928478
176	0x3cdb4679	0.026767002
177	0x3cce955d	0.025217706
178	0xbdefe0de	-0.11712812
179	0xbc58d4a3	-0.01323429
180	0xbcc72a5b	-0.024312189
181	0x3e6b381f	0.22970627
182	0xbd8831db	-0.06650134
183	0xbf02a894	-0.5103848
184	0xbe156afd	-0.14591594
185	0x3e325e71	0.17418839
186	0x3dfb1bb5	0.12261144
187	0xbdf0892c	-0.117449135
188	0xbdc60b6d	-0.09670148
189	0x3d5dc5e6	0.05414381
190	0x3dcab9fc	0.09898755
191	0xbabc4ec3	-0.0014366735
192	0x3951c427	0.00020004866
193	0xb9897932	-0.00026220974
194	0xb90e05ef	-0.00013544386
195	0x393e7b66	0.00018165782
196	0xb90ec2e3	-0.00013614776
197	0xb9776196	-0.00023592109
198	0xb9cb1a47	-0.00038738755
199	0xb8a7458c	-7.976135e-05
200	0xb863a926	-5.427855e-05
201	0x39c80bb9	0.00038155707
202	0x36a8aa72	5.0266326e-06
203	0xb94c3098	-0.00019473059
204	0xb93190e6	-0.00016934014
205	0x394ff467	0.00019832105
206	0xb988ae63	-0.0002606987
207	0xb9690b83	-0.000222249
208	0xbbd3b235	-0.006460453
209	0x3d643818	0.055717558
210	0xbbfc0485	-0.0076909685
211	0xbe11fa48	-0.14255631
212	0xbdfddb5a	-0.123953536
213	0x3e070581	0.13185693
214	0x3dfe2f55	0.124113716
215	0xbebf75db	-0.37394604
216	0xbe8e0edf	-0.2774572
217	0x3c62367d	0.013806936
218	0x3e8135a0	0.25236225
219	0xbc5d057e	-0.013490079
220	0xbdb719f8	-0.089405
221	0xbb0e270d	-0.0021690757
222	0x3dd427d1	0.10359157
223	0x3d34e3c9	0.044162545
224	0x3771083e	1.4366638e-05
225	0xb6e2b169	-6.755978e-06
226	0x36c849c0	5.96905e-06
227	0xb72c0cf5	-1.0255016e-05
228	0xb71cbb1d	-9.34189e-06
229	0x37563f7f	1.2770178e-05
230	0xb380599f	-5.9767665e-08
231	0xb6b73285	-5.4597062e-06
232	0x37b5f65a	2.1691598e-05
233	0x324f82b4	1.2078704e-08
234	0x3606c01a	2.0079374e-06
235	0xb730f1ed	-1.0546745e-05
236	0x37bf2267	2.2784994e-05
237	0xb5ceff7e	-1.5422554e-06
238	0x366af723	3.501257e-06
239	0xb6854a5c	-3.9723654e-06
240	0x3aa68bf2	0.0012706502
241	0xba26adac	-0.00063582766
242	0xba3307a4	-0.00068294466
243	0xb8a07028	-7.650285e-05
244	0x3679adcc	3.7205054e-06
245	0x3d98117f	0.07425212
246	0xbaaa04ff	-0.001297146
247	0xba099e31	-0.00052497076
248	0xb89c77f4	-7.461003e-05
249	0x3e091852	0.13388184
250	0xb897f793	-7.2463554e-05
251	0xbc166f81	-0.009181858
252	0xbc0b6c72	-0.008509742
253	0x3ca4effc	0.020133965
254	0x3994a279	0.0002834981
255	0xbb960abc	-0.0045789164

2.bias f4 [32]
0	0xbe47e6f5	-0.19521697
1	0xbc4fd1df	-0.0126843145
2	0xbe4504c5	-0.192401
3	0xbe093421	-0.13398792
4	0xbd747966	-0.059686087
5	0xbea0ca80	-0.31404495
6	0xbdfccedd	-0.123441435
7	0xbe15e169	-0.14636768
8	0xbc27d551	-0.01024373
9	0xbd4aaf21	-0.049483422
10	0xbe33157d	-0.17488666
11	0xbe89bc5c	-0.2690152
12	0xbd8acd8a	-0.06777485
13	0xbdaf1bfc	-0.085502595
14	0xbde9801d	-0.11401389
15	0xbdf3ab78	-0.118979394
16	0xbcb671f6	-0.022271138
17	0xbc02e5d5	-0.007989367
18	0x394c1d90	0.00019465969
19	0xbdb44b36	-0.08803408
20	0xba1f965a	-0.0006087773
21	0xbdb61deb	-0.08892425
22	0xbe50bd0b	-0.20384614
23	0xbda4a2f0	-0.0803889
24	0xbecc1337	-0.3985841
25	0xbdb03d16	-0.08605401
26	0xbc8ce3fc	-0.017198555
27	0xbd66fb7a	-0.05639217
28	0xbd899f69	-0.06719858
29	0xbe34a656	-0.17641577
30	0xbd47c0cb	-0.048767846
31	0xbe1eb534	-0.15498811

5.weight f4 [100, 1568]
0	0xb703ed11	-7.863405e-06
1	0x37113bc2	8.656587e-06
2	0x35974696	1.127092e-06
3	0xb8975f28	-7.217965e-05
4	0xb94c2b4f	-0.0001947109
5	0x38a7b6e8	7.9972495e-05
6	0x361d6d82	2.3458565e-06
7	0xb94652b1	-0.00018913556
8	0xb99266f8	-0.00027924008
9	0x3a111edc	0.00055359094
10	0xb9c793c5	-0.00038066335
11	0x3c25e6d4	0.0101258345
12	0x3bb0b416	0.0053925617
13	0xb8e6971b	-0.000109954
14	0xb79f4d85	-1.8990375e-05
15	0xb7de4ff8	-2.65017e-05
16	0x39b9a01a	0.00035405235
17	0xbc7c0cf1	-0.015383945
18	0x3836dd4e	4.3598287e-05
19	0xba1805a5	-0.0005799181
20	0x393803de	0.00017549048
21	0xb55ee90e	-8.3040584e-07
22	0x39a91711	0.00032251378
23	0x3b5f70d9	0.0034094362
24	0xbdb5bc26	-0.08873777
25	0x3c42bcb6	0.0118858125
26	0x38b34c4c	8.5495965e-05
27	0x388cf320	6.721006e-05
28	0x3706416a	8.002253e-06
29	0xb9caf433	-0.00038710385
30	0xba0e5fd1	-0.0005431148
31	0x3a9fbed8	0.0012187613
32	0x3dc649f9	0.09682078
33	0x39118cad	0.00013880683
34	0xb845e856	-4.718484e-05
35	0xb764eb8e	-1.3644703e-05
36	0x36c8ceb4	5.984528e-06
37	0x39f9d01d	0.00047648037
38	0xba579dbf	-0.0008225105
39	0xb9c7751c	-0.0003804349
40	0xbc2b6649	-0.010461398
41	0xb9b37908	-0.00034231716
42	0x32795cbb	1.4514792e-08
43	0xb6e75755	-6.8945033e-06
44	0xb81c3742	-3.724476e-05
45	0xbacf5f1e	-0.0015821194
46	0x39bdd568	0.0003620789
47	0xb91d1aa9	-0.00014982618
48	0xb813cea3	-3.5239977e-05
49	0xb7489c34	-1.1957298e-05
50	0xb948617a	-0.00019109799
51	0xb7f949bf	-2.9717454e-05
52	0xb8629b68	-5.4027332e-05
53	0xb8764318	-5.8713456e-05
54	0xb83d29ee	-4.510016e-05
55	0x37141052	8.825287e-06
56	0xb98c5531	-0.00026766353
57	0xb8ad72a8	-8.270639e-05
58	0xb80236a2	-3.1045296e-05
59	0xb9763f26	-0.00023483913
60	0xb9963847	-0.0002865216
61	0x3bc6e559	0.006069821
62	0xb8c665e0	-9.4603514e-05
63	0xb8aa78c6	-8.1287275e-05
64	0x39587817	0.00020644102
65	0x39c8afca	0.00038277946
66	0xbdcf2044	-0.10113576
67	0xbd93d0fa	-0.072175935
68	0x397d9e80	0.00024187006
69	0xb997da94	-0.00028963818
70	0xb9a53e68	-0.0003151775
71	0x39c7c881	0.00038105625
72	0x3a609736	0.0008567454
73	0x39ccbbe9	0.00039049916
74	0x3a47d773	0.0007623352
75	0xbca84476	-0.020540457
76	0x39a80e9a	0.00032054336
77	0xb9381dff	-0.00017558782
78	0x3e1a0bd1	0.1504357
79	0x3d926540	0.07148218
80	0xb94caff8	-0.0001952051
81	0xbd38297c	-0.044961438
82	0xb8f4e031	-0.000116765856
83	0x3a05de04	0.000510663
84	0xb90feb63	-0.00013725231
85	0x3962c49a	0.0002162628
86	0x3dcc45c2	0.09974243
87	0x3ccd3892	0.025051389
88	0xb9127684	-0.00013967796
89	0xba958e27	-0.0011410163
90	0xb955f216	-0.00020403447
91	0x37e30fef	2.7067928e-05
92	0xba3a10ab	-0.00070978206
93	0x3a3232af	0.00067977136
94	0xb91ecdee	-0.00015144769
95	0x39f43177	0.0004657616
96	0xb91d1656	-0.00014981008
97	0xb86c82fe	-5.638878e-05
98	0x36ec062d	7.034067e-06
99	0xb8c1e971	-9.246439e-05
100	0x39b52544	0.00034550775
101	0x38bf002f	9.107624e-05
102	0xb8f03be7	-0.000114552495
103	0xb8992adb	-7.303591e-05
104	0x37984bda	1.8155133e-05
105	0xb754ec4c	-1.2691202e-05
106	0xb8d6ac46	-0.000102364036
107	0x3937b2cb	0.00017518846
108	0x3b939532	0.0045038695
109	0xbb99b034	-0.0046901945
110	0x3cb22405	0.021745691
111	0xb8badebc	-8.910659e-05
112	0xb8f024d3	-0.00011450951
113	0xb801ea73	-3.0974345e-05
114	0xbc08b911	-0.0083449045
115	0x3a724b12	0.0009242754
116	0xba5c475b	-0.0008402967
117	0x3d575628	0.0525724
118	0xb9250d8f	-0.00015740677
119	0xb6b043f1	-5.253118e-06
120	0xba072a50	-0.00051561464
121	0x3d115eaa	0.03549067
122	0xbe103e22	-0.14086202
123	0xbd072426	-0.03299346
124	0xba835879	-0.0010020874
125	0x37aecbc6	2.0837306e-05
126	0xb85c1d6d	-5.2479492e-05
127	0xbdb0fd67	-0.08642083
128	0x3c78ab19	0.015177512
129	0x3c726c0f	0.014796271
130	0xbd5e806e	-0.0543217
131	0x3d1cb068	0.03825417
132	0x391855ba	0.00014527785
133	0xb6f2f8c7	-7.2411235e-06
134	0xbdda62dd	-0.10663388
135	0x39a79f36	0.00031971344
136	0xba113b61	-0.0005540159
137	0xb79587cd	-1.7825421e-05
138	0x3bab91c5	0.005235883
139	0xb8a41b20	-7.825182e-05
140	0xb93cc078	-0.00018000777
141	0xb802850f	-3.1118336e-05
142	0xb9a0485d	-0.00030571493
143	0x38e0736e	0.00010702653
144	0xb7a30186	-1.9431824e-05
145	0x3977ff2c	0.00023650815
146	0x368a6b5b	4.1252183e-06
147	0x3714c50c	8.867366e-06
148	0x396b0284	0.00022412284
149	0xb8f8a0e2	-0.00011855528
150	0xba1fde19	-0.0006098464
151	0xbaf1d241	-0.0018449501
152	0x3928b096	0.00016087512
153	0x37b968b3	2.2102473e-05
154	0x38573ade	5.131482e-05
155	0x3a6c20fe	0.0009007602
156	0xb85adc5e	-5.2180483e-05
157	0xb9b88f84	-0.00035202142
158	0x39e5d3ba	0.00043836032
159	0xbc69744c	-0.014248919
160	0x3937b4d7	0.00017519608
161	0xb8e2c2c4	-0.00010812798
162	0x3c2b5ef7	0.010459653
163	0xbd2f5f09	-0.042815242
164	0xbaa32228	-0.0012446092
165	0xb8f05624	-0.00011460137
166	0xbdc2e5b1	-0.095164664
167	0x3924cf68	0.00015717524
168	0x3777aded	1.47628425e-05
169	0x3e1b5b46	0.15171537
170	0x3e7ca793	0.246733
171	0x3d551884	0.052025333
172	0xb9f921ba	-0.0004751811
173	0x394a73eb	0.00019307404
174	0x37a09281	1.9141708e-05
175	0xb870f160	-5.7445257e-05
176	0xba02458d	-0.00049694703
177	0xbdc62498	-0.096749485
178	0xb92daad7	-0.00016562208
179	0x3d2550b1	0.040360156
180	0x3a6a1871	0.00089300337
181	0x3801762a	3.0866046e-05
182	0x37a25431	1.935111e-05
183	0xbbd4b8c4	-0.0064917523
184	0x3b8af052	0.004240074
185	0x3d2711fa	0.04078863
186	0x3d1449b6	0.03620311
187	0xb9783731	-0.00023671683
188	0x379eed4d	1.894557e-05
189	0xb6aec36e	-5.208355e-06
190	0xb8bbb6b7	-8.950888e-05
191	0xba3661cf	-0.00069573236
192	0xb9386db0	-0.00017588469
193	0x39920863	0.0002785354
194	0x388e1292	6.774547e-05
195	0x37ec2906	2.8152495e-05
196	0xb75142aa	-1.2472892e-05
197	0xb90def85	-0.00013536036
198	0xb8740c51	-5.8185604e-05
199	0xb9bfa0fb	-0.000365503
200	0x373bc7ad	1.1192559e-05
201	0x38483c1c	4.7739697e-05
202	0xb6f605ea	-7.33206e-06
203	0xb8e6cbbb	-0.000110052024
204	0xb9c6377f	-0.0003780685
205	0xba1b1146	-0.00059153547
206	0x3a6b3f6f	0.0008973991
207	0xbb23767e	-0.0024942453
208	0x39f9f384	0.00047674414
209	0xb89ed967	-7.5745214e-05
210	0xb998dacf	-0.00029154724
211	0x39ddd835	0.00042313492
212	0xb8f5d21d	-0.00011721647
213	0x39ef6df0	0.00045667542
214	0xb98aec6a	-0.00026497553
215	0x39e14c85	0.00042972356
216	0x39cd4d95	0.0003915845
217	0xb87cbf3d	-6.0259586e-05
218	0xbe30f75f	-0.17281865
219	0xb9ae00aa	-0.0003318836
220	0xbe22d6fc	-0.15902323
221	0x3a22e097	0.0006213276
222	0x3a93a6ae	0.0011264884
223	0xb81488d8	-3.5413395e-05
224	0xb92bfd51	-0.00016402199
225	0xb9024c54	-0.000124262
226	0x39ffe260	0.00048806053
227	0x3830e95d	4.2179006e-05
228	0x38e23f9d	0.00010788369
229	0x375adb67	1.3044896e-05
230	0x3745e21e	1.1794762e-05
231	0x37f40bf3	2.9092631e-05
232	0xba925fcf	-0.0011167469
233	0xbc2dd704	-0.010610346
234	0xb9d43544	-0.00040475477
235	0x38145f2f	3.5374596e-05
236	0x3982bec3	0.0002493766
237	0x375895b1	1.2909456e-05
238	0x37c280ba	2.3186545e-05
239	0xb8f634ad	-0.00011740006
240	0x38f67781	0.000117524534
241	0x39a12f3e	0.0003074351
242	0x39d47540	0.0004052315
243	0xba28615a	-0.0006423198
244	0xb5644576	-8.50377e-07
245	0x366df89b	3.546046e-06
246	0x3637b27d	2.7373019e-06
247	0x3718217d	9.067703e-06
248	0xb52746e1	-6.231549e-07
249	0x39794c2f	0.00023774871
250	0x37721e14	1.4431327e-05
251	0xb7af03ab	-2.0863334e-05
252	0x362b83e4	2.5557756e-06
253	0x36dcfb1d	6.5857444e-06
254	0xb968c170	-0.00022197305
255	0x3996a3db	0.0002873231

5.bias f4 [100]
0	0xbdb62c46	-0.08895163
1	0x3d27547f	0.040852066
2	0x3cc2e0ae	0.023788776
3	0x3f562ccc	0.83662105
4	0xbd06a641	-0.032873396
5	0xbd02cc9d	-0.031933416
6	0xbd27782f	-0.0408861
7	0xbd060455	-0.032718975
8	0xbd996b7b	-0.074912034
9	0xbd0a9216	-0.033830725
10	0xbc28ef96	-0.010311028
11	0xbc814c6b	-0.01578351
12	0x3edd4bfd	0.43222037
13	0x3d5ea646	0.05435779
14	0x3e038266	0.12842712
15	0x3f17593d	0.5912054
16	0xbd00bbf7	-0.031429257
17	0x3e27b353	0.16377
18	0xbcb8eabe	-0.022572871
19	0x3f2ab909	0.6668859
20	0xbd749dff	-0.05972099
21	0xbdecdaaa	-0.11565144
22	0x3b926779	0.0044679013
23	0xbd078ad0	-0.033091366
24	0xbda48502	-0.08033182
25	0xbd064a5c	-0.03278576
26	0x3e2f4261	0.17115165
27	0x3c0101cc	0.007873964
28	0x3c2a5539	0.010396295
29	0xbd04cdb4	-0.032422736
30	0x3dfc2cab	0.12313207
31	0xbd069d00	-0.03286457
32	0x3e58433f	0.21119402
33	0x3bf83666	0.007574844
34	0x3e2dc66a	0.1697022
35	0x3d4fbe73	0.050718736
36	0xbd400381	-0.04687834
37	0xbd00136e	-0.03126853
38	0xbd0446ec	-0.0322942
39	0x3dd36276	0.10321514
40	0xbd05864f	-0.03259879
41	0xbd6cb2c0	-0.057787657
42	0x3e07e502	0.13270953
43	0xbd0062b2	-0.031344123
44	0xbd04e8db	-0.03244863
45	0xbd06c681	-0.03290415
46	0x3c25efdd	0.010127989
47	0xbd0205ed	-0.031743933
48	0xbd02b32a	-0.031909145
49	0x3df4c73c	0.119520634
50	0xbd01647f	-0.03158998
51	0xbd04cf78	-0.03242442
52	0x3d6af83d	0.057365645
53	0xbd01498e	-0.031564288
54	0x3e2f815f	0.17139195
55	0xbd09a532	-0.03360481
56	0x3da9361c	0.08262274
57	0xbd9c24b4	-0.07624188
58	0x3e1a40fb	0.1506385
59	0xbd014259	-0.031557415
60	0xbe5b29d3	-0.21402673
61	0xbd02b978	-0.031915158
62	0xbd05dd9d	-0.03268205
63	0xbd046f1c	-0.032332525
64	0x3db5b48d	0.08872328
65	0xbd2fb547	-0.04289749
66	0xbdea8c75	-0.11452571
67	0xbd98427c	-0.07434556
68	0xbd06b8fe	-0.032891266
69	0xbdab2f8f	-0.083586805
70	0x3cbf4bff	0.023351667
71	0x3c2e8865	0.010652636
72	0xbd05f4fd	-0.032704342
73	0xbd017b8f	-0.031611975
74	0xbd08c994	-0.033395365
75	0xbde5a852	-0.11213745
76	0xbd88803f	-0.06665086
77	0x3e6a65d7	0.22890411
78	0xbcfe8aaf	-0.031071989
79	0xbe554a24	-0.20829064
80	0x3ded3849	0.11583001
81	0xbc74c5b2	-0.014939712
82	0x3db92ca4	0.09041718
83	0x3dcaaf5c	0.098967284
84	0x3e67dd57	0.22643028
85	0x3dc9bc91	0.09850419
86	0x3ee0a86c	0.43878496
87	0xbda6719f	-0.0812714
88	0xb9195259	-0.00014621894
89	0xbd0560e7	-0.032563116
90	0x3d7abe4b	0.061216634
91	0x3f2bce43	0.67111605
92	0xbd085505	-0.033284206
93	0xbdf1973a	-0.11796422
94	0xbd078a53	-0.0330909
95	0x3c0f5675	0.00874864
96	0x3d25f2f3	0.040514898
97	0xbd04ca96	-0.032419764
98	0xbe1f008f	-0.15527557
99	0x3e845bc8	0.25851274

7.weight f4 [10, 100]
0	0x3e28cd35	0.1648453
1	0x3e8cf1d3	0.27528247
2	0x3e1c469c	0.1526131
3	0x3d59fe57	0.053221073
4	0x380050f5	3.0592975e-05
5	0x383485b3	4.303986e-05
6	0xbe318f25	-0.17339762
7	0x37139771	8.797143e-06
8	0x3d8d5627	0.06901198
9	0x37b2b4f1	2.1303511e-05
10	0xbec6d60f	-0.3883519
11	0x3e0fc71b	0.14040796
12	0x3dfb839b	0.12280961
13	0xbec79ec2	-0.3898831
14	0xb821e0e4	-3.8594837e-05
15	0x3e5c18a3	0.21493773
16	0x37fccc56	3.0135892e-05
17	0xbe8f77f0	-0.28021193
18	0x3ee78858	0.4522121
19	0x3df322d8	0.1187188
20	0xbee4c12a	-0.44678622
21	0x3b82163c	0.0039699357
22	0xbec5e7aa	-0.38653308
23	0x37ad6358	2.0669468e-05
24	0xbd124a02	-0.03571511
25	0x3748c073	1.1965737e-05
26	0x3db549e8	0.08851987
27	0x3e2bb6e7	0.1676899
28	0x36642b14	3.3999722e-06
29	0x37862182	1.5989648e-05
30	0xbc861cf1	-0.016371222
31	0x374ac8f8	1.208693e-05
32	0x3d073d05	0.033017177
33	0xbe8f8ba6	-0.2803623
34	0x3ced26df	0.0289492
35	0xb9260d09	-0.0001583585
36	0xbe50d228	-0.20392668
37	0x383d4e1a	4.513385e-05
38	0x379a080f	1.8361983e-05
39	0x3dcabeec	0.09899697
40	0xb7952416	-1.7778988e-05
41	0xbe6565f8	-0.22402179
42	0x3e91bb01	0.28462985
43	0x3780f967	1.5374926e-05
44	0x384029db	4.5815348e-05
45	0x37adaa20	2.0702428e-05
46	0x37a79dd6	1.998145e-05
47	0x381f7e47	3.802616e-05
48	0xb7bc306d	-2.2433896e-05
49	0x3ec6421a	0.38722306
50	0x37800600	1.5261583e-05
51	0x37a44aa5	1.9585083e-05
52	0x3e328884	0.17434889
53	0x37a6a046	1.9863375e-05
54	0xbe82d136	-0.2555024
55	0x37c0f025	2.300001e-05
56	0x3e2a002e	0.16601631
57	0xbea3c5f4	-0.31986964
58	0x3f0b0eee	0.54319656
59	0x37874972	1.6127455e-05
60	0xbf06123d	-0.5237158
61	0xb6e5801c	-6.8396457e-06
62	0x3784b87f	1.5821539e-05
63	0xb6bc7404	-5.6163426e-06
64	0x3e39b79b	0.18136446
65	0x3db9da7e	0.09074877
66	0x3e08e7cb	0.13369672
67	0xbe830d45	-0.2559606
68	0x37e8a53c	2.7733498e-05
69	0x3dae3e27	0.08507948
70	0xbd1e92a6	-0.038714074
71	0xb8443bcf	-4.6785743e-05
72	0xb600cc1b	-1.9192291e-06
73	0x38457ba3	4.7083606e-05
74	0x38112923	3.4609006e-05
75	0x3eaf86e1	0.34282592
76	0x3f08f546	0.5349926
77	0x3af2430d	0.0018483117
78	0x38277695	3.992634e-05
79	0xbdd1bf26	-0.10241537
80	0xb95f3ef7	-0.00021290393
81	0x3c29a9a4	0.010355387
82	0xbde23f3d	-0.11047218
83	0x3e4e0bb9	0.2012166
84	0x3d6b69fb	0.057474118
85	0x3de18fc8	0.11013752
86	0x3da8f83a	0.082504705
87	0x3e9f426b	0.3110536
88	0x3e36e150	0.17859387
89	0xb69e665b	-4.7206827e-06
90	0xbe8e70d9	-0.2782047
91	0x3df7d4b0	0.12101114
92	0x373700cc	1.09078355e-05
93	0xbf49a6da	-0.7877022
94	0x37858a7d	1.5919324e-05
95	0xb7520219	-1.2517464e-05
96	0x3deb699c	0.11494753
97	0x38091860	3.2686046e-05
98	0xbea661d4	-0.32496512
99	0xbd9dbbff	-0.07701873
100	0xbd356f05	-0.04429533
101	0x3ba8d62d	0.005152485
102	0xbd8fa597	-0.07014006
103	0x3d46b2f7	0.048510518
104	0xb6cc3eec	-6.086999e-06
105	0x3796178f	1.7892364e-05
106	0xbea0f6f3	-0.31438407
107	0x37848c15	1.5800857e-05
108	0xbdf2f1cf	-0.118625276
109	0xb68e55e5	-4.241929e-06
110	0x3d0aab8f	0.033855017
111	0xbd9af787	-0.07566743
112	0x3d96f665	0.07371215
113	0xbeaeb9c4	-0.34126103
114	0xbd9498a4	-0.072556764
115	0x3e5001a8	0.20313132
116	0xb62a1a5f	-2.5347324e-06
117	0x3e079c9c	0.13243335
118	0x3d8d82dc	0.06909725
119	0x3dacb075	0.08432094
120	0x3ec08238	0.3759935
121	0xbd0938ac	-0.033501312
122	0x3f14ca71	0.581214
123	0x37450974	1.1744316e-05
124	0xbe26c072	-0.1628435
125	0x370ba74b	8.323997e-06
126	0x3e670be1	0.22563125
127	0xbf12777c	-0.5721357
128	0xb6740d7e	-3.6366687e-06
129	0x370a809d	8.255386e-06
130	0xbdf86d7f	-0.1213026
131	0x3790aa51	1.7245447e-05
132	0x3e8c79b3	0.274366
133	0x3e15b74d	0.14620705
134	0x3de91e4a	0.1138273
135	0xb7f70219	-2.9445671e-05
136	0x3ec7523a	0.3892992
137	0x348b0264	2.5892507e-07
138	0x36afd9f7	5.240781e-06
139	0x3d7f0567	0.06226101
140	0xb6d0ae9f	-6.2192116e-06
141	0x3e42f3c7	0.19038306
142	0xbda8da07	-0.082447104
143	0x37323bdf	1.0623567e-05
144	0xb721a78b	-9.635357e-06
145	0x37c8fd9c	2.3959954e-05
146	0x370dcd32	8.452031e-06
147	0x37a5e37c	1.9775463e-05
148	0xb7d7a4bf	-2.5706713e-05
149	0x3ea4fe7f	0.32225415
150	0xb712c668	-8.748473e-06
151	0xb68bc6b2	-4.165654e-06
152	0x3e0eb47f	0.13936041
153	0x3706d016	8.035471e-06
154	0x3e2a9e69	0.16661991
155	0x36e016bc	6.678367e-06
156	0xbba6f4a2	-0.0050950805
157	0x38822edd	6.207612e-05
158	0x3b9b6754	0.0047425423
159	0x36a89bac	5.0249128e-06
160	0xbe64a644	-0.2232905
161	0xb773ec93	-1.453901e-05
162	0x3699b6fb	4.581057e-06
163	0xb809c8dd	-3.2850414e-05
164	0x3d931fb4	0.07183781
165	0x3e9dd68e	0.30827755
166	0xbea47863	-0.32123098
167	0x3dfbfc04	0.123039275
168	0x36590fd2	3.2344728e-06
169	0x3eec7e09	0.46189907
170	0x3d582ed7	0.052779045
171	0x382b51ef	4.0845884e-05
172	0xb6eb263c	-7.007997e-06
173	0xb7ee97ec	-2.8442555e-05
174	0xb777f16d	-1.4778559e-05
175	0xbe90deae	-0.2829489
176	0xbe552681	-0.2081547
177	0xbe5eaa8b	-0.21744744
178	0x370331f6	7.819841e-06
179	0xbead5863	-0.33856496
180	0x3b5b16b0	0.003343027
181	0x3e7fffda	0.24999943
182	0x3d9788ee	0.07399164
183	0x3e498219	0.19678535
184	0x3d338f15	0.043837626
185	0x3ea50daf	0.32237002
186	0x3d12102f	0.035659965
187	0xbdfd804b	-0.123779856
188	0x3e0cba0e	0.13742849
189	0x3618b902	2.2757454e-06
190	0x3edef899	0.4354904
191	0x3e2411e3	0.16022448
192	0xb62bef21	-2.5620177e-06
193	0x3ca7fa01	0.020504953
194	0x36d789a3	6.4235223e-06
195	0xb77ae17c	-1.4953661e-05
196	0x3d3fdbac	0.046840355
197	0x35eb251a	1.7519662e-06
198	0xbe2d8e42	-0.16948798
199	0x3e77a694	0.24184638
200	0xbd9863e9	-0.07440931
201	0x3c679abd	0.014136014
202	0x3c7b4b95	0.015337844
203	0xbe6abb79	-0.22923078
204	0x37381392	1.0971811e-05
205	0xb70cd15f	-8.393398e-06
206	0xbe9abc69	-0.3022187
207	0x378e8443	1.6989308e-05
208	0x3e58db8d	0.21177502
209	0x3775187a	1.4608837e-05
210	0x3e7a90b6	0.24469265
211	0x3f1a4810	0.6026621
212	0xbe2488cf	-0.16067813
213	0x3dc95443	0.09830525
214	0xbe8148ba	-0.25250798
215	0xbe77b160	-0.24188757
216	0x370b62e3	8.3080695e-06
217	0x3a249293	0.0006277945
218	0x3c12e301	0.008965255
219	0xbe9ebb96	-0.31002492
220	0xbbc1383a	-0.0058965953
221	0xba226e21	-0.000619622
222	0xbd8c5f8d	-0.06854162
223	0x37b93578	2.2078617e-05
224	0xbf64be0a	-0.89352477
225	0x37e80699	2.7659627e-05
226	0x3b386193	0.002813433
227	0xbc5e3494	-0.01356234
228	0x374f03a8	1.2339013e-05
229	0x3712f3d0	8.759045e-06
230	0x399cfacf	0.00029941506
231	0xb69d4ad1	-4.6876744e-06
232	0x3f5cb4c3	0.8621332
233	0xbf7e747c	-0.9939649
234	0x3eb64dc7	0.35606214
235	0xb82a9062	-4.0665625e-05
236	0xbea1c78e	-0.3159756
237	0x33a9bf25	7.904445e-08
238	0x379b13d1	1.8486668e-05
239	0x3d858e98	0.06521338
240	0x37bc83a6	2.247265e-05
241	0xbed8c68b	-0.42338976
242	0xbe7a2826	-0.24429378
243	0x36a5b4c4	4.938427e-06
244	0x3729f119	1.012932e-05
245	0x378ef5bf	1.7042154e-05
246	0xb695edb2	-4.4682174e-06
247	0x37a82fb2	2.004937e-05
248	0x37b2ea2e	2.1328302e-05
249	0xbdb8f3aa	-0.0903085
250	0x378f49a2	1.7081216e-05
251	0x36804fac	3.8239723e-06
252	0x3cb18055	0.021667639
253	0x3764b2aa	1.36314575e-05
254	0x3ed29f1f	0.41137025
255	0x38071f18	3.2215466e-05

7.bias f4 [10]
0	0x3e5f2110	0.21789956
1	0x3eafabda	0.343108
2	0xbe13d2f2	-0.14435938
3	0x3e3de941	0.1854601
4	0x3d3e4eeb	0.04646198
5	0xbd9275fb	-0.07151409
6	0x3de57001	0.11203004
7	0x3e992e1d	0.29917994
8	0x3e1b2265	0.15149839
9	0x3e4338fc	0.19064707

9.weight f4 [10, 10]
0	0xbf14fde6	-0.5819992
1	0x3f001a7d	0.5004042
2	0xbe730b69	-0.23734821
3	0xbf2b8239	-0.6699558
4	0xbd1a8641	-0.03772569
5	0xbe5418f5	-0.20712645
6	0x3efa3911	0.48871663
7	0x3ddd57d8	0.108077705
8	0xbe0da5d4	-0.1383279
9	0xbeea9345	-0.45815483
10	0xbf149e47	-0.5805401
11	0xbee90829	-0.45514038
12	0xbe9b66e5	-0.3035194
13	0xbe04b7a0	-0.12960672
14	0xbd324bcb	-0.043529313
15	0x3f0bfb11	0.5467997
16	0x3ec1b1f5	0.37831083
17	0xbf22b62e	-0.63559234
18	0xbe2dfe14	-0.16991454
19	0x3eafe6a7	0.3435566
20	0xbed9ca98	-0.4253738
21	0x3e73eca9	0.23820747
22	0x3e49a9a5	0.1969362
23	0x3ec21814	0.37908995
24	0x3d889903	0.0666981
25	0x3c4f9491	0.012669698
26	0xbeb0c111	-0.34522298
27	0xbec1d7d5	-0.3785998
28	0x3ecf4bb1	0.40487435
29	0xbe22a094	-0.15881568
30	0xbdea37e6	-0.11436443
31	0xbdc2848c	-0.094979376
32	0xbef1be87	-0.47215673
33	0x3ea13401	0.31484988
34	0xbf41d958	-0.75722265
35	0xbdf81a43	-0.12114384
36	0xbe646296	-0.22303233
37	0x3eadfccf	0.3398194
38	0xbf0b990d	-0.5453041
39	0x3e69d104	0.2283364
40	0x3dd8a0c2	0.10577537
41	0xbed2cdf9	-0.4117277
42	0x3f6b8f79	0.92015797
43	0xbf2bec27	-0.67157215
44	0xbca99731	-0.020701976
45	0xbe26d0c8	-0.16290581
46	0x3e2f73cb	0.17134015
47	0x3dc6b71d	0.09702895
48	0x3ed7e951	0.42170194
49	0x3e9fb3a5	0.31191745
50	0x3e2c11c3	0.1680365
51	0xbe1dd8c6	-0.15414724
52	0x3e11aacb	0.14225309
53	0xbc8dd6b7	-0.017314298
54	0xbe463344	-0.19355494
55	0x3f07c1ba	0.5302998
56	0x3e41ca51	0.18924834
57	0x3e33ed8d	0.17571087
58	0xbec38bee	-0.38192695
59	0xbf3ae721	-0.73008925
60	0xbf0d9b4b	-0.55315083
61	0xbf0b9456	-0.5452322
62	0xbe136c26	-0.14396724
63	0xbd3e5737	-0.046469893
64	0x3f040a0f	0.5157785
65	0xbe911904	-0.28339398
66	0x3e9a6ee6	0.30162734
67	0x3e8c3f1b	0.27391896
68	0xbe167d5d	-0.1469626
69	0xbf279cba	-0.6547352
70	0x3e31d41b	0.17366068
71	0x3a67c9ce	0.0008842022
72	0xbf495ea1	-0.7866002
73	0xbe0caaad	-0.13736983
74	0xbf00d542	-0.50325406
75	0xbe5622de	-0.20911738
76	0x3e080673	0.1328371
77	0xbf3dcbdc	-0.7413919
78	0x3e9f7a15	0.3114783
79	0xbc00dd1d	-0.0078652175
80	0x3cc9f811	0.02465442
81	0x3dcb5ba0	0.099295855
82	0x3f490e3c	0.78537345
83	0x3ee5d2d2	0.44887406
84	0x3db8a218	0.09015292
85	0xbebd01f5	-0.36915556
86	0x3ed85961	0.4225569
87	0xbe80cd2b	-0.2515653
88	0xbf1014eb	-0.5628192
89	0x3c8d492b	0.017246803
90	0x3e91c696	0.28471822
91	0x3c13a4e9	0.009011486
92	0xbc913fd8	-0.017730638
93	0xbf0ec878	-0.5577464
94	0x3ef31a2c	0.47480905
95	0x3aa0a480	0.0012256056
96	0xbefd7ee4	-0.49510872
97	0xbe663720	-0.22481966
98	0xbeb1d193	-0.34730205
99	0x3d5b3845	0.05352046

9.bias f4 [10]
0	0x3e7e0da6	0.24809894
1	0x3e5d9f64	0.21642834
2	0x3e557a35	0.208474
3	0xbe1c446c	-0.15260476
4	0x3d2ce672	0.042211957
5	0xbdee081e	-0.11622642
6	0x3d6d3abd	0.057917345
7	0xbe37d090	-0.17950654
8	0xbe29ec03	-0.16593938
9	0x3e64e853	0.2235425
