models/mnist_fc_1.pt (torch, 160713 bytes, 4 tensors)

1.weight f4 [50, 784]
00000000: 85ea 15b8 3aad ce35 d889 f2b7 829c 4fb7
00000010: e655 2db8 e632 09b8 2153 72b8 986e 4eb8
00000020: 77b3 3cb8 50f4 a0b7 203c beb7 b4dd 8236
00000030: b1fb 7e37 a2fa e2b7 76df 0cb7 752b a4b7
00000040: ac0b 0137 aff4 46b7 0920 1735 1491 3db7
00000050: e91a 91b7 6176 6cb8 ceaa 40b8 6805 1ab8
00000060: 375b 4bb8 f23e 23b8 640a 3ab8 020e 21b7
00000070: cfe8 a3b8 5319 12b8 b54c 2ab5 fc65 9cb8
00000080: 170d c5b7 5c44 9ab8 97cc 88b7 e8ef 82b7
00000090: d807 f8b7 13b0 1fb8 f4e4 60b8 0631 87b6
000000a0: cc5b 53b7 a4dc 22b8 84de b3b7 2ef5 47b8
000000b0: 5361 d1b7 853e cfb6 51aa 13b7 cd5b 6e37
000000c0: f8a2 90b8 0d5c 6138 110e b637 6734 f6b7
000000d0: 0d91 7fb8 0de8 a9b8 2479 16b8 0b6a 9bb8
000000e0: 44d7 50b8 e1e3 92b7 780d 39b8 0879 0bb8
000000f0: 6e32 f3b7 802a 14b6 b93b bbb7 4fd6 ffb7
00000100: 42d2 20b8 e802 c737 e290 ac37 51d1 bab5
00000110: 55e8 cc38 fbf3 9639 30ba e639 c1a1 6939
00000120: 2893 d038 0968 6bb8 56dc 40b9 c47f 09b9
00000130: be9f ccb8 8a1e 67b6 e322 1fb7 c531 14b8
00000140: 4a35 07b8 f570 41b8 9532 3eb8 6d83 9137
00000150: dae6 4cb7 401b 39b8 00da 0eb7 869b cfb7
00000160: 2081 1838 82f0 f3b7 8d75 0fb8 0531 a137
00000170: 894d d936 0278 af37 6657 543a 6ad1 d53a
00000180: fccc cc3c 6532 493e 93e6 8f3e 816a d53d
00000190: c5ba 3f3d 8d5f 1f3c cec1 a33b d01d c9b9
000001a0: f63e dfb7 7f82 d2b7 4b06 bb38 812e 3336
000001b0: 0ead 67b7 c444 82b8 c733 5fb8 1e11 4bb8
000001c0: 875a a0b8 89ed bcb7 308d aeb7 c367 2cb8
000001d0: 6be6 3cb8 458e 0a38 4522 1339 0163 3e39
000001e0: 7ad1 9fb9 1ae9 f0bc 9020 3cbc c765 abb9
000001f0: 5271 073e 69dc c83e ed95 ef3e 08e1 223f
00000200: cca3 073f 2ba1 993e 895e dc3d c8d6 2f3b
00000210: d36e a1bc e9e0 21bc 201f abba b812 0fba
00000220: 324a 19b9 0634 a0b7 7472 d5b7 28da 2ab8
00000230: 8efa 1eb8 4e22 18b8 ff0d ffb4 7f86 f0b7
00000240: a63a 55b8 9b2f cab8 873e 25b9 34d4 78ba
00000250: 4def 52bd cbc7 71bd 9174 86bd a01c efbd
00000260: 6b4d bb3c 33cd 613e 0635 d13e da6d 033f
00000270: f74a e73e d44f dc3e 19bc bc3e 35e6 0c3e
00000280: 1f6d 80bd 3711 fcbd df87 44bd 8642 2fbb
00000290: b7c8 a6b9 308c e1b8 4690 6cb8 05aa 99b6
000002a0: 69eb 95b8 6717 0bb8 60d7 5839 22cd f938
000002b0: 22d3 3238 1fd0 ca38 c3ff eabb a254 41bd
000002c0: e1c7 dbbd 663c 14be 8534 4abd fb6c 28bd
000002d0: 2cce ee3c 64f6 a73d 200c 873e 6c76 ec3e
000002e0: ca3b fb3e 0222 e93e 5953 063f 463a 933e
000002f0: 04f1 473e 1d4a 0a3d 0a6f a1bd 1e04 4cbe
00000300: 495c 3cba e8a8 93b9 68e4 4438 0c43 a3b6
00000310: 2ba6 96b8 cdd3 7bb8 405d 5e38 75d0 9838
00000320: 6da3 7d38 1001 d6b9 bc8c 8dbc 704e aebd
00000330: 57d6 fbbd 46ab fbbc 6bb2 df3c f477 8e3d
00000340: 4fd8 6f3d 78f8 0cbe 1b8b 24bd 23ab 453e
00000350: 397b 213f e10f 2a3f 6453 3b3f 5c94 183f
00000360: 5956 c43e c868 753e b93e a83d 8422 d4bd
00000370: d75e 47ba bd17 a1b8 a2b3 b0b8 48b5 e137
00000380: 781a e6b7 e1b2 1bb7 253c b137 faf4 83b8
00000390: ea03 82b9 f820 91ba e914 48bc cb26 b7bd
000003a0: 58ab bbbc b10c 24bd 48ba 2ebe aefb 18be
000003b0: dbe6 99be 73f3 f4be 148f d8be aacb e6bd
000003c0: 66aa 923e beea d43e 5ceb f33e af49 d83e
000003d0: 249e c63e 28c1 923e db69 3b3e 922a 183d
000003e0: 86c3 5cbd 4377 50b8 51b2 9038 a469 d837
000003f0: 5709 1bb8 5470 92b6 7528 2b38 9801 2539
-3.574278e-05 1.5398612e-06 -2.8912837e-05 -1.2374601e-05 -4.1326413e-05 -3.271075e-05 -5.7774716e-05 -4.9217226e-05
-4.4989833e-05 -1.9187253e-05 -2.2677763e-05 3.9001116e-06 1.5198181e-05 -2.705801e-05 -8.396679e-06 -1.957056e-05
7.691717e-06 -1.18586895e-05 5.62985e-07 -1.12990565e-05 -1.7297878e-05 -5.6377034e-05 -4.593544e-05 -3.6721496e-05
-4.8483922e-05 -3.892085e-05 -4.4355533e-05 -9.599609e-06 -7.81581e-05 -3.4832698e-05 -6.344156e-07 -7.457656e-05
-2.3490325e-05 -7.356025e-05 -1.6307733e-05 -1.5608923e-05 -2.9567556e-05 -3.8072536e-05 -5.361899e-05 -4.0290206e-06
-1.2597953e-05 -3.8829297e-05 -2.144208e-05 -4.767364e-05 -2.4960062e-05 -6.176359e-06 -8.801538e-06 1.42072795e-05
-6.8968104e-05 5.372991e-05 2.170264e-05 -2.9349887e-05 -6.0931827e-05 -8.101771e-05 -3.5875608e-05 -7.410728e-05
-4.9791546e-05 -1.751067e-05 -4.411998e-05 -3.32529e-05 -2.899134e-05 -2.2078457e-06 -2.2319948e-05 -3.0498164e-05
-3.834279e-05 2.3724002e-05 2.0571464e-05 -1.3918999e-06 9.770753e-05 0.0002879201 0.0004400774 0.0002228087
9.945623e-05 -5.6125256e-05 -0.00018392628 -0.00013112935 -9.757232e-05 -3.4439458e-06 -9.485261e-06 -3.53323e-05
-3.2236137e-05 -4.6119985e-05 -4.534664e-05 1.7346547e-05 -1.2213097e-05 -4.4132816e-05 -8.514617e-06 -2.4748744e-05
3.635988e-05 -2.9079853e-05 -3.4203335e-05 1.9215522e-05 6.4761302e-06 2.0917509e-05 0.00081001816 0.0016313021
0.025000088 0.1964813 0.28105602 0.10420705 0.046808977 0.009727371 0.0049974686 -0.0003835992
-2.661299e-05 -2.5094718e-05 8.918027e-05 2.6700147e-06 -1.3808965e-05 -6.211692e-05 -5.3215565e-05 -4.8414913e-05
-7.6462566e-05 -2.2521957e-05 -2.0808162e-05 -4.110463e-05 -4.5037286e-05 3.3034263e-05 0.00014031779 0.00018156694
-0.00030482915 -0.029408026 -0.011482373 -0.00032691492 0.13226822 0.3923066 0.46794072 0.6362462
0.5298431 0.30005774 0.10760219 0.00268309 -0.019706165 -0.009880283 -0.0013055541 -0.00054578064
-0.00014618857 -1.9097712e-05 -2.5444875e-05 -4.0734332e-05 -3.7903483e-05 -3.6271573e-05 -4.7507635e-07 -2.867286e-05
-5.0837778e-05 -9.640978e-05 -0.0001575892 -0.000949207 -0.051497746 -0.059028428 -0.06565202 -0.11675382
0.022864064 0.22050934 0.40860766 0.51339495 0.4517438 0.43029654 0.36862257 0.13759692
-0.06270813 -0.12307971 -0.04798114 -0.0026742532 -0.00031811532 -0.00010754948 -5.640115e-05 -4.579548e-06
-7.148722e-05 -3.3161978e-05 0.00020679599 0.00011911454 4.263514e-05 9.670876e-05 -0.0071716025 -0.047199853
-0.10731483 -0.14476165 -0.049366493 -0.041119557 0.029151045 0.08201292 0.26376438 0.461841
0.49069053 0.45533758 0.5247093 0.28755397 0.19525534 0.033762086 -0.07882507 -0.19923446
-0.00071853824 -0.0002816387 4.694276e-05 -4.865584e-06 -7.1835086e-05 -6.004032e-05 5.301577e-05 7.286753e-05
6.0472103e-05 -0.00040818052 -0.017279021 -0.085110545 -0.122967415 -0.030721318 0.027306756 0.06956473
0.058555897 -0.13766658 -0.040171724 0.19303565 0.6307865 0.6643048 0.7317412 0.5960138
0.38347128 0.23965752 0.082150884 -0.10358146 -0.000760538 -7.6815e-05 -8.425793e-05 2.6906506e-05
-2.7430462e-05 -9.280368e-06 2.1128051e-05 -6.292197e-05 -0.00024798448 -0.0011072448 -0.012212017 -0.08942946
-0.022908852 -0.040051166 -0.17063248 -0.14939758 -0.3005894 -0.47841987 -0.4229666 -0.112693146
0.2864563 0.41585344 0.47640502 0.42243716 0.38792527 0.28662992 0.183021 0.037149973
-0.053897403 -4.9702136e-05 6.899669e-05 2.57984e-05 -3.6963578e-05 -4.364216e-06 4.0807256e-05 0.0001573622

1.bias f4 [50]
00000000: f20c 0cbf 9ac2 1e3c 74b6 10bc 8700 20be
00000010: b265 473c 3070 bc3e 8a75 a53c 2d3b bd3c
00000020: ae8c 93bd bce9 3fbe f0d5 913e 7ab7 07be
00000030: 5ef3 c53e 0b5b b53c 497b 523c df9c db3c
00000040: 6f9f 843e 458e 8abc d8b6 613e f121 2c3e
00000050: 71af d63c 44ce f53e 25db 663f 7f36 063e
00000060: 662c abbe 0cea eb3e 2f75 bebd 24d0 113c
00000070: dec3 23bd 646f 2c3e 044d 473e a2a4 013f
00000080: 3212 853e c983 04be 5a8f c7be 9fa8 4a3e
00000090: a493 a0be d15f 523e f93f 04be a658 143e
000000a0: 8935 0ebe 5202 083f 8822 32bc df06 c33b
000000b0: 581d 5e3e 96a8 fcbd 4964 b53d a53f 8a3e
000000c0: 87b6 b7be bd84 f83c
-0.5470725 0.009689951 -0.008832563 -0.15625201 0.012170242 0.36804342 0.020197649 0.023099506
-0.07204567 -0.18741506 0.28483534 -0.13253585 0.38662237 0.02213814 0.012846776 0.0268082
0.25902888 -0.016913543 0.22042406 0.16809823 0.026206704 0.4800893 0.9017814 0.13106726
-0.3343231 0.46077 -0.09299695 0.008899722 -0.039981715 0.16839367 0.19462973 0.50641835
0.25990444 -0.12940897 -0.38976556 0.19790886 -0.3136264 0.20544364 -0.12915029 0.14486942
-0.1388761 0.5312854 -0.010872491 0.005951747 0.21690881 -0.12336843 0.088570185 0.27001682
-0.35881445 0.030336732

3.weight f4 [10, 50]
00000000: 6b58 b33e c77c d23d 132a de3e 0087 7ebe
00000010: 4977 81be 6f3b 01bc 73dd 85be d1df 4bbf
00000020: 76af 2ebd 3552 8f3e 3160 0ebc 5567 81be
00000030: 5140 063e d16c c83e e7fa 1dbf f492 e43e
00000040: 2be8 8fbe f948 05b7 4278 ea3d fbc0 a5bf
00000050: cf06 bfbd 410c 1ebf 4a72 163c 8e26 fb3e
00000060: f720 493e 4b9f 5cbf 6205 db3e b397 9b3e
00000070: 9cd4 8c3d 9965 c33e 1284 04be a96d 72be
00000080: 00c1 233f ce5d a6be 4101 0ebf a71c 903e
00000090: 4721 0bbf 6a61 8a3d bc6c 07be c21e 97be
000000a0: e34e df3e d142 3abe f89f 1237 c96e f1be
000000b0: 7ef7 363d 7514 a0bd 0dd6 4ebe 1747 1abd
000000c0: b960 103e 1cc0 08bf 4d42 38be b7ae 29bf
000000d0: 15fc c0bd 6ca8 4e3f c951 8e3e e020 293e
000000e0: 5cf2 e0be 08d1 27be c961 08bf bead e93d
000000f0: 2978 11be dbfb 6f3e 709b 4bbf 8211 9fbe
00000100: 04ce a33e 4e12 11be 8b0a 233f b5a9 47b6
00000110: 6e4c 1ebf bb61 b4be 0aaa 9a3e 5e32 9abe
00000120: 013a 243f 2215 03be 9f20 d0be d772 35be
00000130: fe12 bc3e 97f3 14bd 8a4b b63e 5842 a4be
00000140: 978e fcbe f934 6e3f e0c3 d1be 1b91 d0be
00000150: a136 a2bc b7ab 3bbf 933a 883e 34eb 84be
00000160: 6f4f 69be 7e9d 66bb 89a2 0a3e 94e2 68be
00000170: b5d5 7537 2d53 453e f0a9 8abf 1fe5 853f
00000180: f336 1fbc f73e 913e 78bc 36be c931 16be
00000190: afd7 083f cd25 433e 3b96 17bd 4b05 9bbe
000001a0: ad21 8cbe a499 bc3e 684b 463e b6fa 61be
000001b0: 15a8 92be 3870 8ebe be25 4bbf 4eb0 9ebe
000001c0: 4164 723e 7958 04bf d5dd 41be aee7 3a3e
000001d0: a551 a23e 5684 ad36 6eec afbe d31a fbbe
000001e0: d2d1 5e3e 1371 453e b71d 0f3e 66af 313f
000001f0: 95f7 cd3b 354d 1fbf 0fd6 86be 832a 893e
00000200: e475 13bf 866a 16be 7e08 42be 41f7 52be
00000210: 483f d63e e4af abbe 9f05 0b3f 694d 3c3e
00000220: 006a 073f 8224 b73e b709 c73e 36d2 a63d
00000230: b10a c73e 774e 3cbe 4fc4 e136 6e2e e6ba
00000240: 1fa2 bbbe fa94 3cbd 4c58 833e f0c8 8ebd
00000250: cbb2 2abd 5492 adbe 5aa4 5a3e add5 4d3e
00000260: 7d8a c0be 6941 2cbd 870b 67be 46d3 dabd
00000270: b91b 103f ceda 633e 6a38 763e 436f 4b3e
00000280: 1a60 89bd efaf 973d 9338 48be c87d f13e
00000290: d808 133e d0ad 123e c1bb ffbe 4895 8a36
000002a0: 999e f23e 01e4 563e 890a 813c 3306 e23d
000002b0: 2efe 523d 7d5d 0abd b207 893e 32cb 013f
000002c0: 9b2c 00bf c905 183c 4d91 1bbf b38d 1cbf
000002d0: ec22 9bbd 7d01 39be 830c 9abe bbbb e5bd
000002e0: e3b5 e23e fa40 bbbc 562f 513e 51fa 3f3d
000002f0: cf60 323f 44ab 7c3e ad75 ccbe e410 093d
00000300: 5a26 1bb7 32d5 e0bc b999 56bf a666 3dbd
00000310: 9754 d0be 3032 71be b2db a6be 65d5 05bf
00000320: d3bc 46bf 6959 5ebe f762 b23e 3a8d 463f
00000330: 0ed9 0d3e 5da3 853e ccb2 46bd 9ec6 453e
00000340: b73a 143e d418 04be d641 253e f7d7 b63e
00000350: 05ac a4bd 6902 13bf c04b 20be a3f2 2abf
00000360: 7462 d8ba 6e28 f735 0ce4 b3bc 672a 003f
00000370: 0428 9b3e 3a8c b73e 6b5e 1abe 3792 a2bd
00000380: 8572 0fbf 5740 c53d 1211 423e 53fc cabd
00000390: 177d 813e 0945 89bd 6086 6ebf d336 663f
000003a0: 6147 3c3d f409 53bf fd07 61bf 0f80 83be
000003b0: 45f1 1cbf 399e e2be badd 52be e6ba 593e
000003c0: f5c5 a3be 166e 2bbf 9bb1 91b6 0d52 a5be
000003d0: e947 833e ad20 b23e b9fa 233e 7ad5 e2be
000003e0: e924 083f cb90 48be b4f1 16bf bc90 ecbc
000003f0: c3a5 9cbe 4174 a3be 1db2 bbbe 22e6 963d
0.35028395 0.10277706 0.43391475 -0.24856186 -0.2528632 -0.007887705 -0.26145515 -0.7963839
-0.0426478 0.27992406 -0.008689926 -0.2527415 0.13110472 0.3914552 -0.6171097 0.44643366
-0.28106818 -7.944408e-06 0.114487186 -1.2949518 -0.093274705 -0.6173745 0.009182522 0.49052852
0.19641481 -0.8618056 0.42777544 0.30389175 0.068764895 0.3816345 -0.12941006 -0.23674645
0.6396637 -0.32493442 -0.55470663 0.2814686 -0.5434765 0.067568615 -0.13225073 -0.29515654
0.43614873 -0.18189551 8.739524e-06 -0.47154835 0.04466962 -0.07816402 -0.20198841 -0.037665453
0.14099397 -0.53418136 -0.17994042 -0.6628222 -0.09423081 0.8072574 0.27796772 0.16516447
-0.43934906 -0.16388333 -0.5327421 0.11410092 -0.14205994 0.23435919 -0.79534054 -0.31068045
0.31993115 -0.14167139 0.6368796 -2.9752093e-06 -0.6183537 -0.35230812 0.30207855 -0.30116552
0.64151007 -0.1280103 -0.40649888 -0.17719589 0.3673324 -0.036365118 0.35604507 -0.32081866
-0.49327537 0.9304958 -0.40969753 -0.40735707 -0.01980144 -0.7330889 0.2660719 -0.25960696
-0.22784208 -0.0035189088 0.13538565 -0.22742683 1.46528955e-05 0.1927001 -1.0833111 1.0460547
-0.009717691 0.2836835 -0.17845333 -0.14667429 0.5345411 0.19057389 -0.037008505 -0.30277476
-0.27369443 0.36835968 0.19364703 -0.22068295 -0.2864386 -0.2781999 -0.79354465 -0.30993885
0.23671056 -0.516975 -0.18932278 0.18252441 0.31702915 5.1712077e-06 -0.3436007 -0.49043903
0.21759728 0.19281416 0.13976179 0.6940826 0.0062856176 -0.62227184 -0.2633519 0.26790246
-0.5760176 -0.14689073 -0.18948552 -0.20602132 0.41845155 -0.3353263 0.5430545 0.18388905
0.5289612 0.3577004 0.388746 0.08145563 0.38875344 -0.18389307 6.728376e-06 -0.0017561445
-0.36647126 -0.046040513 0.25653303 -0.069719195 -0.041674417 -0.33900702 0.21351758 0.20101042
-0.37605658 -0.042054567 -0.22562991 -0.106848285 0.562923 0.22251436 0.24044958 0.19866662
-0.06707783 0.074066035 -0.19552831 0.47166276 0.14358842 0.14324117 -0.49947932 4.130099e-06
0.47386625 0.20985414 0.015752094 0.11036339 0.051511936 -0.033780564 0.26763684 0.50700676
-0.5006806 0.009278723 -0.60768586 -0.61153716 -0.0757502 -0.18066974 -0.3008767 -0.11217447
0.44279394 -0.022858132 0.20428213 0.04686958 0.6967897 0.24674708 -0.3993353 0.033463374
-9.247649e-06 -0.02744541 -0.8382831 -0.04624047 -0.40689537 -0.23554301 -0.3258949 -0.5227874
-0.7763187 -0.21713795 0.3484113 0.77559245 0.13852331 0.261012 -0.048510358 0.19314048
0.14475523 -0.12900096 0.16138396 0.35711643 -0.080406226 -0.5742555 -0.15653896 -0.66776484
-0.0016508834 1.8414701e-06 -0.021959327 0.500647 0.30303967 0.35849172 -0.1507508 -0.079380445
-0.5603412 0.096314125 0.18951824 -0.09911408 0.25290748 -0.067026205 -0.9317379 0.89927405
0.04596651 -0.8243706 -0.87902814 -0.25683638 -0.6130565 -0.4426134 -0.20592394 0.21262702
-0.31986967 -0.6696485 -4.3420127e-06 -0.32289162 0.256408 0.34790555 0.16013612 -0.44303495
0.5318132 -0.19586484 -0.5896256 -0.028877608 -0.30595216 -0.31924632 -0.36659327 0.07368113

3.bias f4 [10]
00000000: 4ee0 e6be febf 0f3e 290a 433d 2ef4 d0be
00000010: a422 29be d011 a53e 43cf 753e a0d0 d1bd
00000020: 5b45 52bd 576a cb3d
-0.45093006 0.14038083 0.04761711 -0.40811294 -0.1651712 0.32240152 0.24004845 -0.1024487
-0.051335674 0.09932392
