models/mnist_fc_base.pt (torch, 182195 bytes, 8 tensors)

1.weight f4 [50, 784]
1.941091e-05 1.22385745e-05 3.3740285e-05 9.48863e-06 4.697047e-06 1.6857715e-05 1.3302572e-06 1.46029515e-05
1.1417731e-05 -2.1880257e-06 1.47347855e-05 8.563293e-06 7.304072e-06 1.2135674e-05 5.7971642e-06 1.0562075e-05
2.3759747e-05 2.6049293e-05 -6.460352e-06 1.2634367e-05 -4.673947e-06 2.4257854e-06 1.5388876e-05 9.694306e-06
6.765391e-06 9.823388e-06 1.6509462e-06 1.19258675e-05 2.8790682e-05 2.7808002e-05 1.8674183e-06 5.330559e-07
1.7233673e-05 2.0316998e-05 -8.372626e-06 2.2636938e-05 7.717232e-06 2.173917e-05 2.7835507e-05 1.9124136e-05
1.3633081e-05 3.3972206e-05 7.597098e-07 1.6079328e-05 1.8794659e-05 1.4663178e-05 2.4101293e-05 7.165418e-06
1.7874834e-05 -5.907052e-06 2.1094309e-05 1.4786378e-05 1.2775419e-05 -3.92931e-06 7.648206e-07 1.1144325e-05
-4.4876033e-06 1.568889e-05 9.272458e-06 1.7186707e-05 9.003083e-06 7.550779e-06 2.6091171e-05 2.9958688e-05
1.2068685e-05 -4.1188745e-05 6.1003222e-05 3.144888e-05 0.00015554567 0.00033607517 0.00023796406 0.00022422866
0.00022652677 7.587829e-05 0.00014021163 9.770937e-05 -1.4128358e-06 1.1060782e-05 1.506872e-05 1.5953761e-05
-2.0954228e-06 1.860282e-05 2.8913659e-05 2.7257016e-05 -7.655154e-06 1.0578797e-05 1.6709051e-05 2.0095104e-05
-3.5515247e-06 3.727147e-06 6.552712e-05 3.6975434e-05 0.00013695667 1.4732914e-05 -2.8172755e-05 -0.00013190089
-0.00012281426 0.00023823569 0.0015063897 0.03907564 0.014286 0.12459125 0.10592991 0.18283229
0.0011418466 0.0003315429 -1.9051102e-05 3.289434e-06 2.7923888e-05 1.4015757e-05 -1.4517148e-07 2.117051e-05
1.9083613e-05 1.8312247e-05 1.6174463e-05 9.303432e-06 1.531667e-05 -8.679336e-06 -3.9326274e-05 7.6608645e-05
-0.00024294367 -0.00069029175 -0.012989893 -0.024246546 -0.058776315 -0.00021243167 -0.00018630193 -0.00021936875
-0.00015469562 0.00015322774 0.00053751795 0.06925429 0.09473079 0.0012183567 0.00020674111 3.0513042e-05
8.900998e-05 5.5097258e-05 -4.712161e-06 -2.169747e-05 1.9920115e-05 1.0881983e-05 1.4819691e-05 -2.179649e-07
-1.2547289e-05 -0.00015755184 8.279227e-05 -0.00024978098 -0.0008616164 -0.09643425 -0.056597788 -0.112026714
-0.0852338 -0.09588013 -0.02735544 -0.046567548 -0.028738257 -0.00012694813 0.0007902476 0.00060380396
0.006993605 0.021475157 -0.0005332277 -6.3167434e-05 0.00018530649 8.070085e-05 1.5887872e-05 -3.0302895e-06
1.0822145e-05 1.5914542e-05 1.9953468e-05 9.735359e-06 1.3192165e-05 -3.4194865e-05 -3.774328e-05 -0.013710121
-0.058987796 -0.062835634 -0.047213636 -0.034764808 -0.00022171055 -0.056449346 -0.039175633 -0.044889845
-0.019859849 -0.008361194 2.5156474e-05 -0.0016550522 -0.0066239415 0.00020711847 0.00013572794 -0.036046598
-0.00041013333 0.00019514935 -1.3881606e-05 1.0270318e-05 -6.277315e-06 -5.276607e-06 4.598035e-06 -0.00010818947
-2.9306808e-05 -1.0079002e-05 -0.00034890673 -0.00026785932 -0.06655164 -0.0064407196 -0.09808274 -0.048775125
-0.1306756 -0.13098347 -0.11080939 -0.07313264 -0.15549079 -0.07333109 -0.043858435 -0.09252694
-0.0758232 -0.13411434 -0.050484058 -0.055509582 -0.01974813 0.000274207 -1.6359962e-05 1.2642669e-05
4.1918133e-06 1.3195613e-05 1.7599208e-05 2.711904e-05 -4.3636595e-05 -5.1284605e-05 -0.00051413337 2.8891793e-05
-5.7832067e-06 -0.023922017 -0.10568426 -0.04599475 -0.04257067 -0.00063349126 -0.14131647 -0.07713944
-0.029041678 -0.014035564 -0.24960443 -0.20594181 -0.20328833 -0.12974782 -0.06546387 -0.109310865
-0.065890014 -9.1230126e-05 1.05651625e-05 2.844122e-05 8.363335e-06 9.4709885e-06 7.269267e-06 1.9654703e-05
00000000: 9dd4 a237 4754 4d37 5b84 0d38 5b31 1f37
00000010: 549b 9d36 ab69 8d37 4a8b b235 33ff 7437
00000020: c88e 3f37 ffd5 12b6 6c35 7737 10ab 0f37
00000030: 8015 f536 539a 4b37 4385 c236 c433 3137
00000040: ab4f c737 6e84 da37 00c6 d8b6 31f8 5337
00000050: e6d4 9cb6 adca 2236 5c17 8137 baa4 2237
00000060: 4402 e336 21cf 2437 1496 dd35 3615 4837
00000070: 8583 f137 3b45 e937 01a4 fa35 5317 0f35
00000080: 0891 9037 6c6e aa37 2878 0cb7 74e4 bd37
00000090: 4279 0137 835c b637 4c80 e937 c56c a037
000000a0: a3b9 6437 617d 0e38 dcee 4b35 18e2 8637
000000b0: 39a9 9d37 df01 7637 222d ca37 796e f036
000000c0: eaf1 9537 3135 c6b6 aff3 b037 0313 7837
000000d0: 0256 5637 84d8 83b6 124e 4d35 83f8 3a37
000000e0: 3894 96b6 a29b 8337 e790 1b37 2c2c 9037
000000f0: f20b 1737 b35c fd36 5dde da37 cb4f fb37
00000100: 9b7a 4a37 14c2 2cb8 b6dd 7f38 fae7 0338
00000110: f919 2339 3f33 b039 fe85 7939 ec1e 6b39
00000120: d187 6d39 d920 9f38 c605 1339 52e9 cc38
00000130: aba0 bdb5 b291 3937 a9cf 7c37 71d4 8537
00000140: 179f 0cb6 400d 9c37 9c8b f237 ffa5 e437
00000150: a36e 00b7 967b 3137 6a2a 8c37 e891 a837
00000160: bb56 6eb6 e61f 7a36 9b6b 8938 1216 1b38
00000170: 079c 0f39 622d 7737 8854 ecb7 e04e 0ab9
00000180: b4c7 00b9 e8ce 7939 0d72 c53a c70d 203d
00000190: d40f 6a3c b329 ff3d c8f1 d83d 6338 3b3e
000001a0: 04aa 953a efd2 ad39 eecf 9fb7 0cc0 5c36
000001b0: 183e ea37 3825 6b37 6fe0 1bb4 5397 b137
000001c0: bf15 a037 409d 9937 65ae 8737 f015 1c37
000001d0: 4c7c 8037 779d 11b7 44f2 24b8 f4a8 a038
000001e0: b2be 7eb9 b2f4 34ba 8fd3 54bc b1a0 c6bc
000001f0: 6fbf 70bd 31c0 5eb9 0b5a 43b9 5a06 66b9
00000200: ca35 22b9 c2ab 2039 38e8 0c3a 31d5 8d3d
00000210: 3702 c23d 44b1 9f3a a5c8 5839 42f6 ff37
00000220: deaa ba38 3b18 6738 281d 9eb6 f602 b6b7
00000230: 1f1a a737 c391 3637 17a2 7837 bc09 6ab4
00000240: 3282 52b7 8034 25b9 c3a0 ad38 09f5 82b9
00000250: 19de 61ba 527f c5bd 15d3 67bd 436e e5bd
00000260: 0f8f aebd cd5c c4bd 8418 e0bc 9dbd 3ebd
00000270: 7e6c ebbc 611d 05b9 9e28 4f3a 9948 1e3a
00000280: 9c2a e53b abec af3c 4ec8 0bba c278 84b8
00000290: d54e 4239 f03d a938 f246 8537 fa5b 4bb6
000002a0: c290 3537 3880 8537 bf61 a737 0c55 2337
000002b0: eb53 5d37 756c 0fb8 8a4e 1eb8 6aa0 60bc
000002c0: 309d 71bd f8af 80bd 1663 41bd 8b65 0ebd
000002d0: f97a 68b9 6e37 67bd a176 20bd 6ade 37bd
000002e0: 1fb1 a2bc 64fd 08bc 1e07 d337 56ee d8ba
000002f0: a60d d9bb f12d 5939 3152 0e39 99a5 13bd
00000300: 2a07 d7b9 01a1 4c39 0be5 68b7 ae4e 2c37
00000310: baa1 d2b6 b60d b1b6 d248 9a36 c8e3 e2b8
00000320: e4d7 f5b7 fc18 29b7 78ed b6b9 786f 8cb9
00000330: 3a4c 88bd ac0c d3bb 9bdf c8bd 6dc8 47bd
00000340: d3cf 05be 8820 06be 09f0 e2bd 91c6 95bd
00000350: fa38 1fbe 9c2e 96bd e7a4 33bd c47e bdbd
00000360: 3249 9bbd 4555 09be 5fc8 4ebd 045e 63bd
00000370: d5c6 a1bc 71c3 8f39 c03c 89b7 da1b 5437
00000380: 67a7 8c36 ba62 5d37 03a2 9337 b27d e337
00000390: 7006 37b8 6d1a 57b8 e8c6 06ba a75c f237
000003a0: 5e0d c2b6 1bf8 c3bc fd70 d8bd fe64 3cbd
000003b0: 955e 2ebd e110 26ba 44b5 10be 48fb 9dbd
000003c0: d0e8 edbc 6cf5 65bc 4e98 7fbe 69e2 52be
000003d0: d12a 50be 9ddc 04be ec11 86bd 60de dfbd
000003e0: 58f1 86bd cd52 bfb8 0741 3137 0e95 ee37
000003f0: 4050 0c37 96e5 1e37 87ea f336 27e0 a437

1.bias f4 [50]
0.08056293 0.005979584 0.48854113 0.018057298 0.15433681 -0.0063144267 -0.11508467 0.1678671
-0.279986 0.35515043 -0.37185147 -0.038698804 0.007066395 0.0060249586 0.1746242 -0.29541674
0.005474572 -0.24156593 -0.20404144 -0.078280635 0.06947773 -0.18171005 -0.026433637 0.2743615
-0.35740715 0.056217145 0.27066424 -0.0053022057 -0.0059369346 0.0060549467 -0.02628471 -0.26662672
0.19814277 -0.11510113 -0.28166023 0.12969932 -0.00561267 0.21483523 -0.24645422 -0.29057467
0.05010557 -0.005950388 0.09338518 -0.14200829 -0.0062790597 0.22202262 -0.0062515787 -0.3864765
0.15342028 -0.15806048
00000000: 2dfe a43d 63f0 c33b 1022 fa3e e6ec 933c
00000010: 780a 1e3e 40e9 cebb 83b1 ebbd 5ae5 2b3e
00000020: 535a 8fbe 47d6 b53e 5163 bebe a382 1ebd
00000030: 388d e73b 046d c53b b0d0 323e dd40 97be
00000040: 0a64 b33b 0f5d 77be 3df0 50be 9951 a0bd
00000050: 574a 8e3d 3312 3abe 5b8b d8bc 1c79 8c3e
00000060: 12fe b6be f343 663d 8194 8a3e 20be adbb
00000070: 9e8a c2bb 9368 c63b 0853 d7bc 4c83 88be
00000080: f0e5 4a3e 24ba ebbd c535 90be e6cf 043e
00000090: 7dea b7bb c4fd 5b3e 7f5e 7cbe 34c6 94be
000000a0: 803b 4d3d 79fb c2bb bb40 bf3d 9f6a 11be
000000b0: 92c0 cdbb e659 633e 0bda ccbb 3fe0 c5be
000000c0: 351a 1d3e 9bda 21be

2.weight f4 [50, 50]
8.910781e-05 -1.2769142e-05 0.10397043 0.074191414 -0.12569603 -1.0823256e-05 -0.15693969 -2.1240217e-05
-0.00027967687 0.12474996 -0.000190713 -0.061605055 1.3123754e-05 4.6024543e-06 -0.1337171 0.004980927
-4.4539243e-05 -0.1951417 -0.00092253595 -0.009219501 -0.00026614248 0.00020247967 -0.00019144574 -7.2674164e-05
0.034717254 -0.021668907 -0.01252578 3.971778e-05 3.4340428e-05 -1.5501944e-05 -0.0697076 0.00023272583
0.061870143 -0.008807538 -0.043163937 0.004598924 3.1506883e-05 0.00032318244 0.00056643423 0.00047860038
5.3783397e-06 3.6454217e-05 0.18072295 -0.01212195 1.2566786e-05 -0.00025254933 -1.1139893e-05 0.03551161
0.02255525 -0.00015492881 -0.13147905 -3.945784e-05 -0.10037246 0.118462555 -0.0036863582 -2.4016708e-06
-0.29616717 0.16362904 -0.24157298 0.04423463 0.0045292075 -0.008117213 2.7527383e-05 -1.6238877e-05
-0.0013853394 -0.08359523 -2.4502917e-05 -0.00054464943 -0.050518364 0.0019086398 0.10178095 0.00061089435
-0.0006989199 -5.7716232e-05 0.0042306553 -9.903376e-06 0.039069127 -7.984772e-07 4.1119765e-05 -3.9052607e-05
-0.11545818 0.087597735 -0.06308686 -0.16169277 0.00022720799 -0.05629845 1.958378e-05 -0.13915926
-0.04742466 -0.020331342 0.035980023 4.3145243e-05 -0.19898263 -0.10264901 3.217519e-05 0.07122244
3.4047476e-05 0.038963404 -0.00095596845 0.0641777 0.040059317 2.6272057e-06 -0.023013921 0.13820046
-0.11195189 -6.218068e-05 -0.008709053 -0.06823025 -0.17424859 0.02746514 0.010551182 -0.048831
3.2114356e-05 3.2303018e-05 -0.128499 0.0688643 3.2313576e-05 0.02249139 -0.10497859 -0.10815607
-0.10477493 0.0005053707 -0.00021182279 -6.0113553e-06 -4.3989396e-05 3.1736083e-05 0.0014820918 -3.7328067e-05
-4.74758e-05 4.076958e-05 -0.17489739 0.1760036 -0.0012635594 -0.051642094 0.15384133 0.104577556
-6.9434063e-06 0.075931825 0.10692086 0.14562282 -0.021598483 -4.0372044e-05 0.18639873 -0.11495782
-3.350759e-05 -0.004836701 -3.7164453e-05 0.00017561496 0.063688286 -0.0006048408 0.051305555 3.0065263e-05
0.00021832563 0.00012322134 -0.0003896708 -2.7941522e-05 0.07643942 0.03030282 0.14770313 0.0066558295
0.006536461 0.0001947523 1.6129417e-05 -3.0366923e-06 4.580497e-05 -0.00016202194 2.0342197e-05 -0.0005184301
1.3163978e-05 0.095639184 0.0002131936 0.00038955436 -0.0001052428 -0.00027525864 0.069653966 0.000114241084
-0.15680094 -2.1420716e-05 -3.1490326e-05 3.3556888e-05 -0.11025648 -0.00028473744 -0.043834258 0.01308873
0.094553135 -0.0001222788 -1.7669707e-05 -0.05164527 -0.00028840028 -0.0002174839 -0.0003096096 4.6909045e-06
-0.0466008 0.00035076856 -3.28498e-05 -0.030309329 -3.2174106e-05 0.00028601737 -0.00017694832 0.00039646545
-0.21813998 -0.00010089716 0.00015642999 -0.00064718456 0.1737744 7.6513745e-05 -0.00054597063 -0.0006582043
-0.053612433 -0.025317412 -0.00012268209 -0.021890372 -6.985865e-05 -9.1899834e-05 -0.00016578606 -0.043380223
-6.1866217e-06 0.0063227615 0.18725272 0.16724655 0.12138003 0.08058665 0.00017628857 6.881226e-05
-0.057801202 0.074501425 0.15369272 7.47872e-05 9.9281824e-05 -8.696774e-05 0.037870422 0.015226764
0.15912521 -0.08273093 -0.122266464 -0.09820647 3.161119e-06 -0.00027013125 -0.0003658009 -0.04571208
-0.012546092 7.6628356e-05 -0.13801812 0.00078917213 6.070417e-05 0.23996812 7.0966234e-05 -0.13738705
-0.011892358 -0.13983496 -0.058188725 2.6826221e-05 -0.26102954 -0.0003394632 -0.14970313 -3.7069953e-05
00000000: 64df ba38 0c3b 56b7 73ee d43d abf1 973d
00000010: 76b6 00be 8895 35b7 ccb4 20be 052d b2b7
00000020: 98a1 92b9 e87c ff3d 22fa 47b9 9555 7cbd
00000030: 182e 5c37 c86e 9a36 23ed 08be 0b37 a33b
00000040: a6cf 3ab8 3ad3 47be 57d6 71ba 640d 17bc
00000050: 0a89 8bb9 b950 5439 d3be 48b9 a568 98b8
00000060: ae33 0e3d fe82 b1bc ee38 4dbc a496 2638
00000070: c108 1038 2c0a 82b7 dcc2 8ebd dd07 7439
00000080: 8c6b 7d3d 7e4d 10bc abcc 30bd 92b2 963b
00000090: 4226 0438 d070 a939 c27c 143a a8ec fa39
000000a0: 9677 b436 6be6 1838 700f 393e 259b 46bc
000000b0: efd5 5237 9968 84b9 7ae5 3ab7 9f74 113d
000000c0: cac5 b83c 6374 22b9 72a2 06be 887f 25b8
000000d0: 1490 cdbd 7f9c f23d d496 71bb 642c 21b6
000000e0: 39a3 97be 5f8e 273e e85e 77be 5f2f 353d
000000f0: bf69 943b 0ffe 04bc 9bea e637 b938 88b7
00000100: 4794 b5ba fa33 abbd 9d8b cdb7 cec6 0eba
00000110: 58ec 4ebd 532b fa3a 8872 d03d 6d24 203a
00000120: b837 37ba 5514 72b8 4fa1 8a3b ad26 26b7
00000130: f306 203d ef56 56b5 0378 2c38 6bcc 23b8
00000140: 5775 ecbd 7166 b33d af33 81bd ca92 25be
00000150: ae3e 6e39 3499 66bd d947 a437 c47f 0ebe
00000160: 5c40 42bd ea8d a6bc ca5f 133d daf6 3438
00000170: 1ac2 4bbe a539 d2bd d9f3 0638 12dd 913d
00000180: 33ce 0e38 1798 1f3d f599 7aba 996f 833d
00000190: 3d15 243d 0d4f 3036 b187 bcbc 6c84 0d3e
000001a0: 0847 e5bd 0067 82b8 6ab0 0ebc 4dbc 8bbd
000001b0: 396e 32be 93fe e03c ddde 2c3c 0403 48bd
000001c0: 87b2 0638 1a7d 0738 3e95 03be ba08 8d3d
000001d0: 7088 0738 dd3f b83c 04ff d6bd ee80 ddbd
000001e0: 3d94 d6bd db7a 043a bf1c 5eb9 26b5 c9b6
000001f0: 4181 38b8 5c1c 0538 c042 c23a b590 1cb8
00000200: c120 47b8 0100 2b38 4d18 33be 4a3a 343e
00000210: 059e a5ba a986 53bd 9588 1d3e c22c d63d
00000220: 68fb e8b6 2582 9b3d 53f9 da3d 261e 153e
00000230: 4def b0bc 2755 29b8 4fdf 3e3e 016f ebbd
00000240: 808a 0cb8 307d 9ebb 07e1 1bb8 4825 3839
00000250: 016f 823d 2e8e 1eba c625 523d a934 fc37
00000260: 57ee 6439 fa34 0139 bb4c ccb9 f663 eab7
00000270: 458c 9c3d 9f3d f83c 7d3f 173e 2519 da3b
00000280: cf2f d63b 6c36 4c39 a94d 8737 fac9 4bb6
00000290: b61e 4038 6fe4 29b9 89a4 aa37 41e7 07ba
000002a0: dbda 5c37 7ade c33d b98c 5f39 1a3d cc39
000002b0: ccb5 dcb8 9750 90b9 bda6 8e3d b794 ef38
000002c0: 6d90 20be a3b0 b3b7 7b14 04b8 6fbf 0c38
000002d0: 26ce e1bd d048 95b9 8d8b 33bd 1d72 563c
000002e0: 13a5 c13d f737 00b9 6839 94b7 fe89 53bd
000002f0: 6e34 97b9 640c 64b9 1953 a2b9 9066 9d36
00000300: 7be0 3ebd 5ce7 b739 34c8 09b8 454b f8bc
00000310: aff2 06b8 9af4 9539 348b 39b9 b1dc cf39
00000320: 1660 5fbe c098 d3b8 5b07 2439 d2a7 29ba
00000330: ebf1 313e 0176 a038 781f 0fba 588b 2cba
00000340: b698 5bbd 7666 cfbc 39a4 00b9 7053 b3bc
00000350: 1481 92b8 59ba c0b8 dbd6 2db9 76af 31bd
00000360: ad96 cfb6 2b2f cf3b 2dbf 3f3e ae42 2b3e
00000370: 1896 f83d 9d0a a53d 1ada 3839 4d4f 9038
00000380: f4c0 6cbd 3494 983d a061 1d3e 13d7 9c38
00000390: 8635 d038 7362 b6b8 041e 1b3d ad79 793c
000003a0: b8f1 223e d56e a9bd d766 fabd 7920 c9bd
000003b0: 9c23 5436 67a0 8db9 f7c8 bfb9 973c 3bbd
000003c0: 208e 4dbc 89b3 a038 9f54 0dbe 72e0 4e3a
000003d0: 9b9c 7e38 34ba 753e b5d3 9438 31af 0cbe
000003e0: 2ad8 42bc e530 0fbe 4d57 6ebd df08 e137
000003f0: aaa5 85be fbf9 b1b9 c74b 19be 8f7b 1bb8

2.bias f4 [50]
0.21651855 0.21863174 -0.12259483 -0.23157826 0.22253789 -0.269721 0.14347513 0.3805249
-0.08678661 0.03518495 -0.42558157 0.29343018 0.054148767 0.022099145 -0.0015854671 -0.12787357
0.26128578 -0.26283506 0.28611717 -0.19076398 -0.26221797 0.29077995 0.008431076 0.025523353
0.04487305 -0.0663426 0.2196073 -0.30656576 0.28348336 0.0071883635 0.17197238 0.0761067
-0.28791785 -0.10452307 -0.063914604 -0.28321105 -0.023821196 0.14996186 -0.1944903 -0.040768184
-0.035631042 -0.053030368 0.03142673 -0.15407361 0.10478741 -0.14441882 -0.29421356 -0.16954546
0.119068034 0.15427779
00000000: 0ab7 5d3e 00e1 5f3e 0013 fbbd da22 6dbe
00000010: f9e0 633e df18 8abe 25eb 123e 29d4 c23e
00000020: 2ebd b1bd 181e 103d d4e5 d9be 7b3c 963e
00000030: 19cb 5d3d 4409 b53c 73cf cfba 4af1 02be
00000040: 40c7 853e 5192 86be f37d 923e a257 43be
00000050: 6f41 86be 1ce1 943e 7f22 0a3c 5a16 d13c
00000060: cecc 373d a1de 87bd bce0 603e 30f6 9cbe
00000070: bb24 913e 5d8c eb3b 8719 303e d4dd 9b3d
00000080: f869 93be 3110 d6bd a9e5 82bd 0a01 91be
00000090: ab24 c3bc 9a8f 193e 7728 47be 8afc 26bd
000000a0: dbf1 11bd 5f36 59bd 51b9 003d 79c5 1dbe
000000b0: c89a d63d 87e2 13be 29a3 96be 539d 2dbe
000000c0: f1d9 f33d fffa 1d3e

3.weight f4 [50, 50]
-0.0122145675 0.080168076 0.038253013 -0.07357762 0.16769631 -0.15342925 0.026399998 -0.10822187
-0.00066421874 -0.00039863389 -0.0029623609 -0.09620892 -0.00025961484 0.0020390488 0.11067707 -0.055215985
-0.00014041166 -0.0980059 0.025666352 -0.07330139 -0.22126672 -0.11071054 9.4307325e-06 9.871188e-05
-0.07133641 -0.0005997417 -0.14435299 0.0013730454 -0.07281974 -0.14506254 -0.08320068 0.00022842186
0.00049914257 0.18678103 -0.06808505 0.00013757928 0.07730674 0.07011484 0.0002602446 -0.07626854
0.023978114 0.056779772 0.09860832 0.2732703 -0.12803724 0.00024558662 -0.02035873 -0.11097284
-0.2308745 -0.072205484 0.014915604 0.11514476 0.00026585857 -0.0005787834 0.037587494 -0.0058439593
0.09357998 0.00015736306 -0.00017434005 0.014541603 -0.17518786 0.098658875 0.20043425 -0.0001527236
-0.063825876 0.06422758 -1.4368826e-05 0.00023337244 0.066573836 0.0005424933 -0.0059433407 0.075036965
-0.000113465 -7.3433956e-05 -0.16351774 -4.67407e-05 -0.050945885 -0.00012891833 -0.11282241 0.11609752
-0.04836259 0.036837168 -0.04231502 0.21697547 0.08497823 0.022770049 0.03086558 0.19591758
0.00018450132 3.3073444e-05 0.14725311 -0.28534907 -0.005890735 -7.399431e-05 0.007712055 -0.070390366
0.049975097 -0.00051625975 -0.0142215025 0.13399377 0.0651547 0.11177273 -0.20224635 0.00014241958
0.13948499 -0.18872762 0.20802142 -3.557119e-05 -0.2054872 -0.0787394 -0.0682688 0.10770469
0.044644218 -0.10481925 0.00020682985 0.064337626 3.231781e-05 -0.11019105 0.23541617 -0.09578178
-0.040589888 -0.030472483 -4.3518583e-05 -3.268207e-05 0.00031277613 0.0874925 -0.004328429 -0.19375503
0.12061385 0.030527312 -0.2109148 0.066069536 0.00030771425 0.02435464 -0.06284898 0.14188871
-0.09068273 0.16750544 0.13626191 0.19161563 -0.0002699773 -0.08717642 -0.03808499 -0.00015846963
0.19571885 -0.16685113 -0.14459635 0.038592424 0.19774309 0.2375371 -0.00015435323 -0.16202001
0.00021682866 0.0003589527 -0.07997891 -0.00038384082 0.0575972 -0.00010815318 0.19485778 -0.011489499
0.017451052 -0.019347962 0.00075752457 -0.036200643 0.0048769712 -0.00020729362 -0.021609258 0.11203214
-0.074213244 0.00017721565 0.098358914 -0.00029143135 6.147685e-05 6.234613e-05 -0.0003509058 -0.0017039584
0.09612854 -0.00044169064 -0.024795817 0.076668434 -0.13516642 0.06725036 -0.0002892811 0.055569835
-0.16986872 0.013746725 0.0003437271 0.00090927584 8.289722e-05 -0.010157361 0.0005193577 -0.0008325595
8.386966e-05 0.086335056 0.000314226 -0.00033338636 -0.051701255 0.21122494 0.063829 0.045240097
-1.3418079e-05 0.009437633 0.0516931 -0.00046389006 0.12529732 0.14152674 0.06201042 -0.111179836
-0.13512398 0.0005371668 1.15796665e-05 0.010618226 -0.0004418632 -0.012355159 -0.06275043 0.1312273
-0.00018440513 0.010117041 -0.17652732 -0.13976741 -0.12780666 -0.08339292 -5.903067e-06 -3.1088657e-05
-0.00013051869 0.06059522 -0.22663164 -0.14174785 0.000438855 -0.054809716 -0.050312802 -0.00019459461
0.048296027 0.00015802069 0.24180917 -0.035057027 0.15886702 0.07537084 0.023166914 5.2703013e-05
-0.06026509 0.16178341 0.0017134778 0.09686846 -0.00026024936 0.012011804 0.062302 -0.00064177933
-0.18877666 -0.032861352 0.00010554785 2.4188379e-05 -0.00043648295 1.9685784e-05 0.06006556 9.537555e-06
00000000: 9c1f 48bc 292f a43d 31af 1c3d ddaf 96bd
00000010: 95b8 2b3e 8f1c 1dbe cf44 d83c 6ea3 ddbd
00000020: f71e 2eba bcff d0b9 2b24 42bb 2f09 c5bd
00000030: ea1c 88b9 90a1 053b a9aa e23d 282a 62bd
00000040: 783b 13b9 51b7 c8bd 3e42 d23c 0a1f 96bd
00000050: be93 62be 35bc e2bd b038 1e37 8903 cf38
00000060: d318 92bd fc37 1dba 45d1 13be c2f7 b33a
00000070: 8422 95bd 468b 14be 1e65 aabd 8784 6f39
00000080: e4d8 023a 8743 3f3e 2d70 8bbd 2843 1039
00000090: ff52 9e3d 5f98 8f3d 7071 8839 ae32 9cbd
000000a0: c06d c43c e891 683d 29f3 c93d 16ea 8b3e
000000b0: 321c 03be 14c2 8039 5ac7 a6bc ba45 e3bd
000000c0: 5d6a 6cbe 78e0 93bd 9460 743c 04d1 eb3d
000000d0: ef62 8b39 7fb9 17ba 58f5 193d af7e bfbb
000000e0: dca6 bf3d d301 2539 0dcf 36b9 e73f 6e3c
000000f0: 7264 33be aa0d ca3d a33e 4d3e 6e24 20b9
00000100: 24b7 82bd c089 833d a311 71b7 70b5 7439
00000110: dd57 883d 1c36 0e3a 5bc0 c2bb fbac 993d
00000120: 0ff4 edb8 8e00 9ab8 3271 27be 720b 44b8
00000130: a2ac 50bd 402e 07b9 700f e7bd 89c4 ed3d
00000140: da17 46bd 92e2 163d 8452 2dbd d12e 5e3e
00000150: 1109 ae3d 4188 ba3c d0d9 fc3c 9e9e 483e
00000160: b276 4139 57b8 0a38 85c9 163e 4619 92be
00000170: 1107 c1bb 652d 9bb8 68b5 fc3b d328 90bd
00000180: b0b2 4c3d 9b55 07ba 4e01 69bc aa35 093e
00000190: d46f 853d 1ae9 e43d ab19 4fbe 7756 1539
000001a0: 27d5 0e3e d041 41be 9103 553e 4632 15b8
000001b0: 3d6b 52be 1f42 a1bd 83d0 8bbd 4794 dc3d
000001c0: dbdc 363d 7aab d6bd 77e0 5839 72c3 833d
000001d0: fc8c 0738 d8ab e1bd f010 713e 3d29 c4bd
000001e0: 9541 26bd 6ea1 f9bc b987 36b8 1b14 09b8
000001f0: 1afc a339 452f b33d 7ed5 8dbb b867 46be
00000200: 6504 f73d 6a14 fa3c 0dfa 57be 774f 873d
00000210: b554 a139 6283 c73c f7b6 80bd 464b 113e
00000220: deb7 b9bd 8c86 2b3e 3e88 0b3e e336 443e
00000230: bd8b 8db9 8d89 b2bd 02ff 1bbd de2a 26b9
00000240: 866a 483e 06db 2abe 1111 14be 1713 1e3d
00000250: 2a7d 4a3e ed3c 733e e1d9 21b9 93e8 25be
00000260: 805c 6339 d131 bc39 fccb a3bd 3e3e c9b9
00000270: 0beb 6b3d 4cd0 e2b8 cc88 473e 743e 3cbc
00000280: 82f5 8e3c 9e7f 9ebc 9d94 463a 2047 14bd
00000290: 00cf 9f3b f55c 59b9 e605 b1bc 1b71 e53d
000002a0: 1dfd 97bd f7d2 3939 6670 c93d 41cb 98b9
000002b0: 22ed 8038 d3bf 8238 c7f9 b7b9 5b57 dfba
000002c0: 0adf c43d b792 e7b9 9920 cbbc 5704 9d3d
000002d0: 1169 0abe 8fba 893d a7aa 97b9 329d 633d
000002e0: 11f2 2dbe f239 613c 4536 b439 785c 6e3a
000002f0: 1bd9 ad38 0f6b 26bc 8125 083a 1f40 5aba
00000300: 2ee3 af38 6fd0 b03d b3be a439 5cca aeb9
00000310: b2c4 53bd 5a4b 583e c7b8 823d ae4d 393d
00000320: 361e 61b7 4da0 1a3c 25bc 533d 4536 f3b9
00000330: f14d 003e 63ec 103e a3fe 7d3d 41b2 e3bd
00000340: f15d 0abe a7d0 0c3a 4a46 4237 11f8 2d3c
00000350: e0a9 e7b9 4b6d 4abc 4c83 80bd 7360 063e
00000360: e05c 41b9 f2c1 253c 94c3 34be 301f 0fbe
00000370: c0df 02be e8c9 aabd f612 c6b6 3165 02b8
00000380: d8db 08b9 b232 783d 2012 68be 5926 11be
00000390: 1f16 e639 2780 60bd cc14 4ebd 180c 4cb9
000003a0: 0ed2 453d 5bb2 2539 d39c 773e f597 0fbd
000003b0: 09ae 223e 075c 9a3d 8ac8 bd3c 6e0d 5d38
000003c0: 87d8 76bd 8daa 253e c696 e03a f962 c63d
000003d0: 1472 88b9 28cd 443c 6230 7f3d 153d 28ba
000003e0: ab4e 41be a099 06bd 9259 dd38 26e8 ca37
000003f0: c0d7 e4b9 e622 a537 4e07 763d 7d03 2037

3.bias f4 [50]
0.049255285 0.3578756 0.17882517 -0.11707275 0.10082429 0.2366438 -0.12080888 0.3683401
-0.03620835 -0.021400845 -0.2302025 0.04623344 0.015805254 0.039983053 0.28815737 0.0025067
0.095561735 -0.11730232 -0.01589943 0.17775024 0.09927409 -0.086955994 -0.1909374 -0.017857337
0.111965165 0.16615702 -0.19206534 -0.045976195 -0.18863672 -0.26138687 0.20842835 0.049663693
-0.064145125 -0.37246984 0.029027931 0.080024354 -0.002251214 -0.1166943 0.33578753 -0.05270602
-0.09987373 -0.25026998 0.07540175 0.3924441 0.12674288 -0.26287705 -0.24256311 -0.41787103
-0.0023279071 0.13457566
00000000: e9bf 493d 783b b73e f21d 373e d7c3 efbd
00000010: f77c ce3d c152 723e a56a f7bd 1397 bc3e
00000020: 354f 14bd d350 afbc 34ba 6bbe 475f 3d3d
00000030: 057a 813c 45c5 233d 5d89 933e 7347 243b
00000040: dfb5 c33d 333c f0bd 853f 82bc 2904 363e
00000050: 3750 cb3d fc15 b2bd 1885 43be 8d49 92bc
00000060: fe4d e53d 1125 2a3e c7ac 44be 8951 3cbd
00000070: fc29 41be 80d4 85be 3e6e 553e 286c 4b3d
00000080: 855e 83bd 5eb4 bebe fccb ed3c cfe3 a33d
00000090: 1b89 13bb 6cfd eebd 58ec ab3e 45e2 57bd
000000a0: 998a ccbd 6323 80be 3c6c 9a3d 6fee c83e
000000b0: e3c8 013e d297 86be 7762 78be 31f3 d5be
000000c0: cd8f 18bb 34ce 093e

4.weight f4 [10, 50]
0.16047445 -0.252606 0.08752639 -0.06769879 0.17840414 0.07263911 0.00028403965 0.003055146
0.2673153 0.14332756 0.13360514 0.0063523743 0.19668564 0.045605976 -0.11338182 0.29638368
-0.08319316 0.20420928 -0.15489577 -0.039139908 0.15727422 -0.18703681 -0.10792955 0.14114653
-0.20429574 -0.00022401208 0.01780352 0.10786106 0.25174093 -0.0011904233 0.15839866 -0.24381702
0.15377867 0.19251 0.118475385 -0.06253716 1.3427072e-06 0.18827218 0.016590025 -0.0010402212
-0.1273491 0.022241782 -0.08094617 -0.059760734 -0.27709717 0.054041162 -0.0010124514 0.45743272
2.5478632e-05 -0.07329763 -0.21929231 0.0023063049 0.20714556 -0.08793005 -0.1684196 -0.0007047738
0.01628277 -0.18877657 -0.034485746 -0.24058576 -0.31235784 -0.3013397 0.16416092 0.09624129
0.2015942 -0.14255069 0.13279587 0.303787 0.09664004 -0.17847641 0.083708555 0.0070081553
-0.17801416 -0.01927948 0.16539825 0.24937552 0.16544959 -0.045746934 -0.13930456 -0.07325137
-0.24444604 0.16808909 -0.16085245 0.15368296 0.05879295 -0.05328287 7.938056e-06 -0.25844988
-0.012960772 -0.023859277 0.09729886 0.25948495 0.06656916 -0.005177477 -0.23263656 0.01258821
-0.19594324 0.09566792 -1.2817208e-05 0.1491886 0.17250709 0.21117696 0.05008744 -0.08877879
0.13930723 0.039724953 0.009400943 -0.007144864 -0.0947014 -0.000945014 0.042743795 -0.0067628413
-0.0013225483 -0.08499142 0.07543042 -0.03512084 -0.091763765 0.072082475 0.00049876055 -0.067617916
-0.09223099 -0.12633118 0.01829659 0.09717257 0.024206035 0.086758144 0.014580089 0.006260777
0.21284486 0.0037040464 0.08400343 0.010826041 -0.062547766 0.19237176 0.20993589 0.12742925
4.300121e-05 -0.078199424 -0.19509044 0.2091955 0.0802856 -0.115688354 0.098642014 0.057588756
0.12091751 -0.08449263 -0.06210796 -0.17823003 9.173067e-05 0.09432913 -0.21677443 0.03423054
0.07905613 0.10310288 -0.11491662 0.09745263 0.077958 0.18680449 -0.04895062 -0.20455436
0.06915742 0.19212182 0.027223846 0.010197648 -0.12413923 -0.012029232 -0.076538466 -0.101314336
0.0806709 -0.10375779 -0.16207863 -0.080314025 0.0402831 0.18369041 -0.043293227 -0.12483355
-0.00039051587 0.16847244 -0.052600324 -0.15505372 -0.10150799 -0.034181308 0.04786909 0.13823698
-0.07249133 -0.08495709 5.2285148e-05 -7.4962416e-05 -0.07350299 0.09849346 0.20187338 -0.12573297
-0.022901807 0.045338035 -0.085920595 -0.00030866847 -0.24044476 -0.0014072043 5.078014e-05 -0.04486323
0.0005232108 -0.1650419 -0.16535573 0.09867948 0.004999435 -0.028404728 -0.22982319 0.0016727987
-0.028380653 -0.09011879 0.002236043 0.12551244 0.0006992602 -0.18624912 0.2700409 0.06772468
0.17654587 -0.10492202 0.09855297 0.12534541 0.33202165 0.047663026 -0.08973533 -0.051700916
-0.10383426 0.11231361 -0.03381781 -0.07052329 -0.11988092 0.13634479 -0.05923166 -0.15717848
-0.11312957 -0.00023832022 -0.11961097 -0.15910749 7.653847e-06 0.15643741 -0.0662482 0.17975347
0.098252386 -0.026987964 -0.035531685 -0.21198437 0.15986378 0.01033604 0.15267281 -0.031773943
4.6239487e-07 -0.00095703575 -0.09233705 -0.008779972 0.006528496 -0.06687284 0.031161329 0.10962983
00000000: 6a53 243e 9355 81be 0941 b33d aaa5 8abd
00000010: 93af 363e d0c3 943d 28eb 9439 d838 483b
00000020: 8ddd 883e 76c4 123e c9cf 083e 9427 d03b
00000030: f667 493e 55cd 3a3d ba34 e8bd 9abf 973e
00000040: 2d61 aabd 3d1c 513e ff9c 1ebe 2b51 20bd
00000050: 7e0c 213e 9486 3fbe 2b0a ddbd b788 103e
00000060: e732 51be c9e4 6ab9 b0d8 913c 42e6 dc3d
00000070: 30e4 803e fa07 9cba 4233 223e 2bab 79be
00000080: 2878 1d3e 5721 453e 39a3 f23d 7c13 80bd
00000090: 1137 b435 6cca 403e cee7 873c 0858 88ba
000000a0: cd67 02be 6634 b63c 1bc7 a5bd acc7 74bd
000000b0: aedf 8dbe 445a 5d3d 3bb4 84ba 9f34 ea3e
000000c0: f2ba d537 111d 96bd 2a8e 60be 6025 173b
000000d0: f71d 543e ac14 b4bd 3076 2cbe 92c0 38ba
000000e0: 7263 853c a54e 41be ed40 0dbd 1d5c 76be
000000f0: 5eed 9fbe 3249 9abe cd19 283e 271a c53d
00000100: b66e 4e3e cff8 11be a4fb 073e f889 9b3e
00000110: 37eb c53d 85c2 36be 646f ab3d aba4 e53b
00000120: 5849 36be 00f0 9dbc 295e 293e 4c5c 7f3e
00000130: 9e6b 293e 2361 3bbd dba5 0ebe d004 96bd
00000140: 1050 7abe 8c1f 2c3e 81b6 24be 115f 1d3e
00000150: e0d0 703d 243f 5abd b12d 0537 8b53 84be
00000160: 6b59 54bc 8874 c3bc a044 c73d 36db 843e
00000170: 6955 883d d3a7 a9bb 4738 6ebe c83e 4e3c
00000180: 58a5 48be 8bed c33d 7d09 57b7 e5c4 183e
00000190: b3a5 303e c63e 583e 7d28 4d3d a7d1 b5bd
000001a0: 8ea6 0e3e a2b6 223d 6a06 1a3c 771f eabb
000001b0: cff2 c1bd d1ba 77ba 1e14 2f3d d39a ddbb
000001c0: 5b59 adba fb0f aebd 447b 9a3d dfda 0fbd
000001d0: a4ee bbbd fa9f 933d 41bf 023a 437b 8abd
000001e0: 9ae3 bcbd f65c 01be bbe2 953c 6a02 c73d
000001f0: bc4b c63c 41ae b13d 53e1 6e3c 3427 cd3b
00000200: 01f4 593e 96bf 723b fe09 ac3d b55f 313c
00000210: 0b19 80bd 1afd 443e 6ff9 563e d07c 023e
00000220: 335c 3438 0527 a0bd cac5 47be 5837 563e
00000230: c76c a43d 04ee ecbd d304 ca3d 30e2 6b3d
00000240: 99a3 f73d 790a adbd eb64 7ebd ef81 36be
00000250: 875f c038 a22f c13d 1efa 5dbe 5335 0c3d
00000260: 2ee8 a13d 9a27 d33d 6859 ebbd 3f95 c73d
00000270: 72a8 9f3d ad49 3f3e 7280 48bd b376 51be
00000280: 68a2 8d3d 95bb 443e 8b04 df3c 0914 273c
00000290: b53c febd 4216 45bc 33c0 9cbd e47d cfbd
000002a0: c936 a53d f77e d4bd f1f7 25be ae7b a4bd
000002b0: e4ff 243d 5719 3c3e 3d54 31bd bba8 ffbd
000002c0: 27be ccb9 0a84 2c3e 7073 57bd 67c6 1ebe
000002d0: 6ce3 cfbd b301 0cbd 6112 443d ff8d 0d3e
000002e0: 5676 94bd fcfd adbd c04c 5b38 2435 9db8
000002f0: bc88 96bd f0b6 c93d e5b7 4e3e 25c0 00be
00000300: 929c bbbc 60b4 393d 23f7 afbd c8d4 a1b9
00000310: 2737 76be f171 b8ba c3fc 5438 82c2 37bd
00000320: 1528 093a be00 29be 0353 29be 7818 ca3d
00000330: 4dd2 a33b 08b1 e8bc c556 6bbe cf41 db3a
00000340: 8b7e e8bc 3390 b8bd 948a 123b 5586 003e
00000350: 8f4e 373a 17b8 3ebe cd42 8a3e 3db3 8a3d
00000360: 71c8 343e 5be1 d6bd 24d6 c93d 8c5a 003e
00000370: befe a93e 4e3a 433d 28c7 b7bd 57c4 53bd
00000380: 0ea7 d4bd ae04 e63d 8b84 0abd 846e 90bd
00000390: 2184 f5bd f89d 0b3e e69c 72bd 65f3 20be
000003a0: 7ab0 e7bd 99e5 79b9 99f6 f4bd 13ed 22be
000003b0: 0669 0037 2131 203e 23ad 87bd 4b11 383e
000003c0: 8c38 c93d dd15 ddbc ac89 11bd 6e12 59be
000003d0: 55b3 233e 7e58 293c 4356 1c3e 6525 02bd
000003e0: 113f f834 95e1 7aba 351b bdbd dfd9 0fbc
000003f0: feec d53b a1f4 88bd 0b46 ff3c 9b85 e03d

4.bias f4 [10]
-0.29000926 -0.16622475 -0.0020893107 -0.046226323 0.0402068 0.31075692 0.005069289 0.16598314
-0.2585828 0.10920233
00000000: 187c 94be d236 2abe d1ec 08bb d057 3dbd
00000010: e3af 243d 881b 9f3e 471c a63b 7cf7 293e
00000020: f764 84be 79a5 df3d
