models/mnist_fc_6.pt (torch, 483555 bytes, 12 tensors)

1.weight f4 [100, 784]
-1.1607602e-06 -3.0730087e-06 3.1234222e-06 -6.7029337e-06 -1.3443561e-06 4.4899502e-06 1.3393042e-06 7.893698e-06
1.6333547e-06 1.7585317e-05 2.235952e-06 -6.444296e-06 5.559636e-06 -2.7689844e-06 -1.0592146e-06 1.1430513e-05
-3.4400748e-06 -1.9546208e-06 -5.7298166e-07 2.9905052e-06 6.126609e-06 2.9035916e-06 1.4573917e-05 8.643405e-08
1.924536e-06 7.587126e-06 1.1424422e-05 1.0626221e-06 7.291722e-06 1.0438853e-06 -6.6347034e-06 -4.524712e-06
3.5704022e-06 1.9645722e-05 -8.102932e-06 -8.853603e-06 5.550621e-06 -9.027385e-06 5.3394338e-06 -2.5246693e-05
7.903439e-06 -1.57779e-05 -2.6171988e-06 -6.7498636e-06 4.4797744e-06 -1.2770744e-05 9.4748175e-06 -1.4999773e-06
-8.9146613e-07 1.5641377e-06 8.508935e-06 4.032253e-06 -1.3881271e-05 -4.6173113e-06 1.000071e-05 -2.9990254e-08
-9.2303526e-07 7.0366345e-06 5.740026e-07 7.9542415e-06 8.960984e-06 -1.4326561e-05 1.0114087e-05 7.69471e-06
-2.157322e-05 6.9822713e-06 1.7301869e-06 2.4441495e-06 2.2520595e-05 1.3532293e-05 -1.1560864e-07 4.512843e-06
2.6947305e-06 3.5785476e-06 -3.563514e-06 4.931243e-07 1.21083085e-05 6.7174374e-06 -2.1750864e-06 -1.300139e-05
-9.405236e-06 4.4952662e-06 -1.7807348e-05 2.9462444e-06 -6.651973e-06 -6.044664e-06 1.4104453e-06 -8.986716e-06
1.0388511e-05 1.0079314e-05 -4.6322242e-05 -1.2019242e-06 1.5208527e-05 4.5672505e-06 -1.2335982e-05 9.808576e-07
-1.7780661e-05 5.730526e-06 -1.4513953e-05 -6.0333594e-05 -0.00037416603 -0.00050978776 -0.00026299534 -8.566857e-05
-0.000335431 -0.00017761237 -0.00024699286 -4.5797087e-06 2.2558609e-06 9.476349e-06 1.06696825e-05 -1.6469943e-05
1.6499491e-06 -7.836625e-07 5.471964e-06 1.2775707e-05 1.5255394e-05 -2.8045604e-06 -3.271269e-05 5.8442997e-06
-3.8561277e-05 -2.3313263e-05 -2.8700011e-05 -9.896966e-06 0.0003599016 0.00045693366 0.00052429124 0.0003499905
0.00022446904 5.8549907e-05 -5.0327453e-05 -3.546941e-05 1.9478903e-06 -0.00013507476 -0.00012119167 -0.000169176
-0.0002024213 -0.00011954257 5.8387604e-06 -5.7705142e-06 -1.6973883e-06 -8.9112455e-06 2.0529571e-05 8.753588e-07
-8.025252e-06 -8.163204e-06 -2.5062995e-05 0.00037600187 0.00029030058 0.00031022646 -0.0003920201 -3.2843862e-05
0.00023603055 0.0003726469 0.0002717954 0.00024227855 0.00013790539 0.00018197314 0.00045544107 6.700775e-06
8.94833e-05 9.0615555e-05 -0.00010688759 -0.000103682745 -0.00015009785 -0.00011467743 -1.8736442e-05 4.4834737e-06
7.0959786e-06 6.381263e-06 -1.1924722e-05 -4.4678566e-07 -5.8225194e-08 -0.00035114025 -0.00049111556 -2.7221191e-05
-0.00010271803 0.00018387483 4.9224604e-05 0.023892831 0.019252434 0.00036339424 0.047590703 0.0004792526
0.0006965374 0.0006452185 0.0010357498 0.018006984 0.08771807 0.015189111 -0.00020385336 -0.00018712852
-8.049961e-05 -2.0353815e-05 -3.5979785e-06 7.091662e-06 1.5501862e-05 -1.0882762e-05 1.9152271e-06 -0.00014427722
-0.0006743177 -0.00064419984 -0.00048975635 -0.00018375352 -0.00011911004 0.00022451022 0.016027458 0.0030553995
0.019745331 0.09962952 0.012340862 0.0359823 0.000368254 0.0002103995 0.00091537606 0.00023447139
-0.00013426106 0.0010314211 6.4704745e-06 -0.00013339144 -0.00013054314 1.5319072e-05 -8.599783e-06 1.0281361e-05
-9.868864e-07 -5.5205596e-06 -2.0523701e-05 -4.1900206e-05 -0.000500841 -0.0005934486 -0.00025090153 -0.00023230052
0.00019260612 0.00022499327 0.00016994546 -2.3669845e-06 0.0019581171 0.003221074 0.009079879 0.0003722999
1.0038877e-05 0.050421998 0.00064538204 0.00011467174 0.00015140594 -0.00048574148 -0.00033092164 4.644212e-05
-0.00035985172 -0.0006421021 5.9973613e-06 -1.1315692e-05 -5.42793e-06 -5.238678e-06 3.6272266e-07 -3.0624199e-06
00000000: 6bcb 9bb5 e339 4eb6 fc9b 5136 c3e9 e0b6
00000010: b96f b4b5 61a8 9636 24c2 b335 2d6f 0437
00000020: a439 db35 2e84 9337 5d0d 1636 153c d8b6
00000030: e98c ba36 cad2 39b6 562a 8eb5 aec5 3f37
00000040: 09dc 66b6 212c 03b6 00cf 19b5 7db0 4836
00000050: 2c93 cd36 53db 4236 7f82 7437 9f9d b933
00000060: 4727 0136 eb94 fe36 85ab 3f37 6b9f 8e35
00000070: 6aab f436 a01b 8c35 ab9f deb6 fbd2 97b6
00000080: 0b9b 6f36 decc a437 d4f1 07b7 ef89 14b7
00000090: 793f ba36 5374 17b7 6329 b336 dcc8 d3b7
000000a0: 0399 0437 c85a 84b7 22a3 2fb6 e37c e2b6
000000b0: f850 9636 ee41 56b7 08f6 1e37 d452 c9b5
000000c0: 164d 6fb5 5def d135 99c1 0e37 ca4c 8736
000000d0: 9be3 68b7 67ee 9ab6 b9c8 2737 a2ce 00b3
000000e0: 80c6 77b5 3b1c ec36 2915 1a35 3573 0537
000000f0: 2257 1637 1c5c 70b7 acaf 2937 8718 0137
00000100: 23f8 b4b7 4149 ea36 c538 e835 2b06 2436
00000110: 9cea bc37 c208 6337 8644 f8b3 076d 9736
00000120: 1ed7 3436 fb26 7036 b424 6fb6 3e5f 0435
00000130: ca24 4b37 5966 e136 b3f7 11b6 8b20 5ab7
00000140: 2ecb 1db7 0bd6 9636 fd60 95b7 18b8 4536
00000150: 0334 dfb6 45d3 cab6 884e bd35 a7c5 16b7
00000160: 514a 2e37 531a 2937 214a 42b8 cd51 a1b5
00000170: 2028 7f37 6240 9936 a4f6 4eb7 03a6 8335
00000180: ae27 95b7 d848 c036 f480 73b7 b40e 7db8
00000190: b72b c4b9 47a3 05ba a3e2 89b9 f7a8 b3b8
000001a0: c9dc afb9 753d 3ab9 d27e 81b9 66ab 99b6
000001b0: 6563 1736 9cfc 1e37 f001 3337 ef28 8ab7
000001c0: d273 dd35 e05c 52b5 d09b b736 3e57 5637
000001d0: 6bf1 7f37 fb35 3cb6 fc34 09b8 271a c436
000001e0: dbbc 21b8 da90 c3b7 cec0 f0b7 250b 26b7
000001f0: 2db1 bc39 9990 ef39 9770 093a ee7e b739
00000200: 735f 6b39 7c93 7538 b116 53b8 fdc4 14b8
00000210: 80b8 0236 dba2 0db9 4828 feb8 d664 31b9
00000220: 0e41 54b9 eeb2 fab8 92ea c336 57a0 c1b6
00000230: d1d1 e3b5 8281 15b7 eb36 ac37 33fa 6a35
00000240: 32a4 06b7 b2f4 08b7 5f3e d2b7 1e22 c539
00000250: 7c33 9839 e4a5 a239 0c88 cdb9 d4c1 09b8
00000260: f87e 7739 d25f c339 c37f 8e39 270c 7e39
00000270: b29a 1039 0bd0 3e39 44c8 ee39 38d7 e036
00000280: fba8 bb38 db08 be38 d728 e0b8 4070 d9b8
00000290: 9663 1db9 fa7e f0b8 342c 9db7 bf70 9636
000002a0: fe19 ee36 a21e d636 4a10 48b7 c1dd efb4
000002b0: 4713 7ab3 3f19 b8b9 35be 00ba 1059 e4b7
000002c0: 536a d7b8 86ce 4039 8476 4e38 e6ba c33c
000002d0: 48b7 9d3c f385 be39 78ee 423d 3244 fb39
000002e0: d597 363a e123 293a ffc1 873a 6283 933c
000002f0: 88a5 b33d c0db 783c 78c1 55b9 ee37 44b9
00000300: e6d1 a8b8 7cbd aab7 cd74 71b6 eaf4 ed36
00000310: ff09 8237 1b95 36b7 5a87 0036 1f49 17b9
00000320: b2c4 30ba 85df 28ba fe62 00ba f6ad 40b9
00000330: b7ca f9b8 816a 6b39 044c 833c 193d 483b
00000340: f6c0 a13c 900a cc3d 5431 4a3c 2d62 133d
00000350: 3712 c139 b09e 5c39 d9f5 6f3a 6fdc 7539
00000360: 6ec8 0cb9 c030 873a f41c d936 fede 0bb9
00000370: 68e2 08b9 7581 8037 c947 10b7 1c7e 2c37
00000380: 2975 84b5 3f3d b9b6 502a acb7 01be 2fb8
00000390: df4a 03ba a991 1bba 6f8b 83b9 b295 73b9
000003a0: 50f6 4939 2cec 6b39 6333 3239 7cd8 1eb6
000003b0: c153 003b a718 533b c6c3 143c 3f31 c339
000003c0: a66c 2837 4c87 4e3d db2e 293a ec7b f038
000003d0: b9c2 1e39 1eab feb9 8d7f adb9 d9ca 4238
000003e0: 7baa bcb9 be52 28ba f13c c936 87d8 3db7
000003f0: 9021 b6b6 e7c7 afb6 39bc c234 f983 4db6

1.bias f4 [100]
-0.041970678 0.09169989 -0.14245367 -0.0441122 0.11244894 -0.011528166 -0.040582236 -0.0705273
0.15235479 0.011331986 -0.04572386 -0.024697982 -0.04531276 -0.04292695 -0.043206155 0.1233748
0.13542618 0.12657554 -0.011878577 -0.045454867 0.10112784 -0.022495534 0.050841883 0.1102594
-0.041695397 0.055481855 -0.044583626 -0.15739256 -0.043794185 0.22465539 -0.13909905 -0.043982644
0.045284227 -0.06931118 -0.04437877 -0.047817383 0.017367927 -0.093634166 0.1719491 -0.105593905
0.046913423 -0.04551968 0.17474915 -0.039036155 -0.09082364 -0.04525989 0.14759095 -0.042840146
0.10328543 0.029961815 -0.043700363 -0.10871792 -0.050408483 -0.0440821 -0.065565646 -0.070223264
-0.042089675 0.08680163 -0.15867946 -0.043232225 -0.048326023 0.076708965 -0.04346602 -0.04470029
-0.0843552 0.1290356 -0.15424068 -0.04215387 -0.004088139 -0.045275357 0.16397679 0.20202805
-0.04354259 -0.04462169 -0.04471216 -0.042843666 -0.042269394 -0.042272504 0.04550097 0.04832913
-0.038634416 -0.04291663 -0.04434962 0.15093996 -0.043821305 -0.047399893 0.021622848 -0.053602286
0.07757692 -0.010590635 0.043885812 -0.00743314 0.0034138747 -0.16970317 -0.045085657 -0.09916377
-0.045050595 -0.08944346 0.07937304 -0.0437122
00000000: 72e9 2bbd 27cd bb3d 60df 11be ffae 34bd
00000010: a14b e63d a2e0 3cbc 8f39 26bd 9e70 90bd
00000020: e502 1c3e cba9 393c f148 3bbd 6c53 cabc
00000030: df99 39bd 2bd4 2fbd f0f8 30bd edab fc3d
00000040: 29ad 0a3e 059d 013e 5d9e 42bc e22e 3abd
00000050: 1d1c cf3d 8e48 b8bc 943f 503d aecf e13d
00000060: cbc8 2abd f140 633d 529d 36bd 842b 21be
00000070: 8861 33bd 100c 663e fb6f 0ebe 2527 34bd
00000080: f47b 393d 05f3 8dbd 83c6 35bd 29dc 43bd
00000090: 2f47 8e3c 45c3 bfbd 6d13 303e 9e41 d8bd
000000a0: 4a28 403d d872 3abd 71f1 323e 60e4 1fbd
000000b0: bf01 babd 6f62 39bd 1522 173e 2679 2fbd
000000c0: 5087 d33d 7b72 f53c 27ff 32bd 80a7 debd
000000d0: 2079 4ebd 6f8f 34bd 4847 86bd 37d1 8fbd
000000e0: 3966 2cbd 0ec5 b13d de7c 22be 4614 31bd
000000f0: 82f1 45bd 9719 9d3d 6d09 32bd a717 37bd
00000100: 6bc2 acbd e921 043e 45f1 1dbe 89a9 2cbd
00000110: ccf5 85bb a772 39bd 88e9 273e 71e0 4e3e
00000120: b759 32bd 3cc5 36bd 1924 37bd d77c 2fbd
00000130: ac22 2dbd ef25 2dbd 3a5f 3a3d c4f4 453d
00000140: 1f3f 1ebd 59c9 2fbd f2a7 35bd 0190 1a3e
00000150: f87d 33bd 6426 42bd 6622 b13c 128e 5bbd
00000160: a6e0 9e3d 5884 2dbc 9cc1 333d b391 f3bb
00000170: 50bb 5f3b abc6 2dbe bdab 38bd 6016 cbbd
00000180: f986 38bd 222e b7bd 558e a23d 900b 33bd

3.weight f4 [100, 100]
-5.279588e-06 8.865763e-06 1.41739e-07 2.730093e-05 -7.288633e-06 5.565e-06 8.503878e-06 -1.02197e-05
5.833833e-06 1.8619779e-06 1.1871926e-05 -8.788663e-06 1.2282276e-06 1.0206284e-05 1.008543e-05 5.994046e-06
6.1798955e-06 1.1938082e-05 -6.3478683e-07 1.4020897e-05 1.3527132e-05 6.8993295e-06 1.8410504e-06 1.1697528e-05
-6.4447777e-06 -5.496901e-06 6.350626e-06 4.345798e-06 -1.7567236e-05 3.1487195e-07 2.290202e-06 -1.2859448e-05
1.5010783e-06 3.911976e-06 -1.0989834e-05 6.622645e-06 -4.7782455e-06 -7.1526324e-06 -7.101997e-07 -2.4452336e-06
-2.2811114e-06 2.0587368e-06 -6.6761453e-07 -5.8556343e-06 -5.6788144e-06 2.487813e-06 5.5908986e-06 3.674511e-07
-6.3995726e-06 2.1742678e-06 7.769718e-06 1.0817705e-05 -7.972006e-07 -1.9126019e-06 3.727008e-06 -1.0778865e-06
1.03781325e-07 8.759875e-06 -7.0619035e-06 -9.700882e-06 -7.050957e-06 -2.5608563e-07 -4.7334815e-06 4.100909e-06
-2.2531751e-06 4.111486e-06 -1.5486503e-05 8.258321e-06 -3.480147e-07 7.631649e-06 -4.1835315e-06 3.1996237e-06
-8.508544e-06 -1.2219313e-05 2.873433e-06 1.1680686e-06 -3.353964e-06 7.119451e-06 1.1722076e-06 -2.456516e-05
9.398681e-07 -1.9480625e-07 8.753216e-06 -4.3992745e-06 1.1379602e-05 5.8638084e-06 -2.6344978e-06 8.016477e-06
-7.2230646e-06 1.5746034e-05 8.196093e-06 -1.9191592e-07 -3.2912299e-06 2.5452773e-06 1.1280337e-06 -2.5289128e-06
1.1914593e-05 -5.6160166e-06 2.3102552e-06 -5.1296115e-07 -1.4469286e-07 4.352079e-06 6.7176546e-07 -6.2340064e-06
1.2552751e-05 7.717276e-06 -6.997857e-06 -8.659432e-06 -9.030137e-06 -1.5201289e-06 1.235294e-05 -4.4336493e-06
9.666633e-06 7.0680203e-06 1.7975304e-06 -2.5083975e-06 2.0486223e-06 4.6120776e-06 1.3265768e-05 -1.3225893e-05
1.9968445e-06 -1.3875997e-05 -6.515989e-06 -4.6041632e-07 5.907213e-06 3.4504217e-06 -8.1272924e-07 -1.4111356e-07
-3.7116254e-06 -3.745081e-06 6.93504e-06 9.201728e-08 -1.996004e-06 -1.1229808e-06 6.165722e-06 3.12067e-06
-7.2399284e-06 -8.158084e-06 6.982415e-06 4.659253e-06 2.3710686e-06 -1.3353052e-06 -5.5152225e-07 -8.893338e-07
8.770898e-06 3.2339616e-07 -1.21931525e-05 1.947669e-06 6.3586535e-06 -1.9197316e-06 -7.434567e-07 8.576359e-06
-1.1051065e-05 -1.5150986e-05 4.294406e-06 -6.620529e-06 3.9483452e-06 -1.5197729e-05 6.3726366e-06 2.2813447e-06
-5.3798612e-06 1.884626e-06 -1.3262636e-05 -4.9867413e-06 -3.9351903e-06 5.181542e-06 7.064478e-06 5.233995e-06
9.1458963e-07 9.512741e-06 -2.5635547e-06 2.9824332e-06 -6.7491874e-06 3.5219518e-06 2.6189732e-06 1.0471185e-05
-7.9892925e-06 5.652697e-06 -9.733617e-06 2.6715913e-06 9.1181654e-08 -6.2497124e-06 1.7962297e-05 -1.15184555e-07
5.634745e-06 -3.6222652e-06 1.8992068e-06 -5.141712e-06 -1.0934535e-05 5.7937473e-06 -1.1152131e-05 -4.516853e-06
1.1941859e-05 -1.1280942e-05 1.5455063e-06 -1.5774531e-06 6.056087e-06 -5.654809e-06 8.705256e-07 -4.596541e-06
-0.09671782 -0.00021814625 -0.4566281 -2.430529e-05 0.13756716 9.083568e-05 -1.6423948e-05 -0.3669005
0.00062879786 8.643484e-05 -1.5998616e-05 0.00024293251 -2.4812913e-05 8.2065367e-07 -2.3047396e-05 0.25561035
0.0892027 0.0014902941 0.001327317 7.508518e-06 0.00031085245 -0.26713908 -0.052046813 -0.001405981
-4.1110885e-05 -0.00018363477 -1.3189905e-05 -0.0009508252 3.9471524e-06 -0.0005151053 0.24893409 1.7195547e-05
0.00014864228 -0.29172194 -2.5425372e-05 -1.3292314e-05 -0.00020889928 -0.016303917 0.18292138 -0.06415174
-0.18430705 -3.468445e-06 0.16586933 -1.3826494e-05 -0.059002936 4.5237825e-06 0.059271343 -1.21553785e-05
0.044311903 -0.00021227736 5.2110016e-05 -0.034236014 -0.0983774 -1.5396636e-05 -0.14914736 0.00014999448
00000000: 5127 b1b6 2abe 1437 eb30 1834 4d04 e537
00000010: e190 f4b6 fcba ba36 e1ab 0e37 4775 2bb7
00000020: 3ec0 c336 13e9 f935 892d 4737 0573 13b7
00000030: 94d9 a435 a83b 2b37 9834 2937 7720 c936
00000040: e65c cf36 ac49 4837 3866 2ab5 4b3b 6b37
00000050: 97f2 6237 ca80 e736 031a f735 8040 4437
00000060: 3840 d8b6 0572 b8b6 7617 d536 1fd2 9136
00000070: 5a5d 93b7 ac0b a934 5fb1 1936 e9be 57b7
00000080: a878 c935 9e43 8336 fa60 38b7 1638 de36
00000090: d154 a0b6 a500 f0b6 8da4 3eb5 cb18 24b6
000000a0: 3215 19b6 d428 0a36 1f36 33b5 847b c4b6
000000b0: a58c beb6 4df4 2636 7499 bb36 1846 c534
000000c0: e9bb d6b6 a3e9 1136 af5a 0237 b07d 3537
000000d0: 35ff 55b5 405a 00b6 831d 7a36 e6ab 90b5
000000e0: 63de de33 60f7 1237 4af5 ecb6 f9c0 22b7
000000f0: 4297 ecb6 247c 89b4 4cd4 9eb6 8a9a 8936
00000100: 4135 17b6 65f5 8936 03e9 81b7 388d 0a37
00000110: c7d6 bab4 af09 0037 4360 8cb6 1eb9 5636
00000120: ebbf 0eb7 8d01 4db7 34d5 4036 88c6 9c35
00000130: aa14 61b6 9ee3 ee36 bf54 9d35 4811 ceb7
00000140: 3e4b 7c35 ef2b 51b4 c7da 1237 7b9d 93b6
00000150: 05eb 3e37 bbc1 c436 54cc 30b6 827e 0637
00000160: a75d f2b6 5a16 8437 f481 0937 7211 4eb4
00000170: e6de 5cb6 88cf 2a36 f166 9735 64b6 29b6
00000180: cae4 4737 3771 bcb6 e209 1b36 6cb2 09b5
00000190: df5c 1bb4 1308 9236 5f53 3435 b52d d1b6
000001a0: a899 5237 7379 0137 22cf eab6 fa47 11b7
000001b0: 2580 17b7 3b07 ccb5 793f 4f37 c2c4 94b6
000001c0: df2d 2237 d529 ed36 ad42 f135 f155 28b6
000001d0: 107b 0936 72c1 9a36 0a90 5e37 c7e4 5db7
000001e0: 8701 0636 f4cc 68b7 eba3 dab6 232f f7b4
000001f0: 9336 c636 cb8d 6736 542a 5ab5 0085 17b4
00000200: 3d15 79b6 0054 7bb6 8ab3 e836 099b c533
00000210: 16f3 05b6 54b9 96b5 26e3 ce36 b46c 5136
00000220: 83ee f2b6 b4de 08b7 7d4a ea36 ae56 9c36
00000230: a61e 1f36 bd38 b3b5 520c 14b5 8eba 6eb5
00000240: b826 1337 3b9f ad34 3191 4cb7 b3b4 0236
00000250: 6b5c d536 bdd4 00b6 f591 47b5 2ee3 0f37
00000260: f667 39b7 fd30 7eb7 ab18 9036 e925 deb6
00000270: 077c 8436 c0f9 7eb7 88d4 d536 3419 1936
00000280: a884 b4b6 42f3 fc35 9682 5eb7 c853 a7b6
00000290: 070b 84b6 1bdd ad36 670b ed36 ad9f af36
000002a0: 1f82 7535 e998 1f37 8909 2cb6 d025 4836
000002b0: 1477 e2b6 ac5a 6c36 9ec1 2f36 66ad 2f37
000002c0: c009 06b7 4cac bd36 914d 23b7 9749 3336
000002d0: a5cf c333 9fb4 d1b6 bdad 9637 615b f7b3
000002e0: 1712 bd36 0b16 73b6 40e8 fe35 f886 acb6
000002f0: 7873 37b7 e967 c236 0a1a 3bb7 798f 97b6
00000300: e559 4837 4743 3db7 316f cf35 e0b8 d3b5
00000310: 6435 cb36 70be bdb6 10ae 6935 fd3b 9ab6
00000320: fe13 c6bd 30be 64b9 29cb e9be 36e3 cbb7
00000330: 68de 0c3e 097f be38 29c6 89b7 62da bbbe
00000340: e9d5 243a 5a44 b538 c434 86b7 b3bb 7e39
00000350: 5325 d0b7 e44a 5c35 e855 c1b7 5cdf 823e
00000360: e8af b63d f955 c33a 5ef9 ad3a aef1 fb36
00000370: e9f9 a239 74c6 88be 0a2f 55bd e548 b8ba
00000380: 7a6e 2cb8 158e 40b9 364a 5db7 cd40 79ba
00000390: c871 8436 2208 07ba 94e8 7e3e 283f 9037
000003a0: dcdc 1b39 945c 95be 9248 d5b7 0e02 5fb7
000003b0: f90b 5bb9 cb8f 85bc be4f 3b3e fd61 83bd
000003c0: fdba 3cbe 6ec3 68b6 a6d9 293e 57f8 67b7
000003d0: 10ad 71bd ffca 9736 82c6 723d f4ee 4bb7
000003e0: 6680 353d c596 5eb9 b490 5a38 103b 0cbd
000003f0: 177a c9bd 0628 81b7 16ba 18be d647 1d39

3.bias f4 [100]
-0.01905905 -0.02050356 0.095289886 -0.019464333 -0.05586616 -0.021952728 -0.052846313 -0.01595056
0.06526792 -0.03670484 -0.009472389 -0.010206931 -0.022444624 0.088153765 -0.020675465 -0.01428633
0.015909048 -0.031651832 -0.016836358 -0.015057266 0.17378823 0.09636694 -0.016530847 0.12010162
0.08020948 -0.018045107 -0.01718407 -0.019835874 0.1728317 0.23989126 0.042587727 -0.019526873
-0.020621095 0.22553122 -0.012429861 -0.020870527 -0.017773705 -0.002632452 -0.01059653 0.031794183
-0.022512209 0.10524867 -0.018923849 -0.044770256 -0.018148221 -0.018966187 0.07494023 -0.016283032
0.03330594 0.04085233 -0.020924743 -0.10786656 -0.019510346 -0.017302632 0.027981417 0.055001214
-0.017097138 0.10107544 0.18005364 -0.01979 -0.009163377 0.012692965 0.016413603 0.0886951
0.013393369 -0.012505528 -0.01865702 0.11042192 -0.019254075 -0.0183177 0.039912537 0.0025540506
0.111437835 -0.020169923 0.067528 -0.021201625 -0.022204997 0.06824858 -0.01988657 -0.019335695
-0.019560752 0.14636956 0.05696201 0.12299798 -0.017630843 0.06815508 -0.030835848 -0.015771396
0.045926888 0.012669877 -0.011892075 -0.09665799 -0.021538775 -0.018165909 0.06328688 -0.01922368
0.089074776 -0.015047672 0.1652579 0.026849536
00000000: ba21 9cbc 15f7 a7bc 5827 c33d aa73 9fbc
00000010: ead3 64bd 35d6 b3bc 6075 58bd c0aa 82bc
00000020: 30ab 853d d057 16bd 1432 1bbc f93a 27bc
00000030: cadd b7bc f689 b43d 985f a9bc 3611 6abc
00000040: b153 823c 5aa5 01bd 67ec 89bc c0b2 76bc
00000050: 8bf5 313e 085c c53d b36b 87bc d7f7 f53d
00000060: de44 a43d 55d3 93bc 9bc5 8cbc d87e a2bc
00000070: cbfa 303e 0ea6 753e 7870 2e3d d2f6 9fbc
00000080: 92ed a8bc a8f1 663e 9ea6 4bbc abf8 aabc
00000090: 299a 91bc 3785 2cbb 119d 2dbc 9e3a 023d
000000a0: 866b b8bc 9d8c d73d 3006 9bbc 0461 37bd
000000b0: 94ab 94bc fa5e 9bbc 437a 993d fe63 85bc
000000c0: cf6b 083d c654 273d 5e6a abbc 25e9 dcbd
000000d0: 29d4 9fbc 40be 8dbc 4939 e53c f448 613d
000000e0: 4c0f 8cbc a400 cf3d fb5f 383e a31e a2bc
000000f0: fd21 16bc 27f6 4f3c d275 863c c7a5 b53d
00000100: dc6f 5b3c fce3 4cbc 9bd6 98bc e324 e23d
00000110: b9ba 9dbc 000f 96bc 547b 233d dc61 273b
00000120: 8539 e43d 653b a5bc 1f4c 8a3d 08af adbc
00000130: 41e7 b5bc e9c5 8b3d 29e9 a2bc e465 9ebc
00000140: df3d a0bc e7e1 153e ff50 693d 5de6 fb3d
00000150: 8f6e 90bc e494 8b3d 769b fcbc 0433 81bc
00000160: d51d 3c3d 5195 4f3c fad6 42bc a0f4 c5bd
00000170: 1672 b0bc acd0 94bc 8d9c 813d fb7a 9dbc
00000180: d66c b63d 838a 76bc 5e39 293e 8ff3 db3c

5.weight f4 [100, 100]
8.247406e-06 -1.00484485e-05 -1.3745505e-05 7.1013965e-06 7.814352e-06 -9.979374e-07 1.0263092e-05 2.6167842e-07
5.276742e-06 2.3930013e-06 1.2133973e-05 1.0481933e-06 -3.8535636e-06 -2.8011252e-06 -1.6598786e-05 -7.1605436e-06
-6.865416e-06 3.4598168e-07 -8.395332e-06 3.239532e-06 3.6101458e-06 -1.9717256e-06 1.0520057e-06 4.3632897e-07
1.8671004e-06 -6.3082425e-06 -4.461848e-06 -1.4892781e-05 -1.4608085e-05 -1.1161549e-06 8.1018975e-08 2.0260695e-06
-6.349203e-06 2.0484179e-06 -1.1705907e-05 1.910971e-08 7.85257e-06 -8.015679e-06 -7.884344e-06 -4.29633e-06
-2.825998e-06 -3.9566174e-07 -2.5310544e-06 1.2685743e-05 9.59185e-06 -1.430604e-05 1.038972e-06 8.693492e-06
-1.0915979e-05 -1.1842065e-05 6.2010446e-07 1.0051416e-06 -2.5438817e-06 4.729565e-07 -3.3259475e-06 2.2773472e-06
-8.434186e-06 8.399893e-06 1.0078102e-05 -5.1719518e-08 8.141018e-06 4.8496986e-06 1.5845899e-05 -4.5399847e-06
1.36138515e-05 5.2427167e-06 3.2109365e-05 1.11338835e-07 5.033363e-06 -1.8614787e-06 -2.166603e-06 4.5397705e-06
8.573048e-06 -1.5384345e-06 -4.1934477e-06 1.769531e-05 1.9442636e-05 5.397316e-06 -4.6259656e-06 7.257451e-06
7.863648e-06 -8.029588e-06 -1.5230301e-05 -1.611076e-05 7.1360664e-06 -1.04066685e-05 -7.951083e-06 -5.6131817e-06
3.7370419e-06 2.5151617e-06 9.171989e-06 -6.609112e-06 -1.4827517e-05 -2.7805777e-06 -9.841455e-06 -2.7880438e-05
-2.2542908e-06 -6.227322e-06 7.855296e-06 2.1870794e-06 -2.5200457e-06 1.15622315e-05 4.8862007e-06 -2.5334487e-06
1.685488e-05 1.202173e-06 -2.2649756e-06 7.637969e-06 -5.0274953e-06 2.427314e-06 -5.2736013e-06 1.6339403e-05
6.2943172e-06 2.1116357e-07 1.6669928e-06 1.2384895e-06 1.4535585e-05 -1.3213141e-06 1.3673747e-05 -9.4181495e-08
-5.4625334e-06 5.8760015e-06 8.511298e-06 -1.5251805e-05 -1.5471353e-05 6.589352e-06 -5.0038097e-06 -6.70545e-07
1.18254575e-05 -8.650412e-07 8.757365e-06 5.297388e-06 -6.2782656e-06 5.7789844e-06 6.9727557e-06 1.3187179e-05
3.794733e-06 9.645819e-07 6.3342004e-06 6.0767843e-06 -4.1690764e-06 -1.09099665e-05 7.754359e-06 8.134341e-06
6.3312114e-06 -8.120424e-06 -9.444039e-06 -7.5592798e-06 -1.25104725e-05 -4.4042617e-06 5.570801e-06 4.9116597e-06
-7.347193e-07 2.605909e-06 5.0515405e-07 1.220215e-05 9.197332e-06 8.6104565e-06 4.5683828e-07 -2.4770409e-06
2.4096215e-08 1.163858e-05 -7.789043e-06 -2.766418e-07 -2.2261086e-07 -2.8698253e-06 -7.5338953e-06 8.894484e-06
4.060223e-07 -3.1234805e-07 -3.3784318e-06 2.7401782e-06 -8.944025e-06 -8.7976036e-07 9.436447e-06 -9.400066e-06
3.1717816e-06 1.7884955e-06 1.8514902e-05 -1.0734899e-05 -2.2897093e-07 2.116736e-06 2.4333835e-06 1.3414225e-06
2.9880714e-06 1.0900143e-05 -7.870817e-06 -3.899162e-06 -6.0842976e-06 4.3867928e-07 2.2919398e-06 -1.3541432e-05
3.310471e-06 -2.6539844e-06 -1.0885994e-06 7.634157e-06 1.3807915e-05 -5.819887e-06 2.1497408e-06 5.306885e-06
-2.161208e-05 1.0324638e-05 3.957392e-07 8.853725e-06 3.5180165e-07 4.0442387e-06 -1.731669e-05 1.0753583e-05
1.1677653e-06 -1.945825e-06 -1.2674583e-05 6.353148e-06 8.078409e-06 -8.028547e-06 1.8351439e-07 1.1878724e-05
-1.9149931e-05 4.9427185e-06 2.1519975e-06 -3.0220526e-06 9.752439e-06 2.7781592e-08 -6.3092775e-06 -1.7549595e-06
-4.3638915e-06 1.1545743e-05 1.1783741e-05 1.7028057e-06 -1.4863056e-05 1.576961e-05 5.679273e-07 -6.715789e-06
3.140858e-06 -7.457616e-06 3.986861e-06 2.6194792e-05 -1.3287741e-05 1.1334467e-05 4.460354e-06 -4.062092e-06
4.770908e-06 -5.243727e-07 2.9197347e-06 1.5823756e-05 3.6973736e-06 7.49886e-07 -5.1545994e-06 4.8583665e-06
-5.876683e-06 5.8022706e-06 2.0780549e-06 8.717882e-06 2.2014867e-06 -1.1050049e-05 2.3665525e-06 5.7841175e-06
00000000: 575e 0a37 c295 28b7 7f9c 66b7 8848 ee36
00000010: 631a 0337 def0 85b5 a52f 2c37 cf7c 8c34
00000020: de0e b136 7397 2036 0493 4b37 a6af 8c35
00000030: dc4d 81b6 f7fa 3bb6 9f3d 8bb7 9a44 f0b6
00000040: 795d e6b6 5cbf b934 add9 0cb7 bc66 5936
00000050: d545 7236 fd51 04b6 a432 8d35 9940 ea34
00000060: 1599 fa35 64ab d3b6 fcb6 95b6 02dc 79b7
00000070: 3f15 75b7 cace 95b5 a7fc ad33 9cf7 0736
00000080: 3d0b d5b6 8d77 0936 7d64 44b7 b226 a432
00000090: 88be 0337 147b 06b7 0047 04b7 3229 90b6
000000a0: 47a6 3db6 566b d4b4 2fdb 29b6 dad4 5437
000000b0: afec 2037 f903 70b7 ce72 8b35 44da 1137
000000c0: c623 37b7 48ad 46b7 4175 2635 67e8 8635
000000d0: 8eb7 2ab6 a5ea fd34 5833 5fb6 87d4 1836
000000e0: 8e80 0db7 44ed 0c37 1e15 2937 3622 5eb3
000000f0: 6895 0837 98ba a236 cfec 8437 2c56 98b6
00000100: 0c67 6437 98ea af36 2bad 0638 2c19 ef33
00000110: 42e4 a836 ecd7 f9b5 f565 11b6 5554 9836
00000120: f6d4 0f37 357c ceb5 71b5 8cb6 6470 9437
00000130: be18 a337 971a b536 be38 9bb6 0885 f336
00000140: 1cee 0337 d1b6 06b7 a585 7fb7 9825 87b7
00000150: 5872 ef36 4d98 2eb7 a465 05b7 dd58 bcb6
00000160: e4c9 7a36 26ca 2836 65e1 1937 d7c3 ddb6
00000170: b3c3 78b7 f699 3ab6 ba1c 25b7 c9e0 e9b7
00000180: 6c48 17b6 4af4 d0b6 3dca 0337 bdc5 1236
00000190: 0e1e 29b6 68fb 4137 25f4 a336 5104 2ab6
000001a0: 9463 8d37 5a5a a135 fcff 17b6 d424 0037
000001b0: dbb1 a8b6 f0e4 2236 e4f3 b0b6 9a10 8937
000001c0: c633 d336 33bc 6234 70bd df35 2d3a a635
000001d0: dddd 7337 0258 b1b5 4c68 6537 d340 cab3
000001e0: ce4a b7b6 782a c536 bfcb 0e37 01e2 7fb7
000001f0: 7ac8 81b7 1a1a dd36 66e6 a7b6 80ff 33b5
00000200: f465 4637 2e35 68b5 99ec 1237 37c0 b136
00000210: e4a9 d2b6 19e9 c136 84f7 e936 813e 5d37
00000220: 04a9 7e36 c876 8135 5e8a d436 2ee7 cb36
00000230: 18e4 8bb6 f309 37b7 b818 0237 bb78 0837
00000240: b170 d436 f53c 08b7 d771 1eb7 b8a5 fdb6
00000250: 12e4 51b7 52c8 93b6 d1ec ba36 d6ce a436
00000260: 8739 45b5 2de1 2e36 ec99 0735 d6b7 4c37
00000270: 3d4e 1a37 a175 1037 6043 f534 3d3b 26b6
00000280: 23fc ce32 5243 4337 afad 02b7 5c85 94b4
00000290: cf06 6fb4 3997 40b6 abcb fcb6 8539 1537
000002a0: 48fb d934 cab0 a7b4 04b9 62b6 e7e3 3736
000002b0: 4b0e 16b7 ac28 6cb5 3b51 1e37 fab4 1db7
000002c0: cbda 5436 3d0c f035 7350 9b37 0a1a 34b7
000002d0: 0ddb 75b4 3f0d 0e36 364d 2336 ed0a b435
000002e0: ad86 4836 c2df 3637 e70c 04b7 8cd5 82b6
000002f0: b827 ccb6 9f83 eb34 3acf 1936 0230 63b7
00000300: 7529 5e36 1b1b 32b6 fe1b 92b5 7414 0037
00000310: 8ba8 6737 7348 c3b6 4444 1036 cc11 b236
00000320: 974b b5b7 fc37 2d37 fb75 d434 768a 1437
00000330: 40df bc34 bfb3 8736 4f43 91b7 4a6a 3437
00000340: 1cbc 9c35 0595 02b6 eba4 54b7 202d d536
00000350: 8188 0737 59b2 06b7 0d0c 4534 bb4a 4737
00000360: 2aa4 a0b7 a1d9 a536 096b 1036 78ce 4ab6
00000370: 689e 2337 5ea4 ee32 48b4 d3b6 f38b ebb5
00000380: 8b6d 92b6 97b4 4137 c8b2 4537 f58b e435
00000390: 575c 79b7 fb48 8437 ab73 1835 3058 e1b6
000003a0: 88c7 5236 6f3c fab6 e0c6 8536 e3bc db37
000003b0: 6aee 5eb7 2a29 3e37 26aa 9536 1b4d 88b6
000003c0: ca15 a036 9ec2 0cb5 a9f0 4336 42bd 8437
000003d0: 6520 7836 c64b 4935 acf5 acb6 0d05 a336
000003e0: 5330 c5b6 20b1 c236 b674 0b36 0543 1237
000003f0: 41bd 1336 9963 39b7 10d1 1e36 3115 c236

5.bias f4 [100]
-0.007433489 -0.0073365583 -0.0151656065 -0.007548876 0.07323372 -0.007485849 -0.0041063293 0.025824705
0.17663348 0.107444935 -0.0036423544 0.06834604 0.06647815 -0.009750292 0.08596302 -0.005701441
0.044468492 0.122384876 -0.011135847 -0.010401686 -0.0054391637 0.0035057035 -0.0064012012 -0.015774958
-0.01344022 0.009977641 -0.009492891 0.24921808 -0.006841805 0.19706309 0.22934596 -0.0083684325
-0.0087180985 0.05243819 -0.019549098 -0.009782863 0.050542694 -0.015578877 0.08467138 -0.0047370964
-0.008332876 0.0014453514 0.20541506 -0.010563672 -0.021878574 -0.0063069677 -0.0032694112 0.18280119
0.13181564 0.014700466 0.001798653 0.00065731385 -0.00764566 0.04016203 0.19588746 0.04750097
-0.009942554 0.2204348 -0.007033313 -0.014703615 0.20329285 -0.017572353 -0.01637104 -0.006937944
-0.001963766 -0.011848652 -0.007913977 -0.016894523 -0.01641179 -0.006443079 -0.0089519145 0.11824961
-0.005884107 -0.011364479 -0.007254782 0.05047188 -0.018390562 -0.014632283 -0.0048186807 -0.00024640077
-0.007965295 -0.008281934 0.09850927 -0.008530159 -0.015552821 0.13615538 -0.0642718 0.37981865
-0.002361818 -0.017448887 -0.015932212 -0.012865859 0.0047391364 -0.007580198 -0.0041026836 -0.022004765
0.12031934 -0.011922343 -0.0073887683 -0.008789834
00000000: a094 f3bb 8367 f0bb 2a79 78bc 905c f7bb
00000010: 90fb 953d da4b f5bb 638e 86bb 558e d33c
00000020: 68df 343e 170c dc3d 91b4 6ebb 02f9 8b3d
00000030: b225 883d b0bf 1fbc 610d b03d 27d3 babb
00000040: 9824 363d eca4 fa3d 2173 36bc d56b 2abc
00000050: 033b b2bb f2bf 653b 2bc1 d1bb 7c3a 81bc
00000060: 5e34 5cbc 4279 233c 1288 1bbc 0633 7f3e
00000070: 3831 e0bb e8ca 493e abd9 6a3e c01b 09bc
00000080: 5bd6 0ebc 6dc9 563d 6e25 a0bc 4d48 20bc
00000090: db05 4f3d 8c3e 7fbc 3068 ad3d a539 9bbb
000000a0: 9d86 08bc f271 bd3a 5358 523e 4013 2dbc
000000b0: b23a b3bc aeaa cebb 9e43 56bb 3c30 3b3e
000000c0: aefa 063e 39da 703c c8c0 eb3a 964f 2c3a
000000d0: 7288 fabb f180 243d b996 483e 6190 423d
000000e0: 18e6 22bc a9b9 613e b577 e6bb 6ee7 70bc
000000f0: 002c 503e e5f3 8fbc 8f1c 86bc b157 e3bb
00000100: 87b2 00bb d920 42bc a0a9 01bc 6266 8abc
00000110: 0572 86bc 7720 d3bb 0dab 12bc da2c f23d
00000120: 78cf c0bb 1432 3abc 86b9 edbb 9abb 4e3d
00000130: cea7 96bc 3ebc 6fbc 06e6 9dbb 5a2f 81b9
00000140: de80 02bc f3b0 07bc 3abf c93d 14c2 0bbc
00000150: 42d1 7ebc 516c 0b3e efa0 83bd 9777 c23e
00000160: bbc8 1abb f8f0 8ebc 4584 82bc 53cb 52bc
00000170: c24a 9b3b 4f63 f8bb ce6f 86bb 5643 b4bc
00000180: fc69 f63d ee55 43bc 7b1d f2bb 3c03 10bc

7.weight f4 [100, 100]
3.96725e-06 -3.7258988e-06 8.621873e-06 3.6576575e-06 3.3071744e-06 1.4238937e-06 -2.3060086e-06 -8.0591935e-06
-1.6660533e-05 1.3474481e-06 5.285824e-06 -2.2216305e-07 -4.5414404e-06 1.0050607e-06 1.237624e-05 -2.1774006e-06
5.5762707e-06 -5.393538e-07 6.1686646e-06 4.972504e-06 1.4752323e-05 -5.534291e-06 -7.617145e-06 -4.8004526e-06
4.6275463e-07 1.0316618e-05 -2.813273e-05 5.4203406e-06 -1.4129641e-05 -2.7366032e-06 -5.5983555e-06 -9.401006e-07
-1.4271266e-05 -5.835682e-06 2.432101e-06 2.816981e-07 2.6042558e-06 6.3226673e-07 7.129625e-06 1.1609534e-05
-3.2394123e-06 -5.7630673e-06 1.6899028e-05 -8.933048e-06 1.8567289e-05 -9.135019e-06 1.1328999e-05 -4.6771083e-06
4.896103e-07 -1.611098e-05 6.496967e-08 1.0310879e-05 1.527759e-05 -1.1732673e-05 3.0480257e-06 -6.3349707e-06
4.918989e-06 5.7358066e-06 3.086892e-06 -8.097341e-06 -1.6915038e-06 8.694274e-06 5.478695e-06 8.183406e-06
-3.4101693e-06 2.2698183e-05 1.55631e-05 3.8047978e-07 -7.236634e-06 -1.01000705e-05 1.7261674e-06 5.0091403e-06
2.495269e-06 4.0590307e-06 -3.6655118e-07 6.2799427e-07 -1.059104e-06 -4.1766793e-06 -2.8312552e-06 4.6541036e-06
1.6108269e-06 -7.1826985e-06 5.0075355e-06 -4.056079e-06 -1.0383075e-06 -1.1473671e-05 -3.2230748e-06 -8.107736e-06
3.9389706e-06 -5.2954797e-06 -9.3011874e-07 -2.471262e-06 -1.4118113e-05 -1.2716902e-05 -1.0984814e-05 -9.3319495e-06
6.6844627e-06 1.648592e-06 5.902472e-06 -8.903326e-06 5.471146e-06 1.2249533e-05 -1.486499e-05 1.3523724e-05
0.1317298 6.6740663e-06 1.95003e-05 8.4775194e-05 0.00019502151 0.0007719282 -2.413393e-06 -0.13291585
0.00031324604 0.00017936633 0.18950556 -4.491914e-06 3.2070828e-05 -0.32541677 9.461102e-06 -3.2916146e-06
1.5061516e-05 -1.647743e-05 -8.309695e-06 1.6426984e-05 1.7834353e-05 4.54442e-05 1.3686952e-05 -0.23425397
1.0958838e-05 0.21449262 0.00030483544 6.9606485e-06 3.41887e-05 1.3003821e-06 1.44079295e-05 2.50914e-06
0.017640192 1.9308925e-05 -5.1825216e-05 1.0190075e-05 2.1179994e-05 -1.2488024e-05 0.0001677222 2.6872698e-05
0.00017135206 -1.1145099e-05 -3.0576216e-06 0.00030008005 0.00025092036 4.6635476e-05 -4.8912384e-06 6.6181155e-06
-1.2175224e-05 0.00018038267 -2.6099628e-05 5.5157536e-05 -4.655603e-06 0.00016358992 -1.0053228e-06 3.52294e-06
-0.5520614 -5.1921135e-05 2.2418768e-05 8.024559e-06 -9.551513e-06 1.1339715e-05 3.5147013e-07 -7.9882244e-05
1.1404746e-05 7.678108e-06 9.640704e-06 0.20229214 -7.2851144e-06 5.6165445e-06 -1.0055156e-05 -0.84992635
1.8904911e-05 -7.0839786e-07 -5.0056897e-06 -4.7377794e-06 8.784579e-06 2.07811e-05 -0.00012181048 1.7532406e-05
2.8452503e-05 0.0657225 -0.011355626 -0.027206862 5.6515732e-06 2.8414193e-05 2.108544e-05 4.9758037e-05
7.4336117e-06 8.721169e-07 -4.5636843e-06 -3.8051217e-05 0.00019228146 1.9022662e-05 8.522172e-06 3.434378e-05
-1.13622555e-05 3.5005437e-06 1.7252783e-05 6.895267e-06 0.00026387614 -1.2805945e-05 -1.291556e-05 0.00016626202
8.983362e-05 -0.76930827 1.1728383e-05 0.07318059 -0.6224189 3.2337375e-05 0.04180963 -1.1516412e-05
0.0002054409 -0.10724876 -1.7115544e-05 1.4792428e-05 6.906179e-06 -1.6658983e-05 1.6247412e-05 -2.0823356e-05
1.2499495e-06 -2.7876144e-05 4.957863e-06 0.1901649 -4.066258e-06 0.00017018807 -0.47510618 5.147359e-06
-3.7023717e-06 0.0002840962 -6.719279e-05 -5.6462295e-06 0.00031065187 -1.2056261e-06 1.7194521e-05 -3.6111996e-07
-1.1371719e-05 1.120721e-05 0.0002765285 -8.964796e-06 -0.00032806772 1.1686083e-05 -1.0125963e-05 0.00030155803
0.00020459668 7.184227e-05 1.1962694e-06 6.8849918e-06 -3.217258e-05 0.0009676915 0.048161797 0.00016423882
00000000: 6b1e 8536 740a 7ab6 aaa6 1037 1476 7536
00000010: d3f0 5d36 9d1c bf35 edc0 1ab6 f935 07b7
00000020: 39c2 8bb7 f7d9 b435 e25c b136 b78b 6eb4
00000030: ad62 98b6 9fe5 8635 8ca3 4f37 751f 12b6
00000040: cd1b bb36 1cc8 10b5 6dfc ce36 7cd9 a636
00000050: bf80 7737 33b3 b9b6 c796 ffb6 9313 a1b6
00000060: 8370 f834 8915 2d37 94fe ebb7 5fe0 b536
00000070: 590e 6db7 7ca6 37b6 82d9 bbb6 395b 7cb5
00000080: 9f6e 6fb7 20d0 c3b6 2d37 2336 4b3c 9734
00000090: c6c4 2e36 0ab9 2935 033b ef36 92c6 4237
000000a0: ae64 59b6 5f60 c1b6 63c2 8d37 26df 15b7
000000b0: f3c0 9b37 9c42 19b7 ae11 3e37 0ef0 9cb6
000000c0: c36d 0335 1126 87b7 7485 8b33 e3fc 2c37
000000d0: 6028 8037 72d7 44b7 af8c 4c36 fc90 d4b6
000000e0: cb0d a536 3476 c036 6728 4f36 d1d9 07b7
000000f0: a107 e3b5 9fdd 1137 a2d5 b736 764b 0937
00000100: 43da 64b6 fa67 be37 818d 8237 be44 cc34
00000110: 36d2 f2b6 7973 29b7 a9ae e735 3014 a836
00000120: 6574 2736 cf32 8836 69ca c4b4 7093 2835
00000130: 8926 8eb5 6725 8cb6 9800 3eb6 722a 9c36
00000140: 9733 d835 e902 f1b6 6706 a836 7419 88b6
00000150: f95b 8bb5 0b7f 40b7 014c 58b6 7606 08b7
00000160: 802b 8436 d3af b1b6 46ad 79b5 f5d7 25b6
00000170: d5dc 6cb7 ae5a 55b7 6b4b 38b7 6b90 1cb7
00000180: 194b e036 3145 dd35 d90d c636 7e5f 15b7
00000190: c994 b736 5883 4d37 a564 79b7 f4e3 6237
000001a0: 2de4 063e cbf1 df36 9394 a337 56c9 b138
000001b0: b07e 4c39 395b 4a3a c7f5 21b6 181b 08be
000001c0: 2c3b a439 4814 3c39 bf0d 423e 3fb9 96b6
000001d0: ca83 0638 079d a6be 20bb 1e37 82e5 5cb6
000001e0: b8b0 7c37 0339 8ab7 de69 0bb7 aecc 8937
000001f0: fb9a 9537 579b 3e38 03a1 6537 46e0 6fbe
00000200: dadb 3737 f4a3 5b3e 52d2 9f39 848f e936
00000210: d665 0f38 ca88 ae35 96b9 7137 b262 2836
00000220: 2a82 903c 9af9 a137 e75e 59b8 0af6 2a37
00000230: b1ab b137 a883 51b7 96de 2f39 ae6c e137
00000240: f8ac 3339 d6fb 3ab7 8a31 4db6 1054 9d39
00000250: f68d 8339 769a 4338 6b1f a4b6 2e11 de36
00000260: 3044 4cb7 1b25 3d39 86f0 dab7 f458 6738
00000270: 5337 9cb6 5689 2b39 a1ee 86b5 a66b 6c36
00000280: e553 0dbf e5c5 59b8 f00f bc37 38a1 0637
00000290: 703f 20b7 b43f 3e37 b0b1 bc34 7486 a7b8
000002a0: 0357 3f37 39d1 0037 82be 2137 ac25 4f3e
000002b0: a872 f4b6 c075 bc36 91b2 28b7 c694 59bf
000002c0: fd95 9e37 bb28 3eb5 8cf6 a7b6 37f9 9eb6
000002d0: 7b61 1337 1353 ae37 8174 ffb8 8e12 9337
000002e0: 49ad ee37 8599 863d f30c 3abc ede0 debc
000002f0: a5a2 bd36 045b ee37 a3e0 b037 49b3 5038
00000300: 3d6e f936 6b1b 6a35 c021 99b6 2f99 1fb8
00000310: 299f 4939 db92 9f37 73fa 0e37 5a0c 1038
00000320: 84a0 3eb7 e2ea 6a36 12ba 9037 e45d e736
00000330: db58 8a39 1dd9 56b7 e8af 58b7 9f56 2e39
00000340: 0f65 bc38 63f1 44bf 05c5 4437 b5df 953d
00000350: d856 1fbf fea1 0738 9340 2b3d 9d36 41b7
00000360: 9f6b 5739 3da5 dbbd 5a93 8fb7 ff2c 7837
00000370: a0bb e736 e5be 8bb7 0d4b 8837 d1ad aeb7
00000380: f0c3 a735 90d7 e9b7 b85b a636 96ba 423e
00000390: e470 88b6 8374 3239 1e41 f3be 7ab7 ac36
000003a0: 4376 78b6 bff2 9439 dbe9 8cb8 be74 bdb6
000003b0: fdde a239 ffd0 a1b5 f43c 9037 f3df c1b4
000003c0: 29c9 3eb7 9a06 3c37 07fb 9039 8167 16b7
000003d0: 8100 acb9 580f 4437 aee2 29b7 6f1a 9e39
000003e0: 0189 5639 06aa 9638 818f a035 a105 e736
000003f0: 0bf1 06b8 adac 7d3a 4e45 453d 8637 2c39

7.bias f4 [100]
-0.021527005 -0.073645584 -0.030936418 0.056710616 -0.12899241 0.05701686 0.057549547 -0.020895569
-0.22535905 0.056379378 -0.020501109 0.05472838 0.057055652 0.056745786 0.058789495 0.056427594
0.0569211 0.056959383 0.056181435 0.053547896 0.05829236 0.056564417 0.058415584 0.058493864
0.05586402 -0.04818737 0.05803018 0.056858584 0.055382695 -0.022204418 0.05444502 0.055320133
0.05547562 -0.10207668 0.057342447 0.057229895 0.058317278 0.056210257 0.05588081 -0.00077376334
-0.3864436 -0.05773831 0.056226645 0.056843664 0.05961181 -0.13309628 -0.13827083 -0.0194175
0.05813823 0.054124698 -0.029131962 -0.023964861 0.059348032 0.057310507 -0.021725656 -0.2871115
-0.020810932 0.055667732 0.055115987 -0.30900997 -0.0680521 0.056800358 0.05705705 0.0057069077
0.057076845 0.05827432 0.054191645 -0.00069247733 -0.074539304 -0.16185066 0.057885263 -0.27329874
-0.17423207 0.05705596 -0.14250314 0.054397594 -0.12052494 -0.13099317 0.058758803 -0.019767812
0.05703627 -0.121711664 0.05637607 0.058741953 -0.12281943 0.057072572 -0.05742941 0.05860217
-0.293222 -0.023641372 -0.2095146 0.057290412 -0.025018599 -0.019939695 0.056528892 -0.020871377
0.05733366 0.015426148 -0.0778311 0.056168716
00000000: 6759 b0bc 7fd3 96bd 5f6e fdbc 6449 683d
00000010: 9616 04be 838a 693d 13b9 6b3d 2f2d abbc
00000020: 86c4 66be 10ee 663d f1f1 a7bc de2a 603d
00000030: 30b3 693d 456e 683d 41cd 703d 9f20 673d
00000040: 1926 693d 3e4e 693d 811e 663d 0a55 5b3d
00000050: f8c3 6e3d 17b0 673d 2e45 6f3d 4397 6f3d
00000060: acd1 643d 1f60 45bd 0eb1 6d3d 8ce4 683d
00000070: f7d8 623d 0ae6 b5bc be01 5f3d 5d97 623d
00000080: 673a 633d 940d d1bd eadf 6a3d e569 6a3d
00000090: 19de 6e3d ba3c 663d 47e3 643d 61d6 4aba
000000a0: efdb c5be 027f 6cbd e94d 663d e7d4 683d
000000b0: 832b 743d 644a 08be de96 0dbe 7311 9fbc
000000c0: 5a22 6e3d dcb1 5d3d 27a6 eebc f551 c4bc
000000d0: ec16 733d 6cbe 6a3d 01fa b1bc 4700 93be
000000e0: b07b aabc d903 643d 4dc1 613d 8e36 9ebe
000000f0: e65e 8bbd 7ea7 683d a7b4 693d 0301 bb3b
00000100: 69c9 693d 0eb1 6e3d 0ff8 5d3d 5e87 35ba
00000110: 10a8 98bd 2ebc 25be 1919 6d3d d0ed 8bbe
00000120: e469 32be 83b3 693d 58ec 11be 03d0 5e3d
00000130: c8d5 f6bd 1323 06be 12ad 703d 1bf0 a1bc
00000140: dd9e 693d f743 f9bd 98ea 663d 679b 703d
00000150: c188 fbbd eec4 693d 1a3b 6bbd d408 703d
00000160: 3221 96be 8dab c1bc ff8a 56be 5aa9 6a3d
00000170: cef3 ccbc 9258 a3bc d78a 673d 73fa aabc
00000180: b3d6 6a3d f4bd 7c3c e965 9fbd 2b11 663d

9.weight f4 [100, 100]
-6.8578956e-06 2.2828494e-06 1.8736164e-06 4.0082853e-07 5.3695153e-06 3.2188464e-06 9.6101685e-06 -1.0672542e-05
8.863721e-06 -1.8151057e-05 5.532861e-06 -3.3470108e-06 2.7393417e-06 -2.5713541e-06 -4.5626567e-07 7.1684935e-06
-8.189253e-06 2.410986e-05 -1.0826864e-06 3.735385e-07 -4.296e-06 -1.2840308e-06 -4.407045e-07 -1.0350529e-05
5.66269e-06 6.2185786e-06 2.6057307e-05 -4.2688694e-06 -1.735714e-06 -1.1830968e-07 5.398556e-06 -1.7971902e-06
-1.242218e-05 -4.816319e-06 9.1767976e-07 2.0687912e-06 2.0114871e-06 -1.937461e-05 3.5672067e-06 1.0669168e-05
8.803978e-07 -8.809158e-06 -7.7672365e-07 -3.2357916e-06 6.3900774e-07 1.7958879e-06 -1.0824319e-05 8.951233e-06
7.759508e-06 -1.2663526e-05 3.3443023e-06 -3.0256267e-06 1.2858926e-06 7.5110374e-06 -5.2290725e-06 -1.6321532e-05
2.5962263e-06 -7.656752e-07 -1.6705576e-06 -6.2624194e-06 -1.6901775e-05 1.0621624e-05 1.352027e-06 -2.416225e-06
-3.3560405e-06 -5.770149e-06 1.1615273e-06 5.4603447e-06 -4.3972273e-06 -2.6446264e-06 3.062145e-08 -1.1150543e-05
4.3084947e-06 5.465593e-06 -5.7339867e-06 5.679153e-06 2.7098407e-05 8.26964e-06 -5.12303e-07 6.090482e-06
-1.3910788e-05 -6.8695294e-06 -4.777626e-06 -4.7027356e-06 -3.0299075e-06 6.3174552e-06 6.853635e-06 -6.3589473e-06
7.298723e-06 7.0343813e-06 -7.929488e-06 -3.6336648e-06 -3.4485809e-06 -2.8737691e-08 -2.5322346e-05 1.7227228e-05
-1.4605801e-05 3.4047407e-06 4.383663e-06 2.3255293e-06 -1.4608114e-05 -1.07491605e-05 -0.00039369217 1.406833e-05
2.4304936e-05 1.1415024e-05 -9.5570695e-06 -1.1010184e-05 0.0003632992 8.812368e-06 8.631483e-06 -1.167318e-05
-4.8756838e-06 -3.3183696e-06 -7.610441e-07 -4.364673e-06 -1.52167395e-05 1.5713899e-06 8.5893356e-07 5.7025713e-06
-1.5987034e-05 -1.1465751e-05 7.4636273e-06 3.6727183e-06 1.2246353e-05 0.118799455 1.9377458e-05 2.355265e-07
1.4454436e-05 0.20099287 -6.914852e-06 4.8843646e-07 5.267331e-06 -0.053066578 5.8791825e-06 -1.3925772e-05
-1.6710539e-05 -1.5095564e-05 -1.2187306e-05 -9.0052345e-05 2.007298e-05 -7.2302387e-06 1.0415714e-05 -7.0936576e-06
3.7698028e-06 0.0009701311 -0.091713525 1.2123303e-05 -6.5006348e-06 8.895943e-06 1.4672584e-05 -0.00038763788
8.192588e-06 -6.649256e-06 -8.588066e-06 0.00020929417 3.062549e-06 1.7909317e-05 -2.0236173e-05 -0.00033856195
-0.00036236303 -1.5972442e-07 4.614975e-06 8.0240325e-06 -3.00088e-06 -4.729249e-06 -4.9196433e-06 2.278867e-06
-0.39561296 -0.034119386 -4.882289e-06 3.187712e-05 -0.06533238 -2.0302125e-06 7.867953e-05 -1.5062681e-05
2.3458839e-05 -0.00013385098 -1.6005151e-05 -7.535427e-06 -6.8396976e-06 1.745218e-05 -2.1224916e-05 -2.1708323e-05
-0.14981095 -3.048958e-06 2.5401867e-05 -2.6511923e-06 0.1749227 3.0811232e-06 0.00046868986 2.154535e-05
1.1086478e-06 9.58974e-06 -2.0037041e-06 2.8468478e-06 1.2179418e-05 2.541253e-05 7.406481e-05 -1.1553271e-06
-1.7530407e-06 -2.0135453e-06 -0.08232169 3.6579067e-06 3.4284974e-05 9.8407845e-06 2.7698976e-05 -1.5671849e-05
-0.30666018 -1.2173216e-05 -1.6252188e-05 1.330866e-05 2.4903395e-05 3.1755382e-05 3.0307661e-05 8.726057e-06
8.481614e-07 1.6397104e-05 1.8855262e-05 1.57041e-05 3.6309626e-05 -9.049381e-06 -6.3004027e-06 -2.0699654e-06
-5.8719556e-06 0.0003017388 -1.8609187e-05 2.4251204e-07 -1.5274809e-07 4.613147e-05 1.9960436e-05 5.959177e-07
-2.1238858e-07 0.0015454468 3.7981525e-05 2.5654934e-05 -3.5356131e-06 -2.0304873e-05 1.3372629e-05 0.00035392537
-5.6288987e-05 0.10018017 3.153462e-05 -4.170695e-06 -5.663231e-07 -0.2544734 -1.5581451e-06 -1.3650593e-05
2.9613882e-05 2.2480805e-05 -1.8703396e-06 0.00028201062 3.9585968e-05 -2.6114535e-06 2.3085454e-06 -0.5205329
00000000: e01c e6b6 0e33 1936 f878 fb35 7431 d734
00000010: c92b b436 5c03 5836 5c3b 2137 380e 33b7
00000020: 64b5 1437 1943 98b7 eaa6 b936 359d 60b6
00000030: 88d5 3736 878f 2cb6 adf4 f4b4 e488 f036
00000040: 9364 09b7 883f ca37 d250 91b5 be8a c834
00000050: 5c26 90b6 f656 acb5 f799 ecb4 2fa7 2db7
00000060: 2302 be36 2fa9 d036 a495 da37 4f3d 8fb6
00000070: aef6 e8b5 6f11 feb3 3e25 b536 fc36 f1b5
00000080: db68 50b7 dd9b a1b6 7956 7635 90d5 0a36
00000090: 16fd 0636 a886 a2b7 2564 6f36 baff 3237
000000a0: 7a54 6c35 0ccb 13b7 0b80 50b5 7a26 59b6
000000b0: 4788 2b35 3d0a f135 199a 35b7 412d 1637
000000c0: d52e 0237 6e75 54b7 ad6e 6036 df0b 4bb6
000000d0: ef96 ac35 5207 fc36 6475 afb6 39ea 88b7
000000e0: d43a 2e36 cd88 4db5 ec37 e0b5 c621 d2b6
000000f0: 49c8 8db7 8733 3237 4b77 b535 6e26 22b6
00000100: 5638 61b6 349d c1b6 c6e5 9b35 0138 b736
00000110: e58b 93b6 567a 31b6 a484 0333 3813 3bb7
00000120: b091 9036 1665 b736 9266 c0b6 8e8f be36
00000130: 6351 e337 d5bd 0a37 3285 09b5 d85c cc36
00000140: 6162 69b7 cf80 e6b6 7f4f a0b6 31cc 9db6
00000150: 6a55 4bb6 87fa d336 47f8 e536 f15e d5b6
00000160: 8ee7 f436 e008 ec36 e408 05b7 e3d9 73b6
00000170: 2b6e 67b6 dada f6b2 536b d4b7 3183 9037
00000180: 700b 75b7 007d 6436 6117 9336 4a10 1c36
00000190: 5f15 75b7 4b57 34b7 7868 ceb9 0407 6c37
000001a0: 74e2 cb37 2883 3f37 4d57 20b7 61b8 38b7
000001b0: 3179 be39 d5d8 1337 f0cf 1037 edd7 43b7
000001c0: ce99 a3b6 28b1 5eb6 8d4a 4cb5 4174 92b6
000001d0: 664b 7fb7 8ce8 d235 7791 6635 b758 bf36
000001e0: e51b 86b7 075d 40b7 1270 fa36 d278 7636
000001f0: b075 4d37 214d f33d c68c a237 08e5 7c34
00000200: 5481 7237 13d1 4d3e 2006 e8b6 191d 0335
00000210: 07be b036 575c 59bd cb45 c536 bca2 69b7
00000220: 9c2d 8cb7 f442 7db7 1578 4cb7 7cda bcb8
00000230: 6562 a837 479b f2b6 27bf 2e37 0e06 eeb6
00000240: b8fc 7c36 6550 7e3a 4dd4 bbbd 3165 4b37
00000250: 0720 dab6 c93f 1537 452a 7637 e03b cbb9
00000260: e672 0937 ad1c dfb6 7615 10b7 fa75 5b39
00000270: 3186 4d36 f73b 9637 dac0 a9b7 0481 b1b9
00000280: 8bfb bdb9 b780 2bb4 55da 9a36 f59e 0637
00000290: ba62 49b6 f1af 9eb6 6a13 a5b6 a3ee 1836
000002a0: c88d cabe c5c0 0bbd 8bd2 a3b6 ccb3 0538
000002b0: fccc 85bd c93e 08b6 c000 a538 b9b5 7cb7
000002c0: 79c9 c437 595a 0cb9 cd42 86b7 d3d8 fcb6
000002d0: 8e80 e5b6 4566 9237 290c b2b7 451a b6b7
000002e0: 0b68 19be b39c 4cb6 1816 d537 23eb 31b6
000002f0: f01e 333e 4bc5 4e36 7dba f539 49bc b437
00000300: d9cc 9435 9fe3 2037 6077 06b6 790c 3f36
00000310: 3456 4c37 fe2c d537 3e53 9b38 bd10 9bb5
00000320: 054a ebb5 7220 07b6 4698 a8bd 5c7a 7536
00000330: 36cd 0f38 d919 2537 195b e837 0a77 83b7
00000340: 9002 9dbe 913b 4cb7 4f55 88b7 4248 5f37
00000350: a2e7 d037 1531 0538 353d fe37 2166 1237
00000360: 35ad 6335 838c 8937 5e2b 9e37 4cbc 8337
00000370: 2a4b 1838 ccd2 17b7 0c68 d3b6 bce9 0ab6
00000380: b707 c5b6 b232 9e39 ed1a 9cb7 9a32 8234
00000390: 1303 24b4 4a7d 4138 b670 a737 27f7 1f35
000003a0: ee0c 64b4 9790 ca3a 5a4e 1f38 8d35 d737
000003b0: 5f45 6db6 6254 aab7 015b 6037 0f8f b939
000003c0: d717 6cb8 432b cd3d 0a44 0438 fff1 8bb6
000003d0: 6d05 18b5 564a 82be 7521 d1b5 da04 65b7
000003e0: 546b f837 2995 bc37 6108 fbb5 d3da 9339
000003f0: 1c09 2638 6e40 2fb6 82ec 1a36 a541 05bf

9.bias f4 [100]
-0.07247798 0.2245914 0.2068889 0.10100643 -0.038672082 0.0332221 0.15562002 0.15091322
0.031002246 0.129267 0.041683573 0.04770858 0.03469142 -0.056269754 0.038174354 0.041681815
0.2187555 0.032774728 0.30318913 0.18220846 0.17529513 0.36013886 0.24758841 0.088065915
0.039785992 0.03898995 0.06834559 -0.06481854 0.12223931 -0.011560481 0.36505163 0.24785765
-0.056903027 0.3057742 0.20766352 -0.057931006 0.12955037 0.24134439 -0.09092492 0.24668922
0.15977372 -0.07081462 -0.06396141 0.02410302 -0.07088047 0.046522822 0.038277574 0.03716439
-0.07024522 -0.040219124 -0.027467718 0.13360095 0.038540334 0.1593328 0.24945903 -0.004215742
0.2777728 0.16343158 0.044427004 -0.07460804 -0.03465299 0.19014323 -0.06394539 0.09493737
0.23527333 0.29656845 0.038809795 0.4297361 -0.069086626 0.2743956 0.043881673 0.13486046
0.18752621 0.25398058 0.12766908 0.05616859 0.004391493 0.03972344 0.19644688 0.05736366
-0.038784157 0.13865109 0.1281902 -0.063693084 0.16170397 -0.046616964 0.021110404 -0.06305408
0.28832775 0.026097469 0.14807037 0.06401783 0.038605336 0.036178615 0.034678917 0.14026661
0.08952616 0.2487117 0.3501492 0.08207863
00000000: 566f 94bd 4afb 653e afda 533e 76dc ce3d
00000010: 9e66 1ebd e613 083d db5a 1f3e ff88 1a3e
00000020: 6cf8 fd3c 925e 043e 65bc 2a3d 126a 433d
00000030: 9718 0e3d 1d7b 66bd b65c 1c3d 8dba 2a3d
00000040: 7101 603e cb3e 063d 9b3b 9b3e db94 3a3e
00000050: 9180 333e 1f64 b83e d187 7d3e e75b b43d
00000060: a3f6 223d edb3 1f3d c6f8 8b3d 95bf 84bd
00000070: 9a58 fa3d 2c68 3dbc 0ce8 ba3e 65ce 7d3e
00000080: 2613 69bd 708e 9c3e bfa5 543e 1049 6dbd
00000090: daa8 043e fc22 773e d836 babd 199c 7c3e
000000a0: b99b 233e 4107 91bd 33fe 82bd b273 c53c
000000b0: c829 91bd b78e 3e3d f2c8 1c3d b039 183d
000000c0: badc 8fbd cfbc 24bd fb03 e1bc b0ce 083e
000000d0: 78dc 1d3d 2328 233e 3072 7f3e 3524 8abb
000000e0: 3d38 8e3e 9c5a 273e 17f9 353d 1acc 98bd
000000f0: 4bf0 0dbd e8b4 423e cdf5 82bd 866e c23d
00000100: 7eeb 703e d2d7 973e 05f7 1e3d 5f06 dc3e
00000110: 4a7d 8dbd 957d 8c3e 45bd 333d dc18 0a3e
00000120: df06 403e be09 823e afbb 023e 0911 663d
00000130: 83e6 8f3b 0cb5 223d 5f29 493e 28f6 6a3d
00000140: 23dc 1ebd 8dfa 0d3e 4b44 033e 8571 82bd
00000150: ba95 253e 6ef1 3ebd baef ac3c 7f22 81bd
00000160: b29f 933e 5cca d53c c29f 173e c81b 833d
00000170: a120 1e3d 0730 143d 7b0b 0e3d 0da2 0f3e
00000180: 7e59 b73d 48ae 7e3e c246 b33e d718 a83d
