models/mnist_fc_2.pt (torch, 360655 bytes, 6 tensors)

1.weight f4 [100, 784]
000000 23 cf 97 38 7e 2d 81 38 4c 97 39 b8 7c b3 be b7
       7.238823e-05 6.159673e-05 -4.4248343e-05 -2.2733344e-05
000010 a2 0b 9a 37 86 65 7b b8 5f a7 f5 b8 b4 13 33 39
       1.8363648e-05 -5.9937614e-05 -0.00011713686 0.0001707811
000020 cf bf a7 38 83 e1 0a b8 68 7f 4a 38 1f 18 4b 38
       7.998908e-05 -3.3111788e-05 4.827921e-05 4.8421436e-05
000030 c2 28 71 38 c5 2a 50 37 20 05 c2 38 f2 3a 35 b8
       5.7496836e-05 1.2407724e-05 9.2515955e-05 -4.320866e-05
000040 76 86 88 37 ba 3b 11 36 7c 59 90 37 e9 dd ca b6
       1.6275077e-05 2.164145e-06 1.7207807e-05 -6.045903e-06
000050 30 cd 01 b8 dc 89 ba 37 39 be 4b 37 c6 4c 2f 38
       -3.0947092e-05 2.2237124e-05 1.2144033e-05 4.1794752e-05
000060 bc f0 c9 b7 8e a3 42 37 81 96 40 38 00 b5 eb 37
       -2.4073168e-05 1.1601382e-05 4.5916535e-05 2.8098468e-05
000070 87 66 35 b7 3e b1 13 38 ba 46 04 39 d1 2a be 36
       -1.0812312e-05 3.52126e-05 0.00012614849 5.6674257e-06
000080 7b 80 ab 36 8b 9a 87 38 d7 6a af b8 4a 6b 3c b8
       5.111154e-06 6.4660875e-05 -8.364551e-05 -4.4922614e-05
000090 9e f5 9d b9 30 26 c9 b8 2e 46 ce 37 19 b4 5a b4
       -0.00030128373 -9.59154e-05 2.4589794e-05 -2.0368351e-07
0000a0 32 0f 73 b7 9a eb 8b b7 a7 40 e9 37 1f 98 4c 37
       -1.4487467e-05 -1.6679802e-05 2.780587e-05 1.2194766e-05
0000b0 c1 54 0a 38 7d ad 68 37 92 0b b1 37 07 e2 33 b8
       3.2980697e-05 1.3868671e-05 2.1105432e-05 -4.288743e-05
0000c0 4c 37 7b 38 19 7f 66 37 72 84 9f b8 86 e3 7a 37
       5.9894563e-05 1.37386605e-05 -7.606381e-05 1.4954136e-05
0000d0 b6 35 35 37 48 4d b4 b7 f6 5d 53 b8 ab 49 05 38
       1.0800946e-05 -2.1493659e-05 -5.0393828e-05 3.177828e-05
0000e0 9a 59 a9 b7 6c 22 22 38 7b 83 01 37 ea 02 8a b7
       -2.0188094e-05 3.8655868e-05 7.719612e-06 -1.6452239e-05
0000f0 81 87 4a b8 e0 55 3b b8 ec 72 b9 b7 ca 0b e9 37
       -4.828675e-05 -4.466425e-05 -2.2107233e-05 2.7781254e-05
000100 08 ae c7 b9 f6 8a df b8 3f 1c 8d 38 8d 53 86 b7
       -0.000380859 -0.00010659352 6.728665e-05 -1.6012951e-05
000110 f2 ba 58 b8 cc 12 a0 39 73 a3 37 39 c0 ed 9c 38
       -5.167252e-05 0.00030531583 0.0001751313 7.482944e-05
000120 0f aa ab 39 a0 1d 81 39 98 7a 89 38 cc f7 0a b7
       0.00032742365 0.0002462687 6.555504e-05 -8.283136e-06
000130 d1 d8 3c b9 a5 cf ee b8 e9 74 28 b8 e5 c2 f0 36
       -0.00018009848 -0.00011387401 -4.0163202e-05 7.175246e-06
000140 68 61 9b 37 7e a1 e4 35 22 56 7e 38 b6 ac 87 37
       1.8522798e-05 1.7034324e-06 6.0638537e-05 1.6173679e-05
000150 af 8d 7b 38 eb b0 c1 b8 fd 4d b7 b8 87 e3 a4 37
       5.9975016e-05 -9.235911e-05 -8.7406464e-05 1.9656274e-05
000160 6f 35 bc 38 aa 47 da b7 9c 1b a1 36 41 17 a5 38
       8.974491e-05 -2.6020996e-05 4.801388e-06 7.8721445e-05
000170 7b 58 3a b9 66 f1 de 38 21 2e fd 38 a3 a4 ae 38
       -0.00017771304 0.00010630749 0.00012072572 8.3276325e-05
000180 f6 e8 80 38 e7 03 2e 3a f0 99 52 3c 0e d4 af 39
       6.146908e-05 0.0006638155 0.012854084 0.00033536594
000190 b4 72 a9 38 61 a6 83 37 76 99 f9 b9 21 9c 0d ba
       8.079913e-05 1.5693893e-05 -0.00047607318 -0.0005401988
0001a0 48 d4 95 b9 f3 84 27 b9 a7 ce 47 39 7c 91 94 37
       -0.00028577656 -0.00015975889 0.00019055103 1.7710721e-05
0001b0 2f 0e 4a b8 4a c9 02 b8 1d 4c 7e b8 f1 0f 95 38
       -4.8173762e-05 -3.118188e-05 -6.0629205e-05 7.107843e-05
0001c0 04 c5 c5 37 1c 0e b0 b4 70 d3 f1 37 18 66 8d b7
       2.3575973e-05 -3.279282e-07 2.8827897e-05 -1.6856051e-05
0001d0 ef 94 b7 b6 8c 4d 81 37 a3 8c f2 37 fe d9 10 39
       -5.471163e-06 1.5414109e-05 2.8914137e-05 0.00013814119
0001e0 af 0a 1a 3a ee 42 d9 39 43 53 07 39 85 7b 5e bc
       0.0005876226 0.00041439332 0.0001290562 -0.013579254
0001f0 a3 70 a9 bc 5b 82 fa bb 01 7b 46 bc e3 e3 17 3a
       -0.020683592 -0.007644934 -0.012114287 0.00057941506
000200 0c 58 1f 3b 07 44 55 3c 0c a6 c9 3b e4 ff 0a ba
       0.0024313955 0.013016707 0.0061538275 -0.0005302413
000210 55 3f 16 ba f9 20 df b9 d0 f2 ba b9 97 5b 49 b9
       -0.0005731483 -0.0004255844 -0.00035657594 -0.00019202974
000220 00 3d 40 38 79 b9 3b b6 f6 e9 94 b8 68 93 47 b5
       4.5833178e-05 -2.797313e-06 -7.1007686e-05 -7.434778e-07
000230 2c 28 1b b7 f6 23 31 36 eb b4 84 b8 02 b3 3c b8
       -9.248073e-06 2.6395987e-06 -6.327949e-05 -4.4989407e-05
000240 99 ae 10 39 02 b1 ac 39 e6 32 c8 39 48 78 86 3a
       0.00013797953 0.00032938278 0.00038184895 0.0010259235
000250 48 d0 fa 3a 61 4b 33 3b c6 18 78 3a 3a ee cd bc
       0.0019135559 0.0027358162 0.0009464141 -0.02513801
000260 47 1e 0a bd a2 33 75 bd d4 77 e3 bd a3 97 7c 3a
       -0.03372028 -0.059863694 -0.1110684 0.0009635633
000270 bb 53 25 3e be 54 43 3e 0e b8 3d 3e 90 eb 09 3e
       0.16145222 0.19075295 0.18527243 0.13468766
000280 10 3c e3 3c ec a3 10 ba 59 b7 9b b9 6a 67 af b9
       0.027738601 -0.00055175903 -0.00029700508 -0.0003345565
000290 78 cc 0e b9 80 2a 7d 39 82 d4 a1 38 18 16 a1 37
       -0.00013618346 0.00024143793 7.716661e-05 1.9202984e-05
0002a0 61 53 58 38 69 ff 3e b8 3a 91 94 37 74 ff 57 b7
       5.1576066e-05 -4.55374e-05 1.7710601e-05 -1.2874476e-05
0002b0 73 b3 bc 38 73 18 98 39 a4 45 4b 39 bd 5e 4a 3a
       8.9979636e-05 0.00029009915 0.00019385532 0.00077198056
0002c0 1c 15 00 3c f5 fc ae b9 47 61 0e bd bd 34 6a bc
       0.007817533 -0.00033376334 -0.03476074 -0.0142948
0002d0 51 e0 d2 bb fc 8d 01 be 18 d8 3d be d8 39 99 bd
       -0.006435432 -0.12651819 -0.18539464 -0.07481736
0002e0 ab d8 47 bb 01 d8 98 bd c6 55 8c bd e5 b6 b0 3b
       -0.0030494134 -0.074630745 -0.068522975 0.0053928965
0002f0 43 d4 7c 3c d8 30 0e 3d a8 53 5c 3d fe 42 2f 3a
       0.0154314665 0.03471455 0.05379072 0.0006685703
000300 ea de 99 b9 e8 71 e0 b8 3f a3 db 37 d2 7b 9e b8
       -0.00029348518 -0.00010702369 2.6182852e-05 -7.5570904e-05
000310 ee aa 99 38 cf 53 85 b7 ca 33 2a b7 12 c9 b4 38
       7.327447e-05 -1.5893862e-05 -1.0144848e-05 8.620521e-05
000320 b6 32 fa 38 ce 89 b6 38 f1 75 32 b9 41 92 a2 bb
       0.000119303746 8.7041044e-05 -0.0001701934 -0.0049612825
000330 60 f4 00 bd a3 42 4c bd 16 e6 d2 bd 1b 2e 58 bd
       -0.031483054 -0.049868237 -0.10297792 -0.052778345
000340 5f da ba bd f7 f4 c7 bd eb 34 17 bd 31 55 e7 bc
       -0.09123682 -0.0976352 -0.0369157 -0.028238865
000350 0c c9 cd bd 49 c0 a6 bd 57 b2 28 be 55 ab 1e 3c
       -0.10048112 -0.08142144 -0.16474281 0.009684403
000360 46 87 dc 3d 79 94 18 3e 42 c1 3c 3e da 85 96 3d
       0.10767989 0.14900388 0.18433097 0.07349749
000370 12 f6 6c b8 24 5e 8d 38 e0 53 91 b7 60 bd 16 b7
       -5.6495956e-05 6.740939e-05 -1.7324404e-05 -8.984789e-06
000380 62 70 0e 37 d3 f7 37 38 43 3e 4f 39 10 ad 59 39
       8.490026e-06 4.3861404e-05 0.00019764253 0.00020759203
000390 07 c8 80 39 63 dc 2c b9 25 c0 05 bb 37 69 86 bd
       0.00024563094 -0.00016485299 -0.0020408717 -0.06563037
0003a0 b8 19 d4 bd b2 ab 8c bd c4 b9 64 bd 3d 6a b3 bd
       -0.10356468 -0.06868686 -0.055841222 -0.08760498
0003b0 66 88 3c bd d3 01 55 3d 81 90 a8 3c ce 53 7c 3d
       -0.046028517 0.052003693 0.020576717 0.06160336
0003c0 48 67 79 3d 4a 95 52 3b 3f b5 c9 bd 2f a8 a2 3c
       0.060889512 0.003213244 -0.09849023 0.019855587
0003d0 5e fd 8f 3d 18 c5 5e 3d 8a 9d fb 3d e4 f6 3d 3d
       0.07030748 0.054387182 0.122859076 0.04637803
0003e0 ca 01 db 38 44 14 74 39 5f c1 6a 38 b7 1f 43 38
       0.00010443067 0.00023277203 5.597004e-05 4.652116e-05
0003f0 5d 14 69 38 1f e3 fe b7 1b 5d 15 39 86 f2 2b 39
       5.5570494e-05 -3.0384921e-05 0.00014244432 0.00016398178

1.bias f4 [100]
000000 1a cc 01 3d fa 3c be 3c fe 2f b5 3d 2a f1 8a be
       0.031688787 0.023222435 0.088470444 -0.2713712
000010 bc 66 3b 3f b7 71 32 3e 60 de f2 3e 5b 19 c7 3d
       0.73203635 0.17426191 0.47435284 0.09721633
000020 7a 78 67 bd 03 70 84 3e fa b2 03 be fc 4c 8a bc
       -0.05651138 0.25866708 -0.12861243 -0.016882412
000030 69 c0 6c 3e 2c 1e c4 3e b2 72 c7 3b 42 2e 55 be
       0.23120274 0.3830427 0.006086671 -0.20818427
000040 7b de 14 be 22 48 01 3d b8 3a a5 be 69 16 ca 3d
       -0.14537995 0.03156293 -0.3227136 0.09867556
000050 49 13 8b 3d 35 73 bc 3d cd c7 44 3e 62 b5 7f bc
       0.06790788 0.092016615 0.19216843 -0.01560721
000060 aa 19 29 3d c7 3b 0f 3e 56 69 e6 3d 0e f1 f3 bc
       0.04128424 0.13987647 0.1125056 -0.02977803
000070 4b 89 a4 bd 54 b8 30 bc 4b fb fa 3c ee df b4 3e
       -0.08033999 -0.010786135 0.030637404 0.35327095
000080 eb d5 79 bc b8 42 9c bd 0d e8 cd bb e8 36 59 be
       -0.015248756 -0.07629913 -0.006283766 -0.21212351
000090 8a 43 b2 3e 5a 29 01 3d da ae 0f 3f 82 8f 8c be
       0.34817153 0.031533577 0.5612618 -0.27453238
0000a0 e1 e4 d6 3d f1 c2 5f 3e 85 5d ee 3e 3d 19 aa 3d
       0.10492874 0.21851708 0.46555725 0.08305595
0000b0 42 2b 8e 3c 47 6c 2e b8 06 ec 88 bd b6 da d3 3e
       0.017354611 -4.1585674e-05 -0.06685643 0.413778
0000c0 df f6 ba 3e 90 51 21 3d 4b c4 82 3e 84 68 51 3e
       0.36516473 0.039384425 0.25540385 0.20450026
0000d0 07 84 5e 3d c2 1e 61 3d cf 3e 50 3e 92 b6 98 3c
       0.05432513 0.054960974 0.2033646 0.018641744
0000e0 44 12 95 bc c1 43 79 3e 0f b7 db bb 12 5f a7 be
       -0.018197186 0.24342252 -0.006705172 -0.3268972
0000f0 88 be 63 3e 2e fc e2 bc 18 ef cd 3e 47 5e 26 be
       0.2224065 -0.02770814 0.40221477 -0.16246901
000100 a4 de 1e bd 99 ab bf bc 73 bf b9 3e ca 10 37 3e
       -0.038786545 -0.023397254 0.36278877 0.17877498
000110 ec 10 a9 bc b9 74 2c 3e 5a 7f 85 be 8a c4 37 3d
       -0.020637952 0.16841401 -0.26073724 0.04486517
000120 27 92 4f be 3e b0 10 be fa 27 47 3e 66 c8 35 be
       -0.20270596 -0.14129731 0.19448844 -0.17752227
000130 7d 47 22 bd 73 5c 45 3e e0 a3 68 bc 50 28 a0 bd
       -0.039618958 0.19273548 -0.014199227 -0.07820189
000140 0f c5 aa 3e 2e 7c 9a 3c be 1a 81 bd 91 b3 f0 be
       0.3335347 0.018858042 -0.06303929 -0.47011998
000150 18 c1 0f 3e 7d 4c 07 3e b8 e3 f3 bc d0 2f b2 3e
       0.14038503 0.13212772 -0.02977167 0.34802103
000160 6b 0f 84 3d d4 af cd 3d e9 02 15 3f b7 c8 a1 bd
       0.06448253 0.10043302 0.58207566 -0.078996114
000170 26 ba 53 3f 00 61 04 bd 43 d1 97 bc 20 fc fd 3e
       0.82705915 -0.03231907 -0.018532401 0.4960642
000180 23 46 5b 3e 0f 41 ea be 94 a9 75 bd ef 65 d7 3e
       0.21413474 -0.4575276 -0.059976175 0.42069957

3.weight f4 [100, 100]
000000 3b ed 01 3d 3f 7d 4b bd 1b d0 0f be 54 05 dd 3d
       0.03172038 -0.04967999 -0.1404423 0.10792032
000010 f9 36 c7 3d 00 13 1d 3e b0 ed 34 3d 14 24 86 3e
       0.09727282 0.15339279 0.04417199 0.261994
000020 2d f6 62 3e 68 27 a7 be b4 42 98 3c 7c 99 0a b7
       0.22164221 -0.32647252 0.018586494 -8.261177e-06
000030 ca 09 61 3e 87 ee 14 3e 81 33 b6 3c 82 1a 25 be
       0.2197639 0.14544116 0.022241356 -0.16123393
000040 48 8b 65 bd 17 a3 73 bd 6e 0c f4 bd cb 8b 2b 3d
       -0.056041032 -0.059481706 -0.11916433 0.041881364
000050 c9 4c 79 3c 13 5e 29 3e 2d a9 6a 3d ec 26 9a 3e
       0.015216061 0.16539793 0.057290245 0.3010782
000060 fe 6e fd bd d8 13 05 be 10 9f 97 3e f8 8d 30 3d
       -0.12374686 -0.12995851 0.29613543 0.043104142
000070 95 93 10 bc 70 01 63 b5 e2 c3 c0 be 7e c6 a4 bd
       -0.008824249 -8.456618e-07 -0.37649447 -0.08045672
000080 04 82 85 be af 5e 9d 3d 6d 5a 04 3e b1 05 aa 3c
       -0.26075757 0.07684075 0.1292512 0.020754667
000090 7e 50 3a be bd 03 65 3d 72 ce dc 3d b0 00 45 3e
       -0.18194768 0.05591177 0.10781564 0.19238544
0000a0 83 fd e7 3c 3f 09 f3 be 35 f4 61 3e ef 2a ae 3d
       0.028319126 -0.47467992 0.22065814 0.08504283
0000b0 56 a2 55 bd 1b a4 b7 3d 67 b4 5e 3e a9 72 c1 3d
       -0.05215677 0.089668475 0.21748506 0.09445698
0000c0 b4 d2 67 bd 32 71 3e ba 42 02 55 3d 9f 2a ce bc
       -0.056597427 -0.0007264792 0.052004106 -0.025166808
0000d0 53 12 0e be 35 d7 a5 3e 9f 5e aa bc e0 b4 c6 ba
       -0.13874178 0.32390752 -0.020797072 -0.0015160106
0000e0 3e 64 1f bc 3f da 65 bd 11 ed db 3d 2d d8 01 be
       -0.009728489 -0.05611634 0.10738576 -0.12680121
0000f0 fe 7d e6 bb 9a f3 94 3c 0c 23 5b be 80 db d7 bb
       -0.0070340624 0.018182565 -0.21400088 -0.0065874457
000100 53 35 58 36 b5 16 b8 b6 9c 87 fa 3c 65 88 85 3d
       3.2217547e-06 -5.4862708e-06 0.030582242 0.06520156
000110 2c d0 d3 b6 91 27 19 3e 35 7b f8 bd 89 e5 ed bd
       -6.3125244e-06 0.149565 -0.12132875 -0.11616046
000120 96 84 79 3d d1 fb 28 3d c1 59 0c 3e 14 b9 78 3e
       0.06091746 0.041255776 0.13706113 0.24289352
000130 ea 5a 0f 37 fd 2a 5b 3d 7b 0b 90 b7 b3 ce 91 3d
       8.544632e-06 0.053507794 -1.7171484e-05 0.07119503
000140 79 83 d6 3d da e0 b1 bd e3 3e ad 3d ce 4c 71 be
       0.10474295 -0.08685465 0.0845926 -0.23564455
000150 b0 f3 1b 3e dd d6 d7 3d 65 d7 a1 3c 57 17 fe ba
       0.15229678 0.10539029 0.019756028 -0.0019385618
000160 1a 1d 74 3b ba 0d fa 3d 8e ec af be 3e c2 1a 3d
       0.0037248791 0.122096494 -0.34360164 0.0377829
000170 cb 0c 4e bd 1e d0 92 3d ef f3 54 b5 51 d1 b2 3d
       -0.05030517 0.071686015 -7.9331124e-07 0.0873133
000180 77 ff df bd 7a 56 1c 3b bd 4f 2c 3d 61 fc c0 bd
       -0.10937398 0.0023855255 0.04206823 -0.094231375
000190 d1 e0 a3 bc da 67 3a be fe c5 71 bd 3a 6d 14 be
       -0.020004662 -0.18203679 -0.05902671 -0.14494792
0001a0 59 26 9d be cd 00 fd bd ee 48 46 be db 2f 3b bd
       -0.3069332 -0.12353668 -0.19363758 -0.045699935
0001b0 ea 96 80 3d c9 00 0a be d6 42 34 3e a4 d6 24 36
       0.062787846 -0.13476862 0.17603621 2.4562842e-06
0001c0 da e2 a6 3e 53 99 0f be 8a 23 d1 bb ff 5b d9 be
       0.3259495 -0.14023332 -0.0063824104 -0.42453
0001d0 94 b4 5c 3c ae 61 15 bb a6 78 5f 3d 28 5c f0 3d
       0.013470788 -0.0022793817 0.05455842 0.117363274
0001e0 e7 3c 50 3e e5 3b d1 bd 51 f5 92 3e d1 06 c7 3c
       0.20335732 -0.10216502 0.28702787 0.024295243
0001f0 c4 21 49 bd 82 ca 9d be 79 dd f5 3d a9 12 3a 3e
       -0.049104467 -0.30818564 0.12005133 0.18171181
000200 13 e0 27 3e 26 3f 49 b5 85 ce 08 3d d1 09 34 3c
       0.16394071 -7.497023e-07 0.033400077 0.010988669
000210 66 2a e4 3d e6 08 5d be 0c 57 ec 3d 35 2a 18 3e
       0.11140899 -0.21585426 0.115400404 0.1485985
000220 46 e3 90 3d 73 0f 94 bd aa dc 46 3c 15 4c 9f 3c
       0.07074599 -0.07229509 0.012137571 0.019445458
000230 10 25 1f 3e 77 76 22 be fd ed 88 be 70 bd 49 3e
       0.15541482 -0.15865503 -0.2674407 0.19701171
000240 39 ad d1 3d 21 a5 7c be 75 7f 08 3e 26 c9 3f 3d
       0.10238118 -0.24672367 0.13329871 0.04682269
000250 68 0a 9c bd 74 3f a2 3d 83 24 45 3d de 4d 87 be
       -0.07619172 0.07922259 0.048130523 -0.26426595
000260 33 10 88 3d c5 25 3b 3e d9 ce eb 3d f0 13 77 be
       0.06643715 0.18276127 0.115140624 -0.241287
000270 8e 12 9e 3d 37 cc 3d 3e 03 f9 f7 3d e9 54 ed bc
       0.07718383 0.18534933 0.12108042 -0.028971152
000280 13 88 08 3e 9c 00 15 be 5d 05 2b 3e e9 5b 5a 3e
       0.13333158 -0.14551014 0.16701265 0.21324123
000290 f6 11 16 37 3e 74 3d 37 1d 24 42 bd 4a cc a3 bc
       8.944879e-06 1.1292343e-05 -0.04739772 -0.019994874
0002a0 9e ab 02 b7 a0 d8 d4 bd 69 32 34 3d a2 dd 50 bd
       -7.788562e-06 -0.103928804 0.043993387 -0.050992616
0002b0 48 48 b4 3c 44 4f f7 bb fe 5d b5 bd be 9e 06 3e
       0.022007123 -0.007547291 -0.08855818 0.13146493
0002c0 ba 31 46 37 4e d9 4a be 8b 1d e6 b6 09 93 8a bd
       1.18132975e-05 -0.19809458 -6.8579734e-06 -0.06766326
0002d0 d4 7b d9 3d 10 13 35 3e 22 9d 2a 3d a2 17 e0 3d
       0.106193215 0.17683053 0.04165376 0.109420076
0002e0 b4 53 3d 3e a1 83 5d 3e 1c 52 08 3d 3d 1d 92 3d
       0.18488961 0.21632244 0.03328143 0.07134483
0002f0 32 67 9c 3e 1b 68 15 3e df 7e 83 be 48 2e 33 3e
       0.30547482 0.14590494 -0.25682732 0.17498124
000300 ae ef 6f 3d c7 8c 89 bd dd 60 06 b6 08 78 91 3d
       0.058578186 -0.06716304 -2.0023938e-06 0.07102972
000310 dd 7e 3c 3d b0 cc 21 3e ad 56 c5 bd 9a 72 24 be
       0.046019424 0.15800738 -0.09635673 -0.16059342
000320 4a 94 1c 3d 71 60 8c 3e 5a f5 09 be b4 28 7e bc
       0.038227357 0.2741733 -0.134725 -0.015512634
000330 97 8c df 3e 01 1e f1 bc fb 63 a0 3e b5 01 96 3e
       0.4366195 -0.029433252 0.3132628 0.29298177
000340 1f 1e f3 bd d4 92 7e be 3f 32 b0 bc 46 ab 15 37
       -0.118709795 -0.24860698 -0.021508334 8.92097e-06
000350 36 0b 74 3c e4 18 07 3d d5 d1 3b 3e 20 20 10 3e
       0.014895251 0.032982722 0.18341763 0.14074755
000360 56 bc 98 3e a7 16 40 3e f4 e3 18 3d 64 0a 27 3e
       0.2983119 0.18758641 0.037326768 0.16312557
000370 16 e2 3c bd 64 67 82 be c0 d7 d8 be 08 c2 50 3e
       -0.04611405 -0.25469506 -0.42352104 0.20386517
000380 17 18 a3 3d a1 39 2d 3d 57 07 09 be fa b2 90 be
       0.07963579 0.042291287 -0.13381706 -0.28261548
000390 86 9e 36 3e 15 56 ee 34 a2 0f 63 be b7 3a b3 3d
       0.1783391 4.4393587e-07 -0.22173932 0.08751433
0003a0 11 1a 12 bd 29 6f 06 3d 63 56 36 be 95 75 7d bd
       -0.03566939 0.032820854 -0.17806391 -0.061879713
0003b0 39 21 63 3d 06 d7 18 be 08 d7 70 bc f2 9b 6d 3c
       0.055451605 -0.14925775 -0.014699705 0.014502512
0003c0 36 e4 92 3d 96 c4 32 3e 1f 72 cb 3e 36 52 00 3a
       0.07172434 0.17457804 0.39735505 0.0004895063
0003d0 d8 33 53 be cf c0 0e be ec 46 b8 be bb 72 7c bd
       -0.20625246 -0.13940738 -0.3599161 -0.061632853
0003e0 09 fc 72 3d d9 17 8d be 86 ab 61 be 8b 64 21 3e
       0.05932239 -0.27557257 -0.22038087 0.1576101
0003f0 04 74 4b be 81 99 59 be 2b f4 3a be 48 82 76 3e
       -0.19868475 -0.21249963 -0.18257205 0.24073136

3.bias f4 [100]
000000 3b ef dd 3d 7f 96 cf bd c2 a4 07 3d 05 05 57 be
       0.10836645 -0.10136127 0.03311611 -0.20998009
000010 64 38 1f 3e 2a d6 0b be 87 dd 47 3e fe 1e 78 3d
       0.15548855 -0.13655916 0.195181 0.06057643
000020 c6 3d b8 bd d3 c3 37 3e da d9 b2 3b 8f ad 8f 3d
       -0.08996157 0.17945795 0.005458099 0.070155255
000030 fa 97 e3 3d e8 19 a0 bd 5c 62 23 3e 34 0a 37 3c
       0.111129716 -0.07817441 0.1595549 0.011171866
000040 62 f4 27 bd f5 b6 f4 bd d2 62 de 3d 9e 89 3d 3d
       -0.041004546 -0.11948959 0.10858692 0.04627382
000050 e1 f5 85 3e aa 2e a0 3e 15 bd bc 3e 6e c7 49 3e
       0.26164153 0.31285602 0.36863008 0.19704983
000060 54 d1 6e 3e 20 aa e7 3d 24 d9 66 3e f9 87 8d bc
       0.2332204 0.11311746 0.2254377 -0.01727675
000070 8f fa 1b 3e 46 50 b2 3e 6f 04 7e 3d a7 b8 b0 3e
       0.152323 0.3482687 0.062015947 0.3451588
000080 a2 30 ee bd 6c 22 72 3e 07 d7 fa 3d 1c 45 b9 3d
       -0.1163037 0.23645943 0.122480445 0.09046385
000090 91 bf a1 3d 35 ff 8c bd 82 68 3a 3c e3 5d b5 bd
       0.078978665 -0.068846144 0.011377456 -0.08855798
0000a0 f1 a3 d7 3e 3e 00 83 3d 6b 35 d9 3d 8d fe a6 bd
       0.42117265 0.063965306 0.10605892 -0.081540205
0000b0 c1 55 8d 3c 73 38 12 3e 71 d0 e0 3c 06 ab ae 3d
       0.017252805 0.14279346 0.027443143 0.08528714
0000c0 ea cd 22 bc b6 8a 73 be ac 41 19 bc 73 46 9b bc
       -0.009936789 -0.23783383 -0.009354036 -0.018954491
0000d0 3a 96 97 3c 45 92 cb bd 86 91 49 3f 88 9d 09 bd
       0.01850425 -0.09940008 0.78737676 -0.0335975
0000e0 17 a3 d1 bd d3 44 c6 3d 0a 09 cb bd 7f 85 2d 3e
       -0.10236185 0.09681096 -0.099138334 0.16945456
0000f0 0f 6c 10 3e 2a d0 ce 3e 6d fe 70 3e 25 db 1f bd
       0.14103721 0.40393192 0.23534556 -0.039027352
000100 32 f2 19 3d 9b 6a 14 be 4c af ab bc 88 8d fc 3d
       0.03758449 -0.14493792 -0.020957612 0.123316824
000110 3d 18 0b 3f d3 6b 3e bc b4 7b ca bd a8 14 bc bd
       0.5433386 -0.011622387 -0.09886876 -0.09183627
000120 7e e5 bf bc 20 ff e5 3d 49 21 6b be 0e cd d2 3d
       -0.02342486 0.11230302 -0.22961916 0.10293017
000130 14 c6 0f bc 4b ba 9e 3e bc 35 d8 3d b8 80 c6 3c
       -0.008775253 0.31001505 0.10557124 0.0242313
000140 0b 9b 29 3e a0 8d 8b bd b2 ab c7 3e 95 87 57 3e
       0.1656305 -0.06814122 0.3899818 0.21047814
000150 49 c0 ee bd 66 52 13 3e 22 8a 28 3e 14 97 11 3d
       -0.11657769 0.14386901 0.16458943 0.03554447
000160 33 0d 44 3e 6d 20 77 3e 38 3a 4b bd 47 f2 88 bd
       0.1914566 0.24133463 -0.04961607 -0.06686836
000170 aa 1a 60 3e 48 7e a2 3d 58 dc 98 3e 50 5d 01 3d
       0.21885172 0.079342425 0.2985561 0.03158313
000180 c1 4a 37 3e 0b 70 d7 bd 7f da 69 3e 66 17 3c 3e
       0.1789961 -0.105194174 0.22837256 0.18368301

5.weight f4 [10, 100]
000000 7a 2f 96 be 98 f0 20 3e 3f 66 8a bc d4 a4 b1 bd
       -0.29333097 0.15716779 -0.016894458 -0.086740166
000010 84 81 5f be 88 55 e6 bd 3c 4d 24 3e 60 bb a9 bc
       -0.2182675 -0.112467825 0.16045088 -0.02071923
000020 6a a7 e0 3d 64 16 6e be 8c 17 9a 3d 2f 09 26 bf
       0.10969432 -0.23250729 0.075240225 -0.64857763
000030 65 bf 4e bd 62 ae 17 be 61 97 d1 be 8c 8c 0b 3e
       -0.050475497 -0.14812616 -0.40935805 0.13627833
000040 38 ad f3 bc 81 a5 82 3d 28 d7 ae be 07 9b cb be
       -0.029745683 0.063792236 -0.34148526 -0.39766714
000050 db e3 bd 3d 01 bf c2 3d 58 73 92 be 20 81 7b 3d
       0.092719756 0.09509087 -0.28603625 0.06140244
000060 72 e5 84 3e de cc a4 3e c4 6f 38 3e 33 2c 23 3e
       0.25956303 0.3218755 0.18011385 0.1593483
000070 a1 66 19 3e 5e 90 7b be 94 6b 6f 3d 93 72 16 3e
       0.14980556 -0.2456679 0.058452204 0.14692144
000080 e6 49 04 3e b8 6b ea be 32 da c9 3d 78 cd 22 be
       0.12918815 -0.45785308 0.098560706 -0.15898693
000090 aa ec 92 3d f3 08 dc b6 3f 96 1e b7 a4 1a ab b6
       0.07174046 -6.5575528e-06 -9.452516e-06 -5.0992985e-06
0000a0 01 4b 2e bf 87 1a 3d bd 18 0a 70 be 65 60 d0 3e
       -0.68083197 -0.046167877 -0.2344135 0.40698543
0000b0 4a 39 f2 bd 70 6e f7 bd 53 ca 81 be aa 4a e8 bd
       -0.11827333 -0.12081611 -0.25349674 -0.11342366
0000c0 1f d1 c9 be df aa 4f be a2 da dc 3e 5a ac 9c 3e
       -0.3941736 -0.20280026 0.43135554 0.30600244
0000d0 8a 7e 11 bf ef 3d 75 b6 a5 95 66 3e 08 a3 cc 3d
       -0.5683371 -3.6543895e-06 0.22518022 0.09992033
0000e0 c2 52 61 b7 3b fa d8 3d 0d 18 bc 3d 07 7d 29 bd
       -1.3430314e-05 0.10594603 0.09184275 -0.041379
0000f0 f6 1b ef be af d0 a1 3e f6 b3 27 bc ab 35 64 bd
       -0.4670102 0.31604525 -0.010235777 -0.055715244
000100 a7 1d 8a bd 66 7a b2 3d 95 08 0f 3e 34 ae 4b 3d
       -0.06743937 0.08714752 0.13968118 0.04972668
000110 cd 60 a5 bd d2 e8 b5 3e 53 7a 30 be 0f 06 67 b6
       -0.08075104 0.3552919 -0.17234163 -3.442521e-06
000120 86 6e 02 3e c4 e2 c8 3c 6d 89 d1 3d 3c 93 18 be
       0.12737474 0.024522193 0.1023129 -0.14899915
000130 e4 c6 8b 37 1a 59 0b 3d 91 f4 5f bd 66 dc 98 bd
       1.6662707e-05 0.03402052 -0.054676596 -0.07463913
000140 3f 61 9f 3a 55 24 d5 bc 45 39 0c bf 31 55 01 be
       0.0012159719 -0.026018301 -0.54774886 -0.12630154
000150 c0 b7 1c be 54 a6 88 be 3b 27 df 3d b7 2c db 3c
       -0.1530447 -0.26689398 0.108961545 0.02675472
000160 0c 1e e7 be 84 0c 76 be 6d 0f 20 3c 74 7d 84 34
       -0.4514011 -0.24028212 0.009769303 2.4678195e-07
000170 2a 01 db be 6d 1e 69 3e bb 0b 2a 3d 18 98 40 3e
       -0.42774326 0.22765513 0.041515093 0.18808019
000180 b3 8a 8c ba bb 5e 55 b6 7a 2a 28 3e 29 0d 76 3d
       -0.0010722488 -3.1794614e-06 0.16422454 0.060071144
000190 cc 50 30 be 24 c0 c7 3e 60 ad 51 3e 61 e5 e4 3c
       -0.17218322 0.3901378 0.20476294 0.027941408
0001a0 10 ea d4 3d ae 0a 73 be a8 9d f8 bd 12 84 44 be
       0.103962064 -0.23734543 -0.121394455 -0.19191006
0001b0 ab 54 92 3e 94 d4 d6 3d c0 f7 95 bd 20 ec 72 3a
       0.28580222 0.10489765 -0.07322645 0.0009266753
0001c0 65 4b 28 3e 85 d9 87 3e 44 e1 62 3e 51 22 a1 3d
       0.1643501 0.26533142 0.22156245 0.078678735
0001d0 0c e8 54 3d 3a cb 8d be fb 46 1d 3e c8 e0 df 3d
       0.05197911 -0.27694112 0.15359108 0.109315455
0001e0 64 08 15 be 23 43 91 be ff 06 b7 3c 22 d0 66 3c
       -0.14553982 -0.28371534 0.022342203 0.014087709
0001f0 c2 e2 8c 3e 43 31 b0 3e 5f be 80 bd df d4 05 be
       0.27516752 0.34412584 -0.062863104 -0.13069485
000200 9e eb 44 bc 46 e3 cb bd ce b1 d2 be 11 3b 89 3e
       -0.012019066 -0.09955458 -0.4115128 0.26802877
000210 00 10 32 3f 90 04 c1 3e 4a b6 fa bd 10 16 e0 be
       0.69555664 0.37698793 -0.122418 -0.43766832
000220 57 3c 0f bf 27 45 f5 36 41 ac 2f 3b 0e c9 9b b6
       -0.55951446 7.3096194e-06 0.0026805552 -4.642766e-06
000230 ed 43 a2 ba c8 ee 04 3e 80 33 f9 3b ed 2a c3 3d
       -0.0012379863 0.12981713 0.007605016 0.09529672
000240 0a fb e5 be b6 88 e9 3d 95 66 9a bd 12 c7 c3 3d
       -0.4491809 0.11403029 -0.07539097 0.09559454
000250 ae 25 35 3e 0b 76 fc bc e0 c3 02 3e 82 20 63 3e
       0.17690155 -0.030818006 0.12770033 0.2218037
000260 03 37 a0 3d e3 2a b5 b6 0f 7b ca 3e c7 dc dc be
       0.07822993 -5.399213e-06 0.3954701 -0.4313719
000270 02 0a 34 37 ba 68 9a be 56 d2 fe 3d 59 5d aa be
       1.0731166e-05 -0.30158025 0.12442462 -0.33274344
000280 f9 fc c0 be 36 bb ca 3e ec f4 63 3e 0b 7c 6f bd
       -0.37693003 0.39595956 0.22261399 -0.058467906
000290 c2 8c df bc 06 f0 8f be 70 a7 38 3c 8f 12 3f be
       -0.027288798 -0.2811281 0.011270389 -0.18659423
0002a0 b6 40 e5 3e f3 93 a9 3c 7a 8c 1d 3e ae 27 eb b5
       0.44775933 0.02070043 0.15385619 -1.7520413e-06
0002b0 ac 5c d1 bd a7 c4 0a bf 64 3a 24 3d 58 10 96 be
       -0.10222754 -0.5420632 0.04009475 -0.29309344
0002c0 c6 52 10 b6 4f 73 d6 bd d1 15 e1 be 99 96 33 bd
       -2.1505853e-06 -0.10471212 -0.43961957 -0.043844793
0002d0 49 ee aa 3d 69 75 2d 3e e3 f7 d4 3d 8f e4 bc bd
       0.083462305 0.1693932 0.10398843 -0.092232816
0002e0 4e ff 36 be 25 7b 4c be b8 24 81 be 84 65 ca be
       -0.17870829 -0.19968851 -0.25223327 -0.39530575
0002f0 ec eb 7c be e3 4d 66 3e a8 c6 9f be 9c ff 89 33
       -0.24699372 0.22490649 -0.3120625 6.426055e-08
000300 1a c1 8f 3c 4d cf 98 3d b7 35 88 3d 8e 63 29 bd
       0.017548133 0.074614145 0.0665087 -0.04135471
000310 c1 d9 6d bd 36 f1 ec b6 11 e0 b9 be ed 9b 83 be
       -0.058068994 -7.0614287e-06 -0.36303762 -0.257049
000320 70 58 1b 3c ee 43 db bd e5 14 9e be b3 0a 35 3e
       0.009481534 -0.10706316 -0.30875316 0.17679863
000330 94 d4 00 bd a3 f3 c6 bd ba 63 96 3c af 21 a1 bd
       -0.03145273 -0.09714439 0.0183581 -0.07867753
000340 1e ca 11 3e 7f c6 05 3f 28 4f d9 3d 21 94 0a be
       0.14237258 0.52256006 0.10610801 -0.13533069
000350 50 95 90 3d 39 02 34 bc 12 3b cb bd c9 79 07 3e
       0.07059729 -0.010986858 -0.09923376 0.13230051
000360 ac 52 c0 be f3 17 45 3e ca f2 14 be fe c0 01 be
       -0.37563074 0.19247417 -0.14545742 -0.12671277
000370 8a e4 ce 3d 4c 8f c6 3e 2f 76 cb 3e cd 7e 80 be
       0.10102184 0.38781202 0.39738604 -0.2509674
000380 51 6f 2d 3e b2 7c 29 be 29 40 f5 3d 6a 1d f0 bd
       0.16936995 -0.16551474 0.11975128 -0.1172436
000390 99 79 93 3d 8e 01 d7 bd 96 30 02 be f0 78 09 bd
       0.07200927 -0.104983434 -0.12713847 -0.0335626
0003a0 12 f2 86 bd 9c 0c 08 bf 3f 51 ba bd 13 50 00 be
       -0.0658914 -0.5314424 -0.09097528 -0.12530546
0003b0 6b 2b d5 3d 82 03 2b 37 a0 79 84 be 1f a0 dd b7
       0.10408672 1.0193211e-05 -0.25874043 -2.6419815e-05
0003c0 71 1a 3c 3c 97 3d cb ba 87 3e 82 3d f1 5f 97 3e
       0.0114809135 -0.0015506026 0.063595824 0.29565385
0003d0 e5 08 87 3d 0f ce fd 3b f7 97 34 3e be e1 8a 3e
       0.06593493 0.0077455114 0.17636095 0.27125353
0003e0 20 7a 94 bc 6b 08 ab 3e 7f be 70 3d ab bf a8 bc
       -0.01812464 0.3340486 0.05877542 -0.020599207
0003f0 0d 57 ee 3c 25 2a 0f 37 42 6e ad be ea 15 98 bd
       0.029094243 8.533277e-06 -0.33873183 -0.07426055

5.bias f4 [10]
000000 0c de b1 bc ab 9b 32 bd 93 43 2a 3e aa 17 a2 bd
       -0.021712326 -0.043605488 0.1662734 -0.0791467
000010 80 21 3b bd 0a 54 e6 3d d2 99 48 3d a7 22 84 bd
       -0.045686245 0.11246498 0.04897482 -0.06451922
000020 d0 cd ec bd 97 1e 3a bb
       -0.11562693 -0.002839958
